archived/ppo_2048_2500.pth (torch, 449893 bytes, 9 tensors)

network.0.weight f4 [256, 272]
0.04407726 0.013385642 0.051505864 0.009892905 0.04027764 0.055690926 0.026845196 -0.017731983
0.055576466 -0.028816437 0.05126502 0.025415475 0.03600308 0.048583724 0.030857645 -0.005754151
-0.051381264 0.013826595 0.058721438 -0.032354757 0.032738347 0.04663724 -0.0012540473 -0.036515158
-0.02860196 0.051817752 -0.015589165 0.029938575 0.02224086 0.028743079 0.015436542 0.057504322
0.02821711 -0.010382109 -0.054168977 0.026398443 -0.0073342137 -0.0010817109 -0.022327404 0.052731164
0.00886963 -0.009958692 0.07184293 0.057537038 -0.0021102221 0.025497166 -0.038194843 -0.049180213
0.045099486 0.036119316 -0.04066176 -0.06831425 0.052129824 -0.0060396884 -0.0004978174 0.027693687
0.04814254 0.042154074 0.0047297445 0.054671712 0.002867303 0.017956542 0.02784312 0.01510454
0.047934994 0.05482469 0.02912322 0.054035965 -0.040317565 -0.025773298 -0.0426996 -0.020370793
-0.0062011615 -0.016388174 -0.02100406 0.010846688 0.05184538 0.047696047 0.03557661 -0.015377937
0.03902581 -0.036235247 -0.031981524 0.028148435 -0.02554034 0.015341009 0.012732751 0.053200107
-0.015420874 -0.06317523 0.017630253 -0.0023599102 0.027862828 0.042806555 0.049614962 0.036090873
-0.049944498 0.029966077 0.013319316 -0.045501523 0.037275665 0.02593655 -0.068415724 -0.009899909
-0.03607233 0.043602508 -0.041660767 0.008135084 0.010392988 0.0470926 0.001105399 0.045830894
0.0083372295 -0.05090779 -0.05551674 0.013092432 0.02889628 0.026966803 0.049426157 -0.0010517669
-0.008699534 -0.022435958 0.044946365 -0.050941303 -0.039565653 0.07951989 0.004116099 0.08863212
-0.047866426 0.044542488 0.044354443 0.013462158 0.044807397 -0.008165063 0.039642803 -0.019801239
-0.0566436 -0.0346943 -0.052457295 -0.017492129 0.06353023 0.015949598 0.005246827 0.032194514
0.056757398 0.0027901863 0.00041519795 0.043123484 0.023773896 0.04905985 -0.050639924 0.049239445
-0.041272882 -0.0073429155 -0.030778512 -0.0049086288 0.041794408 0.0005996477 0.06586017 0.012033709
-0.014518262 0.10298308 0.050112445 -0.026839161 -0.027635 -0.060105827 -0.00821803 0.019470392
0.057881556 0.02043954 -0.051907793 0.020515658 -0.040139854 0.041002005 0.014643685 -0.010578618
0.014526109 0.028905418 -0.023640146 -0.020247018 0.049191084 0.054188512 0.03919878 0.0353471
-0.02544884 0.040296197 -0.05080618 -0.02724031 -0.015611323 0.020599127 0.0026252542 0.0059447284
0.007569362 0.032882888 0.06745593 0.07691275 -0.059267875 0.020987619 -0.05831028 -0.01960949
-0.040327054 0.04886461 0.060439207 -0.05762887 -0.020095367 -0.04236482 -0.010468246 0.06208057
0.06193438 -0.00042691603 0.06436038 0.026792435 0.024961093 0.02117605 0.0484981 0.044943403
-0.052420832 0.03798336 0.02030662 0.016714316 -0.011398362 -0.031648714 0.013182069 0.0055544535
-0.014929474 0.00058546616 -0.03282986 0.05689437 0.04368595 0.08221294 0.012440355 -0.040092364
0.059099715 0.060415175 -0.012086617 -0.0059183524 -0.023507481 -0.036709283 0.0005174535 0.03381722
-0.019979816 0.0063238903 -0.046640035 -0.0073864735 0.005424333 0.007180966 0.016672803 -0.0378793
-0.047589496 0.008781449 -0.027808996 0.013397409 -0.043622173 -0.04495564 0.026246326 0.00040986645
00000000: 5b8a 343d 744f 5b3c d0f7 523d da15 223c
00000010: 2bfa 243d 2b1c 643d 75ea db3c aa42 91bc
00000020: 26a4 633d 7310 ecbc 45fb 513d 1d34 d03c
00000030: f777 133d baff 463d 2cc9 fc3c 518d bcbb
00000040: 2975 52bd f188 623c e485 703d 6c86 04bd
00000050: a518 063d b106 3f3d d85e a4ba eb90 15bd
00000060: a84e eabc da3e 543d b269 7fbc be41 f53c
00000070: 7732 b63c 9b76 eb3c 8de9 7c3c a789 6b3d
00000080: 9227 e73c b919 2abc 4ae0 5dbd 8c41 d83c
00000090: d853 f0bb 32c8 8dba f6e7 b6bc a2fc 573d
000000a0: ed51 113c c829 23bc 6322 933d f5ab 6b3d
000000b0: a74b 0abb 6fdf d03c 3272 1cbd 3171 49bd
000000c0: 3dba 383d d9f1 133d f28c 26bd 57e8 8bbd
000000d0: 1586 553d 94e8 c5bb f67f 02ba dfdd e23c
000000e0: 1d31 453d c0a9 2c3d f9fb 9a3b 72ef 5f3d
000000f0: 5de9 3b3b 9919 933c 4117 e43c 0879 773c
00000100: 7c57 443d db8f 603d d293 ee3c d154 5d3d
00000110: 0824 25bd 8622 d3bc c7e5 2ebd a6e0 a6bc
00000120: 1d33 cbbb 7e40 86bc b510 acbc 4fb6 313c
00000130: d25b 543d ee5c 433d c8b8 113d bef3 7bbc
00000140: 87d9 1f3d 696b 14bd 0fff 02bd 8c97 e63c
00000150: fa39 d1bc db58 7b3c 079d 503c 5be8 593d
00000160: d5a7 7cbc 0462 81bd 526d 903c b9a8 1abb
00000170: 9640 e43c ed55 2f3d 0f39 4b3d 06d4 133d
00000180: 9a92 4cbd 6b7b f53c 4339 5a3c ce5f 3abd
00000190: 5eae 183d e378 d43c 8b1d 8cbd 3a33 22bc
000001a0: 94c0 13bd 8b98 323d 7ba4 2abd 0449 053c
000001b0: 5a47 2a3c 2ce4 403d 09e3 903a 2db9 3b3d
000001c0: e098 083c b084 50bd 8565 63bd a481 563c
000001d0: e4b7 ec3c 7ce9 dc3c 1573 4a3d 71db 89ba
000001e0: 7e88 0ebc 9dcb b7bc ae19 383d d4a7 50bd
000001f0: 980f 22bd 53db a23d 57e0 863b c284 b53d
00000200: 960f 44bd 2f72 363d 01ad 353d 6290 5c3c
00000210: f687 373d c2c6 05bc 7e60 223d 3536 a2bc
00000220: 1f03 68bd 9c1b 0ebd 76dd 56bd a74b 8fbc
00000230: 231c 823d bba8 823c 93ed ab3b 65de 033d
00000240: 727a 683d 8fdb 363b edae d939 40a2 303d
00000250: 79c1 c23c fbf2 483d cf6b 4fbd 4daf 493d
00000260: c10d 29bd d79c f0bb 3823 fcbc 90d8 a0bb
00000270: 9d30 2b3d ad31 1d3a b2e1 863d 0929 453c
00000280: 01de 6dbc cbe8 d23d b542 4d3d cddd dbbc
00000290: cc62 e2bc 8731 76bd eba4 06bc 5f80 9f3c
000002a0: 3615 6d3d d270 a73c 449d 54bd 7410 a83c
000002b0: b069 24bd b8f1 273d 11ec 6f3c f151 2dbc
000002c0: ebfe 6d3c 0ecb ec3c fba8 c1bc 13dd a5bc
000002d0: 977c 493d c6f4 5d3d e68e 203d 1fc8 103d
000002e0: 167a d0bc a00d 253d 241a 50bd 1227 dfbc
000002f0: a2c6 7fbc 80bf a83c 750c 2c3b ffcb c23b
00000300: 6908 f83b 35b0 063d 5626 8a3d 6f84 9d3d
00000310: dfc2 72bd 3aee ab3c c3d6 6ebd 15a4 a0bc
00000320: fb2d 25bd 4226 483d 1a8f 773d 400c 6cbd
00000330: 0a9f a4bc bc86 2dbd 0283 2bbc 3248 7e3d
00000340: e8ae 7d3d b3d3 dfb9 60cf 833d cf7b db3c
00000350: 357b cc3c 6579 ad3c f2a5 463d 9316 383d
00000360: 3ab7 56bd 7194 1b3d 125a a63c 76ec 883c
00000370: 32c0 3abc 15a2 01bd 9bf9 573c 2202 b63b
00000380: c19a 74bc f879 193a 9a78 06bd 120a 693d
00000390: 0af0 323d 425f a83d a1d2 4b3c e437 24bd
000003a0: 8b12 723d e775 773d f206 46bc bdee c1bb
000003b0: c392 c0bc 795c 16bd b7a5 073a ed83 0a3d
000003c0: b6ac a3bc a338 cf3b 9f09 3fbd 3b0a f2bb
000003d0: 9abe b13b 4f4e eb3b 6795 883c 5327 1bbd
000003e0: 34ed 42bd 11e0 0f3c b1cf e3bc ce80 5b3c
000003f0: 2aad 32bd 6823 38bd 8902 d73c 58e3 d639

network.0.bias f4 [256]
0.0677382 -0.004746302 0.07440227 -0.0044801678 0.065446846 0.017913306 -0.04766301 0.03451984
-0.009408532 -0.026083335 0.04513632 -0.054819494 0.017381873 -0.0024538105 0.061464317 0.044099584
-0.0010550881 -0.0042568543 -0.049276974 0.038984403 0.031251475 -0.011371458 0.05107929 0.037433445
-0.020628558 0.01627795 0.009188958 0.030654348 0.02407469 0.030694097 0.017797865 0.061584275
0.011451684 -0.028424423 -0.018814296 0.00908305 0.0006181342 0.026726916 -0.050251342 -0.046316214
-0.015963696 -0.0017545519 0.052371632 0.058040187 0.024148049 0.06758682 -0.012879676 0.026913036
0.014917713 0.00869346 0.06528393 0.051196445 -0.030675698 0.032101575 0.04137048 0.051711217
-0.046841808 0.034387585 -0.0231395 -0.045205627 0.033327952 0.0660022 0.019224662 -0.043103073
0.0412245 -0.017663902 0.05542233 0.0005838471 -0.055410825 0.039728127 -0.026821645 0.02419015
0.040790882 0.012823123 0.032667503 0.012504606 -0.00061811804 0.044283617 0.0022964876 0.02097757
-0.027196096 -0.014529057 0.01914403 0.03088653 0.003834122 -0.014285987 -0.040625505 -0.037451185
0.051814184 0.042190194 0.00026901174 -0.0134305665 0.053884964 0.009243484 -0.005470703 -0.04567641
0.04005107 -0.050565463 0.06027869 0.035684515 -0.03911654 0.0048230668 0.012083162 0.0013691738
0.031268965 0.022672791 0.009382784 0.013042056 -0.03959028 0.065641314 0.07299449 0.022822274
0.012144039 0.056342598 0.030404316 0.014132817 0.02154935 -0.0005037559 -0.037052363 -0.039911933
0.022972377 -0.06249894 0.014736242 0.023309909 0.013906478 0.028085051 0.020473523 0.033900093
0.05375282 -0.016460655 0.057516355 -0.014370607 0.045927625 -0.019403666 -0.034693018 0.0570534
0.023712147 0.05334352 -0.01579944 -0.033299867 0.003624228 0.011328182 0.022612806 0.04844941
0.033386715 0.049017504 0.015698317 -0.001934342 0.051835574 0.037436023 0.010491599 0.022719122
0.0042256913 0.0005746276 -0.031251304 -0.056582943 -0.043439783 -0.020526849 0.06575213 0.047213025
0.050615363 -0.025162263 -0.029117344 -0.038494468 0.012162935 -0.024689168 -0.05901948 -0.031903334
0.01468952 -0.04842351 -0.012074465 -0.022734836 -0.0013561328 0.020980349 -0.042346746 -0.037050158
0.019508442 -0.025294514 0.03182138 -0.0509017 -0.0031294718 0.0528963 0.045225743 -0.02423292
0.06862155 0.02965319 0.03202447 0.023712806 0.040199406 -0.03692246 -0.004917462 0.042246874
0.022404626 0.027620925 0.01996319 0.058957435 -0.037320957 0.020906547 0.048790786 0.021797508
0.03221654 0.059767462 0.008675489 -0.034475945 0.055365153 0.032135237 0.03105332 -0.04551126
0.047933105 -0.0055869617 -0.028730076 0.004227175 0.055825707 0.040014274 -0.024265213 0.016325833
-0.035251092 0.042262096 0.038167823 0.012018311 -0.0073569394 0.03524019 0.0002761884 0.025193486
-0.036808137 0.008120573 0.010716672 -0.029036252 0.064108334 0.050880328 -0.019323833 0.053683918
-0.013666819 -0.042558372 -0.02420119 0.008478062 -0.020713808 0.008503932 0.009405363 0.015643336
-0.044664092 -0.004205486 0.07197298 0.03844419 0.0123416325 0.01442098 0.026988821 0.025770584
-0.03103875 0.023597917 -0.04676423 -0.024561707 0.03825794 0.004621451 -0.0014692848 -0.014096127
00000000: 53ba 8a3d de86 9bbb 3860 983d 5fce 92bb
00000010: ff08 863d edbe 923c 4a3a 43bd ad64 0d3d
00000020: 3e26 1abc b8ac d5bc dde0 383d 688a 60bd
00000030: 6e64 8e3c 1cd0 20bb 02c2 7b3d c4a1 343d
00000040: e24a 8aba 157d 8bbb a7d6 49bd 1cae 1f3d
00000050: 8c01 003d 5a4f 3abc 8538 513d d053 193d
00000060: 39fd a8bc 5659 853c 498d 163c d41e fb3c
00000070: 4938 c53c 3072 fb3c d4cc 913c cb3f 7c3d
00000080: d89f 3b3c 56da e8bc 7020 9abc 13d1 143c
00000090: 490a 223a 68f2 da3c 5ad4 4dbd 12b6 3dbd
000000a0: 4cc6 82bc fef8 e5ba a383 563d 8cbb 6d3d
000000b0: 21d2 c53c f56a 8a3d 4705 53bc ba78 dc3c
000000c0: 6c69 743c 046f 0e3c 95b3 853d 5db3 513d
000000d0: 9a4b fbbc f17c 033d 1874 293d 24cf 533d
000000e0: 32dd 3fbd ffd9 0c3d 0c8f bdbc 8929 39bd
000000f0: e482 083d 292c 873d 0a7d 9d3c d98c 30bd
00000100: 05db 283d e3b3 90bc 8602 633d 510d 193a
00000110: 76f6 62bd f6b9 223d 11b9 dbbc 6c2a c63c
00000120: 5714 273d 1318 523c 5cce 053d 1ee0 4c3c
00000130: 3309 22ba bd62 353d ab80 163b 27d9 ab3c
00000140: 59ca debc 480b 6ebc f1d3 9c3c c005 fd3c
00000150: e545 7b3b c60f 6abc ee66 26bd 6a66 19bd
00000160: 1c3b 543d a0cf 2c3d 250a 8d39 e10b 5cbc
00000170: 7bb6 5c3d fb71 173c 9543 b3bb 3017 3bbd
00000180: 970c 243d bb1d 4fbd cae6 763d ed29 123d
00000190: aa38 20bd d10a 9e3b 74f8 453c d975 b33a
000001a0: e313 003d 4abc b93c 40ba 193c 59ae 553c
000001b0: 6b29 22bd f46e 863d 237e 953d c7f5 ba3c
000001c0: cbf7 463c 7fc7 663d 7912 f93c 558d 673c
000001d0: 4388 b03c 7c0e 04ba 38c4 17bd b27a 23bd
000001e0: 9130 bc3c e3fe 7fbd 4770 713c 6cf4 be3c
000001f0: ffd7 633c 9f12 e63c 17b8 a73c d3da 0a3d
00000200: eb2b 5c3d 7fd8 86bc 4596 6b3d b272 6bbc
00000210: 9b1e 3c3d 70f4 9ebc 441a 0ebd d3b0 693d
00000220: fa3f c23c bc7e 5a3d d46d 81bc 7165 08bd
00000230: 7584 6d3b d799 393c 7e3e b93c e372 463d
00000240: 82c0 083d 94c6 483d c299 803c bf89 fdba
00000250: 8a51 543d 8456 193d f5e4 2b3c 741d ba3c
00000260: ab77 8a3b 9ba2 163a 5e01 00bd 84c3 67bd
00000270: eaed 31bd ec27 a8bc 0da9 863d 7262 413d
00000280: 0e52 4f3d 1721 cebc 7f87 eebc 60ac 1dbd
00000290: 0c47 473c f040 cabc 69be 71bd 12ad 02bd
000002a0: 50ac 703c bb57 46bd fad3 45bc 683e babc
000002b0: 44c0 b1ba fbde ab3c c873 2dbd e8c1 17bd
000002c0: 2bd0 9f3c 7136 cfbc 2357 023d 4d7e 50bd
000002d0: d317 4dbb caa9 583d a13e 393d 1e84 c6bc
000002e0: 7589 8c3d 3feb f23c 172c 033d 5c41 c23c
000002f0: 22a8 243d 013c 17bd a922 a1bb 0f0b 2d3d
00000300: e889 b73c 4745 e23c d889 a33c 5a7d 713d
00000310: dcdd 18bd 3544 ab3c d9d8 473d b090 b23c
00000320: 7ef5 033d bace 743d a323 0e3c a636 0dbd
00000330: 92c6 623d 3da0 033d 8863 fe3c 046a 3abd
00000340: 8155 443d d512 b7bb 565b ebbc 1d84 8a3b
00000350: 7fa9 643d 02e6 233d d7c7 c6bc c1bd 853c
00000360: 7363 10bd 051b 2d3d dd55 1c3d 73e8 443c
00000370: 7b12 f1bb 0458 103d 61cd 9039 9262 ce3c
00000380: 21c4 16bd 270c 053c fb94 2f3c 6fdd edbc
00000390: 3b4b 833d e467 503d 044d 9ebc abe3 5b3d
000003a0: cbea 5fbc b051 2ebd 9341 c6bc 92e7 0a3c
000003b0: 01b0 a9bc 1354 0b3c f418 1a3c 7426 803c
000003c0: b2f1 36bd 2cce 89bb 9266 933d a877 1d3d
000003d0: 8f34 4a3c f945 6c3c a917 dd3c d51c d33c
000003e0: fa44 febc 6b50 c13c d98b 3fbd a235 c9bc
000003f0: 5cb4 1c3d 8a6f 973b 0495 c0ba 71f3 66bc

network.2.weight f4 [128, 256]
0.04377803 -0.016698986 -0.036106944 -0.016801823 0.06259873 -0.07570967 0.050682746 0.01303364
0.037458397 0.06830898 -0.04109078 -0.04819813 -0.03576092 0.020463575 -0.026370533 0.054882757
0.039663706 -0.018144708 0.013209241 0.06992533 0.05743318 0.020652588 -0.02390056 -0.035513643
-0.033574227 -0.06064277 0.05622941 0.003871215 0.015635625 0.04763134 -0.010390974 0.008118602
-0.0206928 0.0011449674 -0.0073851477 0.030825712 0.048012964 -0.05642541 0.00078606914 0.03784642
-0.039232906 0.031256445 0.058839407 0.03593225 0.04228518 -0.045715436 0.043454256 0.061871435
0.0526373 -0.041755304 0.020280687 0.057322964 -0.012959611 0.045927513 0.049997218 -0.066447996
0.06953562 0.040514678 -0.03784376 -0.014903832 0.026790798 -0.045633018 0.0065647117 0.023071425
-0.04802653 0.029166378 -0.005569488 -0.011204022 0.030383427 0.05923077 0.05272629 0.04524901
0.015746363 0.045575652 0.018226188 -0.043289807 -0.029682063 -0.041517254 0.0037596237 -0.03063364
0.020233683 -0.027288262 0.011283494 0.03291478 0.047109496 0.037924398 0.0087300595 0.03477797
0.04124049 -0.041707173 0.045808654 0.061898347 0.05235408 0.03959343 0.0433613 0.0075737596
0.026125386 -0.017403375 0.0505684 -0.015265809 -0.035084512 0.03739736 0.0047592204 -0.0134619335
-0.033990797 0.03913088 0.07240255 0.03612107 -0.06726437 -0.03457758 -0.01774793 -0.029368805
0.0009279271 0.010812341 0.012565255 -0.034476005 -0.030495236 0.02037761 0.061942957 0.039831355
0.040919896 -0.028791148 -0.006265802 -0.037992895 -0.027862905 -0.02867922 0.040611677 -0.023238266
-0.0259066 -0.025047235 -0.052219547 -0.031117309 -0.0038671566 -0.002283678 -0.015639838 0.0443433
0.040825292 -0.034478135 0.066270664 -0.05104835 0.038505666 -0.03515079 0.0046493267 0.009371434
0.047175027 -0.012624974 0.0063083633 0.025837326 0.0009185414 0.06211682 0.07739756 0.05948291
-0.023819296 -0.03591743 0.03941714 0.04624313 0.015220954 0.011796482 -0.04241066 0.01563099
0.049267683 -0.0062496667 0.014828586 0.05052086 0.07228861 -0.057655375 -0.044522107 -0.010724759
0.024360837 -0.012408808 -0.037850887 -0.0028627713 0.030490179 0.0531418 -0.02886345 -0.05063341
0.056727454 0.041570917 0.02435315 -0.07523544 0.01800333 0.06147172 0.04894893 -0.016608315
0.0058734803 -0.016585251 0.06343252 -0.04706425 0.00085413636 -0.06411365 -0.04811901 0.032593545
-0.007126114 0.017173791 0.05887246 0.07784272 0.045123614 -0.004724921 -0.04487825 0.024405848
-0.043340914 0.040223546 0.024896344 -0.0057638586 0.05316788 0.024309387 -0.06328665 -0.028444525
0.040928975 0.04644866 0.07394455 0.015190659 -0.0008333095 -0.028980715 0.0074383444 0.013999025
0.022695625 -0.017456828 -0.025648262 -0.006708808 0.071091354 0.055575244 -0.015522807 0.062346853
0.06869282 0.005146638 -0.037464432 0.052295923 -0.016979061 0.06099445 -0.072640456 0.053925972
0.036602896 -0.016805181 0.060898177 0.00922657 -0.046325516 0.023818268 -0.023919256 0.029988099
-0.028000813 0.014095532 -0.023474697 0.072577626 -0.020414721 -0.03914737 -0.046868186 -0.055946775
-0.029957676 0.050771996 0.05800366 -0.048694268 0.03787409 0.04735297 -0.072306916 0.020362627
00000000: 9750 333d 50cc 88bc e0e4 13bd faa3 89bc
00000010: c333 803d ac0d 9bbd b698 4f3d 0c8b 553c
00000020: fa6d 193d 94e5 8b3d ce4e 28bd 676b 45bd
00000030: 0b7a 12bd 3aa3 a73c 0407 d8bc becc 603d
00000040: 6976 223d 36a4 94bc 936b 583c 0335 8f3d
00000050: 0e3f 6b3d 9e2f a93c 1bcb c3bc c176 11bd
00000060: 2185 09bd 8e64 78bd cf50 663d 36b4 7d3b
00000070: 4816 803c 1419 433d e73e 2abc e303 053c
00000080: f283 a9bc bb12 963a 1cff f1bb 3486 fc3c
00000090: 3ea9 443d 551e 67bd 3510 4e3a d904 1b3d
000000a0: afb2 20bd c206 003d 9701 713d b22d 133d
000000b0: 3a33 2d3d 1c40 3bbd 17fd 313d e76c 7d3d
000000c0: 369a 573d 9c07 2bbd af23 a63c 7ccb 6a3d
000000d0: 8c54 54bc 7d1e 3c3d e2c9 4c3d e315 88bd
000000e0: b168 8e3d b8f2 253d 0f02 1bbd 342f 74bc
000000f0: 6078 db3c b0e9 3abd cb1c d73b 4900 bd3c
00000100: 77b7 44bd 54ee ee3c 4080 b6bb 1391 37bc
00000110: aae6 f83c f79b 723d 86f7 573d 0757 393d
00000120: 84fe 803c 89ad 3a3d 164f 953c a750 31bd
00000130: cc27 f3bc ff0d 2abd 0564 763b 66f3 fabc
00000140: 1cc1 a53c a28b dfbc 67de 383c a6d1 063d
00000150: e3f5 403d 9d56 1b3d 8608 0f3c 5873 0e3d
00000160: caeb 283d 24d5 2abd dba1 3b3d 1f89 7d3d
00000170: 3b71 563d b82c 223d 9e9b 313d 4d2d f83b
00000180: e804 d63c 8691 8ebc d020 4f3d 721d 7abc
00000190: c7b4 0fbd f92d 193d 3cf3 9b3b 718f 5cbc
000001a0: ef39 0bbd b447 203d ca47 943d b0f3 133d
000001b0: e7c1 89bd 38a1 0dbd 1b64 91bc d996 f0bc
000001c0: 2240 733a 3f26 313c 80de 4d3c b636 0dbd
000001d0: 25d1 f9bc f2ee a63c e6b7 7d3d 3426 233d
000001e0: 9f9b 273d 6adb ebbc 5b51 cdbb 709e 1bbd
000001f0: bf40 e4bc aff0 eabc 6e58 263d 2d5e bebc
00000200: 143a d4bc dc2f cdbc 2ae4 55bd bae9 febc
00000210: 1f70 7dbb c2a9 15bb 1e1f 80bc 52a1 353d
00000220: 6c38 273d f238 0dbd eab8 873d 1318 51bd
00000230: 1eb8 1d3d 46fa 0fbd 6159 983b a58a 193c
00000240: 9a3a 413d fbd8 4ebc 63b6 ce3b cda8 d33c
00000250: 45ca 703a 356e 7e3d 9d82 9e3d 5aa4 733d
00000260: af20 c3bc 281e 13bd de73 213d 7069 3d3d
00000270: 4f61 793c 0846 413c cdb6 2dbd 900c 803c
00000280: e9cc 493d 01ca ccbb 99f3 723c f6ee 4e3d
00000290: 0d0c 943d 0b28 6cbd d05c 36bd e6b6 2fbc
000002a0: 6190 c73c 504e 4bbc 8809 1bbd 559d 3bbb
000002b0: 8ac6 f93c 37ab 593d 0b73 ecbc fb64 4fbd
000002c0: 0c5b 683d 4446 2a3d 4280 c73c 0a15 9abd
000002d0: b87b 933c c5c9 7b3d ac7e 483d 290e 88bc
000002e0: 5376 c03b cbdd 87bc e9e8 813d 71c6 40bd
000002f0: 1fe8 5f3a 044e 83bd 7018 45bd cf80 053d
00000300: 2d82 e9bb 0db0 8c3c 4024 713d 016c 9f3d
00000310: 8ad3 383d 83d3 9abb 42d2 37bd c6ee c73c
00000320: 3e86 31bd 72c1 243d 6bf3 cb3c c0de bcbb
00000330: 90c6 593d 7b24 c73c 6e9c 81bd 7e04 e9bc
00000340: 24a5 273d f340 3e3d 3d70 973d 3ee2 783c
00000350: 7472 5aba f768 edbc 5bbd f33b 2b5c 653c
00000360: 2dec b93c 9f01 8fbc 4e1c d2bc 8fd5 dbbb
00000370: 5898 913d dea2 633d 5f53 7ebc 6a5f 7f3d
00000380: d2ae 8c3d 21a5 a83b 4e74 19bd 4034 563d
00000390: ac17 8bbc 51d5 793d 85c4 94bd 7be1 5c3d
000003a0: ebec 153d 05ab 89bc 5e70 793d 0a2b 173c
000003b0: d3bf 3dbd 871e c33c 51f2 c3bc 9aa9 f53c
000003c0: f661 e5bc f2f0 663c 024e c0bc 94a3 943d
000003d0: c63c a7bc fe58 20bd dbf8 3fbd 7228 65bd
000003e0: cd69 f5bc 4cf6 4f3d 3f95 6d3d a473 47bd
000003f0: dd21 1b3d 30f5 413d a615 94bd 86cf a63c

network.2.bias f4 [128]
0.043590147 0.016653694 0.027436683 -0.04006038 -0.019776676 0.045781083 0.0044885217 0.08063076
0.035774104 0.033634547 -0.02715777 -0.027626244 -0.06505487 0.011201209 -0.06160104 -0.029851131
0.004906093 -0.052864082 -0.007601602 0.01413243 -0.03745894 0.00037822567 0.06260715 0.025718123
0.0066640847 -0.057046678 0.06956416 0.040142555 0.037823323 -0.036020495 -0.009526802 0.057597313
0.024735348 0.057249345 -0.008160358 -0.030616801 0.037979502 0.024779445 -0.027028231 0.014742635
0.030707413 0.006459552 -0.0037104946 0.050163716 -0.009950739 0.02888502 -0.06568755 -0.014864223
0.012089787 -0.031236693 0.072899856 -0.030647278 -0.030852348 -0.02043636 0.05013261 -0.035843473
0.0039435443 -0.0042116893 0.0045126393 -0.046207473 0.03957752 0.043881666 -0.068768695 0.011005383
-0.032017864 -0.02945262 -0.011371186 0.02588268 0.0146898255 0.01948786 -0.020803353 -0.042902377
-0.01763198 0.032171484 -0.034952898 -0.033497855 -0.025407806 0.00560553 0.015221597 0.0118818795
-0.04263295 -0.009177749 0.019950729 -0.004126437 -0.035519816 -0.005914674 0.005868388 -0.00026540618
-0.038466927 0.034644123 0.07653656 0.030926233 -0.006360292 -0.003275189 -0.044383522 -0.06770953
-0.03224259 0.044835538 -0.011291816 -0.029914567 0.03306847 0.00087152177 0.03195648 -0.027436152
0.053206295 0.015170662 0.06095235 0.014647502 0.01554437 0.018612731 -0.03655317 0.043301333
-0.019220343 -0.030190188 -0.034168128 0.032977182 0.052174404 0.040352255 -0.032205 -0.058149848
-0.04367397 -0.0149796875 0.0674753 0.055769674 -0.03689823 0.043746546 -0.035764903 0.050595604
00000000: 958b 323d 546d 883c e5c2 e03c 5a16 24bd
00000010: b202 a2bc f284 3b3d 7314 933b bd21 a53d
00000020: de87 123d 61c4 093d f979 debc 6f50 e2bc
00000030: 7d3b 85bd 4785 373c 5f51 7cbd 5c8a f4bc
00000040: 4ac3 a03b 0288 58bd dc16 f9bb b58b 673c
00000050: 8c6e 19bd 974c c639 2d38 803d d0ae d23c
00000060: 655e da3b c7a9 69bd a877 8e3d 856c 243d
00000070: a1ec 1a3d 3a8a 13bd 4e16 1cbc 29eb 6b3d
00000080: c9a1 ca3c 4a7e 6a3d 06b3 05bc 16d0 fabc
00000090: 6590 1b3d 43fe ca3c 4f6a ddbc 188b 713c
000000a0: 1d8e fb3c a6aa d33b c52b 73bb 7878 4d3d
000000b0: 6d08 23bc 47a0 ec3c 3287 86bd 1289 73bc
000000c0: 3e14 463c 18e4 ffbc 854c 953d 0010 fbbc
000000d0: 10be fcbc 276a a7bc da57 4d3d 9bd0 12bd
000000e0: d938 813b 3602 8abb c3de 933b 0c44 3dbd
000000f0: 0a1c 223d 43bd 333d 9ad6 8cbd ec4f 343c
00000100: 2a25 03bd 9f46 f1bc 364e 3abc ea07 d43c
00000110: 98ad 703c 01a5 9f3c cb6b aabc 67ba 2fbd
00000120: f170 90bc 3fc6 033d c52a 0fbd 0c35 09bd
00000130: 0824 d0bc 98ae b73b 0164 793c 37ac 423c
00000140: e39f 2ebd 455e 16bc b66f a33c 1037 87bb
00000150: 3a7d 11bd e2cf c1bb 9b4b c03b 3726 8bb9
00000160: 7f8f 1dbd ffe6 0d3d 33bf 9c3d 0359 fd3c
00000170: ff69 d0bb 8ea4 56bb 7fcb 35bd 4bab 8abd
00000180: ce10 04bd 78a5 373d 4f01 39bc 650f f5bc
00000190: ce72 073d d676 643a cce4 023d c8c1 e0bc
000001a0: d8ee 593d 5e8e 783c 2ca9 793d 14fc 6f3c
000001b0: d0ad 7e3c ba79 983c c7b8 15bd bd5c 313d
000001c0: fb73 9dbc 6a51 f7bc e1f3 0bbd 1513 073d
000001d0: d4b4 553d 6848 253d 64e9 03bd 892e 6ebd
000001e0: 7ae3 32bd 5d6d 75bc 7d30 8a3d be6e 643d
000001f0: 9922 17bd 942f 333d 387e 12bd 563d 4f3d

network.4.weight f4 [64, 128]
0.10274362 -0.0016813255 -0.015449806 0.0045202104 0.02110941 -0.00877916 -0.014471458 0.0670582
0.01671402 -0.036847558 -0.018775545 -0.0451116 -0.07095631 0.03258527 -0.0009643323 -0.008859161
-0.059119847 -0.034796964 0.03817121 -0.09401576 0.037120335 0.073415436 -0.026769076 0.09494647
0.08034863 -0.015046376 0.034112982 -0.07897466 0.02075266 -0.062975265 0.034721535 0.05734608
0.04003001 -0.053209003 0.03725032 0.018535977 0.036998164 0.08861184 0.03126584 0.046623837
0.028938258 -0.039132226 -0.03884589 0.07166992 0.0048857373 -0.043925554 0.03246163 0.09082341
0.10712956 -0.023733174 -0.05523793 0.07860156 -0.03907709 -0.015013261 0.04241793 -0.07185557
0.066228285 -0.06504179 -0.09531915 0.03612453 0.027130608 0.030074688 -0.057872143 -0.035105437
0.016480222 -0.04908879 0.022799904 -0.049224276 -0.046794806 0.016904106 0.0628166 -0.015391539
0.005853583 0.06674184 -0.046211056 0.02606489 -0.04725407 -0.047396403 -0.08170383 -0.10145289
0.06612849 0.06875819 -0.008157566 -0.01890599 -0.06619136 0.038217153 -0.068782315 -0.014367389
0.092158064 -0.08708392 0.087891325 0.024452487 -0.029795308 -0.073160484 -0.053056154 -0.028011376
-0.048387546 0.036336575 -0.012921309 0.024336088 -0.08636901 0.106100366 0.04099207 0.068618745
0.019967875 0.030441187 0.09762663 -0.0053859437 -0.067168556 0.10548535 0.045795318 0.0587916
-0.018629171 -0.009548011 0.07503947 0.0784734 0.040052544 -0.09526771 -0.06251872 0.023734314
0.026552768 0.078660004 0.09018686 0.06263587 -0.045954708 0.10046754 -0.0765086 -0.046325505
0.021889415 -0.026355427 -0.031602487 0.034560416 0.087278835 0.015784442 -0.044309255 0.002377045
0.038745016 0.04465719 0.08569374 0.013881395 -0.044585522 0.088353 -0.050768882 0.08187498
0.03766522 0.0029298184 -0.005568024 -0.060411625 -0.067478865 0.04163179 0.05283502 -0.068912365
0.061862715 0.04869343 0.0693823 0.037851065 0.07917531 -0.04059351 0.06261549 0.020486774
-0.07150611 0.062788546 0.04527397 0.075763255 -0.044120472 -0.075517155 -0.027114522 -0.039329343
-0.09295619 0.014560162 0.038231257 0.041413214 -0.046066 -0.0421552 -0.08589192 0.028642556
0.06228684 0.0058318838 -0.039663736 -0.05555134 0.06199486 -0.06062698 -0.050871797 -0.019628294
0.028856855 -0.044546746 0.067545235 -0.04477309 0.010826236 -0.0133359535 -0.08830129 -0.015528201
0.03955076 -0.04746627 -0.057855003 -0.002488779 0.063277274 0.0516774 -0.051871985 -0.014412608
0.05545414 -0.05476024 0.08805457 0.015165448 0.0048066783 -0.023350922 0.058781505 0.10073346
-0.015172779 -0.018741058 0.017518487 -0.05312248 0.02573666 0.05581248 -0.04689969 -0.03919341
-0.101429716 -0.02532383 -0.10099438 -0.07548677 -0.019702895 -0.03726477 -0.011323332 0.014447486
-0.036395375 -0.054640654 -0.041252304 -0.08702739 0.06323241 -0.071606025 0.029104196 0.028620744
-0.03332927 0.026619375 -0.053040992 0.051630422 0.0405477 0.028707834 0.042147532 -0.08964897
-0.06411544 0.025634483 -0.027669463 -0.042153873 0.004227494 0.08585541 0.008447266 -0.012987779
-0.04694307 0.004237814 0.05311996 -0.017476419 -0.074550524 -0.099203736 0.062295873 -0.061066974
00000000: 3f6b d23d ec5f dcba 2f21 7dbc 461e 943b
00000010: a4ed ac3c 77d6 0fbc b219 6dbc cf55 893d
00000020: d7eb 883c 77ed 16bd 2ccf 99bc f1c6 38bd
00000030: 8b51 91bd 2278 053d 3fcb 7cba 0426 11bc
00000040: a727 72bd 4387 0ebd 6a59 1c3d 568b c0bd
00000050: 7e0b 183d d55a 963d d24a dbbc 4b73 c23d
00000060: d38d a43d 1385 76bc 0eba 0b3d 77bd a1bd
00000070: 7c01 aa3c 2df9 80bd 2b38 0e3d b9e3 6a3d
00000080: 82f6 233d aff1 59bd cb93 183d c3d8 973c
00000090: 638b 173d 207a b53d 9c10 003d a3f8 3e3d
000000a0: ed0f ed3c 1d49 20bd de1c 1fbd aec7 923d
000000b0: 8918 a03b 48eb 33bd 7cf6 043d a001 ba3d
000000c0: be66 db3d 136c c2bc 2b41 62bd dbf9 a03d
000000d0: 4c0f 20bd 2efa 75bc 6cbe 2d3d 0329 93bd
000000e0: b2a2 873d a134 85bd b036 c3bd 51f7 133d
000000f0: 0241 de3c 315f f63c 570b 6dbd b8ca 0fbd
00000100: 8801 873c 5411 49bd ddc6 ba3c 659f 49bd
00000110: e9ab 3fbd 7b7a 8a3c fda5 803d cb2c 7cbc
00000120: 6acf bf3b f2af 883d ce47 3dbd 0986 d53c
00000130: 7c8d 41bd bb22 42bd 5654 a7bd 88c6 cfbd
00000140: 606e 873d 18d1 8c3d 50a7 05bc bce0 9abc
00000150: 568f 87bd 9789 1c3d bedd 8cbd 3265 6bbc
00000160: 5ebd bc3d 0e59 b2bd 5e00 b43d 9550 c83c
00000170: 4a15 f4bc 2ad5 95bd 6951 59bd 1d78 e5bc
00000180: 0532 46bd a9d5 143d e6b3 53bc 7a5c c73c
00000190: 3ce2 b0bd 264b d93d 4de7 273d fc87 8c3d
000001a0: ab93 a33c cc5f f93c 78f0 c73d 927c b0bb
000001b0: ab8f 89bd b408 d83d df93 3b3d 76cf 703d
000001c0: 349c 98bc 436f 1cbc 4bae 993d a9b6 a03d
000001d0: 230e 243d b81b c3bd d109 80bd 776e c23c
000001e0: 3185 d93c 7f18 a13d e3b3 b83d 3c47 803d
000001f0: 013b 3cbd edc1 cd3d 8ab0 9cbd d0bf 3dbd
00000200: 6e51 b33c 56e7 d7bc 9c71 01bd 398f 0d3d
00000210: 3fbf b23d 604e 813c 9f7d 35bd 33c8 1b3b
00000220: 18b3 1e3d 75ea 363d 3380 af3d ca6e 633c
00000230: 4f9f 36bd 6bf2 b43d 08f3 4fbd 12ae a73d
00000240: d946 1a3d 3202 403b f873 b6bb 2e72 77bd
00000250: 5c32 8abd 1986 2a3d 8969 583d ed21 8dbd
00000260: c263 7d3d c372 473d 4f18 8e3d b809 1b3d
00000270: aa26 a23d 6145 26bd 8d3c 803d e1d3 a73c
00000280: cc71 92bd 4897 803d 3371 393d c429 9b3d
00000290: abb7 34bd bda8 9abd 461f debc ce17 21bd
000002a0: d15f bebd bf8d 6e3c 6198 1c3d e7a0 293d
000002b0: b4af 3cbd eeaa 2cbd 1ae8 afbd cba3 ea3c
000002c0: 7c20 7f3d 6319 bf3b 7176 22bd cd89 63bd
000002d0: 53ee 7d3d ff53 78bd f25e 50bd 84cb a0bc
000002e0: 3665 ec3c a676 36bd 2855 8a3d fd63 37bd
000002f0: 8660 313c 0b7f 5abc 4fd7 b4bd ff69 7ebc
00000300: faff 213d fe6b 42bd 5ef9 6cbd c81a 23bb
00000310: 8497 813d aeab 533d b877 54bd dc22 6cbc
00000320: e123 633d 464c 60bd f455 b43d 8078 783c
00000330: 5781 9d3b 6f4a bfbc e0c4 703d 584d ce3d
00000340: 3f97 78bc d986 99bc ee82 8f3c f596 59bd
00000350: b0d5 d23c a19b 643d e419 40bd 4589 20bd
00000360: 62ba cfbd ec73 cfbc 24d6 cebd cf98 9abd
00000370: f767 a1bc f2a2 18bd 7f85 39bc 26b5 6c3c
00000380: 5113 15bd e1ce 5fbd 2df8 28bd 6b3b b2bd
00000390: fe7f 813d 2ea6 92bd ec6b ee3c 0d76 ea3c
000003a0: 4684 08bd e010 da3c 8341 59bd 6c7a 533d
000003b0: 5815 263d b12c eb3c e4a2 2c3d e199 b7bd
000003c0: f54e 83bd 68ff d13c 12ab e2bc 8aa9 2cbd
000003d0: ca86 8a3b f6d4 af3d 6766 0a3c b2ca 54bc
000003e0: 6047 40bd 5cdd 8a3b 5194 593d b52a 8fbc
000003f0: f2ad 98bd 542b cbbd f529 7f3d 5d21 7abd

network.4.bias f4 [64]
0.03176506 0.060157966 0.02253831 -0.037971385 -0.052749697 -0.06413642 -0.024902882 0.0394012
0.07150219 -0.0684285 0.06460231 0.060391575 -0.06108357 0.05458982 -0.023106396 0.047954973
0.0745607 0.035632867 0.057781633 -0.03648011 0.033550795 -0.008904155 -0.04704054 0.08848654
0.056617424 -0.08705477 -0.015328456 0.0060827946 0.00943433 -0.089856274 -0.0053422735 -0.06888754
-0.079873905 0.06621758 -0.00991997 0.0023192451 -0.011894297 -0.012480301 0.072035596 -0.057487648
-0.0071888156 -0.06660568 0.018545195 0.03937813 -0.087431595 0.07060587 -0.01518693 -0.005140946
-0.047559924 -0.028216498 -0.079042114 0.084774725 0.040521897 0.017950771 -0.044335008 0.0046299663
-0.03088825 0.0670694 -0.07927935 0.090795785 -0.08746477 0.06268886 -0.013593124 -0.039853405
00000000: 141c 023d 3368 763d 43a2 b83c e287 1bbd
00000010: 1110 58bd f559 83bd 2101 ccbc 2763 213d
00000020: bd6f 923d 3e24 8cbd 374e 843d 285d 773d
00000030: c432 7abd 9399 5f3d a049 bdbc 6f6c 443d
00000040: 48b3 983d c5f3 113d 6fac 6c3d 2b6c 15bd
00000050: 8f6c 093d bce2 11bc 95ad 40bd 6e38 b53d
00000060: ace7 673d c549 b2bd 3424 7bbc 2e52 c73b
00000070: 7392 1a3c 9106 b8bd 3d0e afbb e914 8dbd
00000080: ee94 a3bd 159d 873d 5f87 22bc 7afe 173b
00000090: 4ce0 42bc 2d7a 4cbc 6687 933d 2b78 6bbd
000000a0: 2890 ebbb 8f68 88bd 18ec 973c f64a 213d
000000b0: 560f b3bd cf99 903d 9ad2 78bc 6175 a8bb
000000c0: 32ce 42bd 4926 e7bc d5e0 a1bd 5f9e ad3d
000000d0: 4afa 253d 7f0d 933c a098 35bd f9b6 973b
000000e0: 5b09 fdbc ae5b 893d 365d a2bd 24f3 b93d
000000f0: bb20 b3bd 0463 803d b2b5 5ebc 533d 23bd

actor.weight f4 [4, 64]
0.009147926 -0.054272868 0.03163678 0.08298823 0.034676567 -0.054354765 -0.10473776 -0.056056686
-0.04339771 -0.06984478 -0.067044325 -0.030500833 0.025048068 0.051599313 0.060902085 0.13562514
0.07934519 -0.025256196 0.086716026 -0.040989187 0.060617402 0.03770113 0.00034053624 -0.033582788
-0.083687164 -0.11984439 -0.106695056 -0.050019182 0.015885456 0.05725404 -0.08314585 0.031475294
0.043791566 0.043407504 -0.09667836 -0.039557755 -0.057600077 -0.08811754 0.081725135 -0.04354097
-0.012953632 -0.11177517 0.051029153 -0.10405068 0.026714275 -0.07798136 0.11208637 -0.041404117
0.1150047 0.10402113 -0.040944338 -0.03336624 -0.07537567 -0.002986472 0.10842803 -0.08206226
-0.0569243 -0.051939826 -0.024035593 0.10707793 -0.025486851 -0.012643104 -0.027316073 0.074585944
0.028735956 0.09232641 0.020895543 0.102672726 0.06439403 0.025646247 0.032947946 -0.13080774
0.09126866 0.04456181 -0.11741949 -0.13836196 -0.08269052 0.10417516 -0.058211517 -0.015467353
-0.13602808 -0.02480961 -0.05500434 0.08357054 -0.0929751 -0.080445975 0.07841626 -0.03016181
-0.10966584 0.0615661 -0.087591484 0.008086962 0.0048851036 -0.03201126 -0.0020942774 0.02139027
-0.054951854 0.07740111 -0.03644132 -0.00018306638 0.052501097 0.0031107923 -0.0041954354 -0.024486199
-0.09511892 -0.064296074 0.04701388 0.12127131 -0.033746745 0.02573002 -0.049706098 0.058063265
-0.10476511 -0.08441105 0.05697915 0.11771859 -0.033963334 -0.013019251 -0.12103057 0.026240213
-0.03853877 0.10522654 0.11403415 -0.03677048 -0.10591874 0.0651438 0.082548074 0.047180567
-0.063656524 -0.02475077 -0.063287094 0.057796143 0.0972794 -0.07577085 -0.021826794 0.086604066
0.020721728 -0.067973316 -0.086654484 -0.051451005 0.08522257 -0.009509126 -0.059332814 -0.0046064914
0.028343642 -0.053125337 0.05402772 -0.12000042 -0.081428476 0.03892885 -0.08518648 -0.105478264
0.094384596 -0.08475659 -0.11158169 0.058661018 -0.13278848 0.1125046 -0.11299897 -0.104966186
0.1020413 -0.059844196 -0.03221296 0.009348973 -0.03774066 -0.028224982 0.07459917 0.09664081
-0.07726357 -0.06825597 -0.13141416 0.050067604 -0.014767329 -0.09445333 -0.07611612 -0.008277969
0.070177406 0.11980296 -0.008230075 0.1031393 0.07406603 -0.0461113 0.075304165 0.06874164
0.09223691 -0.08229141 -0.024097098 0.030826172 0.10940606 -0.07756716 0.060333442 -0.058452148
0.0233492 -0.060712036 -0.12687899 0.09356474 -0.03697815 -0.108970754 -0.10144767 -0.053888675
-0.07195434 -0.09843953 0.09893974 0.04954891 0.06036481 -0.0011497125 0.09614476 0.12062371
0.10409366 0.04637798 0.108358316 0.09548495 0.089197144 -0.02924937 -0.08690113 -0.03880734
0.08229034 -0.008331946 -0.07630053 0.07560849 -0.041371714 -0.0051140683 -0.021228492 -0.044270616
0.049693022 -0.08435274 0.12317083 0.08054177 0.031860173 -0.037145898 0.048615593 -0.016203523
-0.110065244 0.115496665 0.0015281707 -0.018173072 -0.051319767 -0.07768831 0.008190435 0.12002074
0.10085916 -0.10163728 0.02203852 0.01981698 0.08528956 -0.0335549 0.03198424 -0.008297607
0.049060203 0.0042590117 0.1186106 -0.12227353 -0.060668413 -0.026440218 0.08282636 0.075293586
00000000: 2fe1 153c 3a4d 5ebd 9195 013d bcf5 a93d
00000010: 0409 0e3d 1aa3 5ebd c080 d6bd b29b 65bd
00000020: ccc1 31bd c80a 8fbd 894e 89bd e2dc f9bc
00000030: 9b31 cd3c cd59 533d 7774 793d 51e1 0a3e
00000040: bb7f a23d 15e6 cebc 2c98 b13d 47e4 27bd
00000050: f449 783d 806c 1a3d 008a b239 1b8e 09bd
00000060: 2d64 abbd fa70 f5bd f082 dabd eae0 4cbd
00000070: 3722 823c 3683 6a3d 5f48 aabd 3dec 003d
00000080: c95e 333d 11cc 313d 4eff c5bd 5007 22bd
00000090: 0fee 6bbd f876 b4bd 825f a73d 0458 32bd
000000a0: 783b 54bc 61ea e4bd f203 513d 8618 d5bd
000000b0: e5d7 da3c b1b4 9fbd 8a8d e53d 5d97 29bd
000000c0: 9687 eb3d 0809 d53d 40b5 27bd 0aab 08bd
000000d0: 8f5e 9abd b0b8 43bb 840f de3d 4210 a8bd
000000e0: 7429 69bd dbbe 54bd 4be6 c4bc ac4b db3d
000000f0: cdc9 d0bc 0625 4fbc f5c5 dfbc 84c0 983d
00000100: ab67 eb3c a115 bd3d 212d ab3c 1446 d23d
00000110: 04e1 833d 1418 d23c 6df4 063d 77f2 05be
00000120: 10eb ba3d 7286 363d a179 f0bd c2ae 0dbe
00000130: a659 a9bd c959 d53d 336f 6ebd c86a 7dbc
00000140: f24a 0bbe 863d cbbc 3b4c 61bd 0827 ab3d
00000150: bb69 bebd dcc0 a4bd b498 a03d e615 f7bc
00000160: 7c98 e0bd bc2c 7c3d 2a63 b3bd 2d7f 043c
00000170: 3813 a03b 3d1e 03bd 2540 09bb a63a af3c
00000180: 3215 61bd 7984 9e3d 7e43 15bd 82f5 3fb9
00000190: 640b 573d 6fde 4b3b dd79 89bb 4897 c8bc
000001a0: b5cd c2bd a9ad 83bd a091 403d 185d f83d
000001b0: 073a 0abd c3c7 d23c 9f98 4bbd bfd3 6d3d
000001c0: 178f d6bd b3df acbd f862 693d 7216 f13d
000001d0: 231d 0bbd b24e 55bc e0de f7bd b7f5 d63c
000001e0: d4da 1dbd 0381 d73d bd8a e93d a59c 16bd
000001f0: edeb d8bd 1d6a 853d f70e a93d 6940 413d
00000200: 5a5e 82bd 20c2 cabc aa9c 81bd a6bb 6c3d
00000210: 6c3a c73d bf2d 9bbd 1bce b2bc 795d b13d
00000220: 9dc0 a93c 9835 8bbd e877 b1bd 4abe 52bd
00000230: 2c89 ae3d 2acc 1bbc f706 73bd 0df2 96bb
00000240: ed30 e83c f499 59bd 2c4c 5d3d c8c2 f5bd
00000250: f9c3 a6bd dc73 1f3d 4076 aebd fd04 d8bd
00000260: b64c c13d dd94 adbd f184 e4bd 8946 703d
00000270: b4f9 07be d068 e63d 016c e7bd 83f8 d6bd
00000280: 07fb d03d 301f 75bd bdf1 03bd 6f2c 193c
00000290: f395 1abd 1438 e7bc 73c7 983d 9eeb c53d
000002a0: 5d3c 9ebd c9c9 8bbd 6f91 06be b013 4d3d
000002b0: abf2 71bc bf70 c1bd c5e2 9bbd 52a0 07bc
000002c0: 2cb9 8f3d 415b f53d 70d7 06bc b33a d33d
000002d0: eeaf 973d 34df 3cbd 1239 9a3d 6bc8 8c3d
000002e0: b4e6 bc3d 6688 a8bd 4767 c5bc 2b87 fc3c
000002f0: 4910 e03d 88db 9ebd 3320 773d 856b 6fbd
00000300: d246 bf3c 2fad 78bd 91ec 01be df9e bf3d
00000310: 6776 17bd 0f2c dfbd ccc3 cfbd 5fba 5cbd
00000320: cc5c 93bd aa9a c9bd eba0 ca3d ccf3 4a3d
00000330: 1741 773d f3b1 96ba 8be7 c43d 9009 f73d
00000340: 0f2f d53d d6f6 3d3d f7ea dd3d 9d8d c33d
00000350: feac b63d 609c efbc 38f9 b1bd 72f4 1ebd
00000360: d687 a83d b782 08bc 7443 9cbd a0d8 9a3d
00000370: 6375 29bd ea93 a7bb 60e7 adbc 1b55 35bd
00000380: e98a 4b3d 21c1 acbd fd40 fc3d 15f3 a43d
00000390: d07f 023d 4c26 18bd 2521 473d 40bd 84bc
000003a0: e369 e1bd 8489 ec3d e64c c83a b2df 94bc
000003b0: ad34 52bd 0c1b 9fbd 2d31 063c 6fcd f53d
000003c0: 3f8f ce3d 3527 d0bd 208a b43c 3857 a23c
000003d0: 4bac ae3d dd70 09bd e801 033d b0f2 07bc
000003e0: 5af3 483d 2e8f 8b3b 1dea f23d 8b6a fabd
000003f0: 717f 78bd 2899 d8bc dea0 a93d 8633 9a3d

actor.bias f4 [4]
0.041778572 -0.07845854 0.024170194 -0.0087477155
00000000: 0220 2b3d dfae a0bd 9200 c63c 9452 0fbc

critic.weight f4 [1, 64]
-0.11289092 0.10062713 -0.03793615 0.033622723 -0.023202263 -0.012015813 -0.081199236 0.12101846
0.0153033305 0.108961485 -0.04007744 0.022646308 0.1089001 0.05309698 -0.056967795 0.068601735
0.07661544 -0.10190901 -0.04669725 -0.0016635584 -0.009038162 0.026162207 0.08204499 -0.07484559
-0.077041365 0.06503522 0.068616405 0.024943296 0.07788269 -0.0059809247 -0.0038337745 0.05309189
0.045779616 0.12904401 -0.07284583 0.04004088 -0.046784956 0.049006235 0.127481 -0.095431894
0.006989955 -0.08695803 0.08078748 -0.13317546 0.1028434 -0.054914076 -0.115495995 0.09095631
0.08864649 -0.12555665 -0.080981344 -0.008379868 0.11382515 -0.10121032 0.032605886 0.02811513
0.030466974 0.10243508 0.11246192 -0.12303958 0.03227992 -0.12376171 -0.104298204 0.05084793
00000000: 5b33 e7bd 9915 ce3d f062 1bbd fbb7 093d
00000010: ac12 bebc f9dd 44bc c94b a6bd 87d8 f73d
00000020: d2ba 7a3c 3327 df3d 3e28 24bd c084 b93c
00000030: 0407 df3d 387c 593d 1057 69bd 117f 8c3d
00000040: 8ee8 9c3d acb5 d0bd 9e45 3fbd c20b daba
00000050: cd14 14bc 2052 d63c 3407 a83d a548 99bd
00000060: ddc7 9dbd 2f31 853d c286 8c3d e255 cc3c
00000070: f680 9f3d a2fb c3bb 1040 7bbb e276 593d
00000080: 6883 3b3d 1d24 043e 3230 95bd e801 243d
00000090: 95a1 3fbd c3ba 483d 618a 023e cc71 c3bd
000000a0: fe0b e53b 0d17 b2bd e873 a53d 265f 08be
000000b0: 8f9f d23d 95ed 60bd 2a89 ecbd 4d47 ba3d
000000c0: 4a8c b53d ec91 00be 8cd9 a5bd b74b 09bc
000000d0: 291d e93d 5b47 cfbd c08d 053d b351 e63c
000000e0: e095 f93c 7cc9 d13d 6f52 e63d 2dfc fbbd
000000f0: f337 043d c876 fdbd 4c9a d5bd eb45 503d
