archived/ppo_2048_1000.pth (torch, 449893 bytes, 9 tensors)

network.0.weight f4 [256, 272]
0.046875685 0.018990992 0.047954094 0.014600566 0.037642486 0.036966756 0.023374876 -0.021394938
0.034739643 -0.028816437 0.05126502 0.025415475 0.03600308 0.048583724 0.030857645 -0.005754151
-0.051381264 0.019013112 0.05922291 -0.031198552 0.029645756 0.046524458 -0.0026533215 -0.03792684
-0.030666972 0.02527706 -0.015589165 0.029938575 0.02224086 0.028743079 0.015436542 0.057504322
0.02821711 -0.010382109 -0.05193987 0.027431106 -0.0030267558 0.0013723476 -0.022320194 0.045606136
-0.00506374 -0.0070174797 0.059129957 0.057537038 -0.0021102221 0.025497166 -0.038194843 -0.049180213
0.045099486 0.036119316 -0.04066176 -0.062559895 0.055766515 -0.0067342324 0.000559984 0.018749604
0.046684 0.036987964 -0.0064644236 0.038640223 0.002867303 0.017956542 0.02784312 0.01510454
0.047934994 0.05482469 0.02912322 0.054035965 -0.04171633 -0.025407288 -0.039706707 -0.013793007
0.00047265275 -0.016506098 -0.030019797 -0.0067275977 0.042880524 0.047696047 0.03557661 -0.015377937
0.03902581 -0.036235247 -0.031981524 0.028148435 -0.02554034 0.013448882 0.006859715 0.054592334
-0.013294589 -0.059498496 0.021199968 0.0026654764 0.027681686 0.01935299 0.049614962 0.036090873
-0.049944498 0.029966077 0.013319316 -0.045501523 0.037275665 0.02593655 -0.071487844 -0.009334738
-0.03556393 0.04733436 -0.047548465 0.015175805 0.016994087 0.03953134 -0.02167787 0.045830894
0.0083372295 -0.05090779 -0.05551674 0.013092432 0.02889628 0.026966803 0.049426157 0.0035868764
-0.00943168 -0.018501967 0.042908344 -0.042909056 -0.042335365 0.06956476 0.0012394907 0.076471046
-0.047866426 0.044542488 0.044354443 0.013462158 0.044807397 -0.008165063 0.039642803 -0.019801239
-0.05732557 -0.03274528 -0.050041005 -0.013893786 0.06468087 0.020574005 0.0031373051 0.021773085
0.03933706 0.0027901863 0.00041519795 0.043123484 0.023773896 0.04905985 -0.050639924 0.049239445
-0.041272882 -0.0030738257 -0.03159864 0.0040456136 0.046539824 -0.0034465273 0.06756483 0.015045977
-0.02104385 0.084046215 0.050112445 -0.026839161 -0.027635 -0.060105827 -0.00821803 0.019470392
0.057881556 0.02043954 -0.050857197 0.023435278 -0.041188657 0.04937032 0.020405022 -0.013037841
0.014891125 0.017635211 -0.030167677 -0.020247018 0.049191084 0.054188512 0.03919878 0.0353471
-0.02544884 0.040296197 -0.05080618 -0.02131662 -0.01200083 0.0202623 0.005576485 0.010790227
0.008002697 0.019930577 0.04835641 0.0651958 -0.059267875 0.020987619 -0.05831028 -0.01960949
-0.040327054 0.04886461 0.060439207 -0.05762887 -0.021521572 -0.038437206 -0.01475759 0.06959244
0.059612896 -0.0007114056 0.06102209 0.016751645 0.01670413 0.02117605 0.0484981 0.044943403
-0.052420832 0.03798336 0.02030662 0.016714316 -0.011398362 -0.031024138 0.018852888 0.011111714
-0.010868561 -0.0018318951 -0.039275583 0.041750304 0.041459274 0.06718611 0.012440355 -0.040092364
0.059099715 0.060415175 -0.012086617 -0.0059183524 -0.023507481 -0.036709283 -0.0031675322 0.03867382
-0.023441039 0.009037306 -0.04917722 -0.0028815733 0.0062121493 0.0065167537 0.0065077445 -0.0378793
-0.047589496 0.008781449 -0.027808996 0.013397409 -0.043622173 -0.04495564 0.026246326 0.0022659483
00000000: b800 403d ff92 9b3c 836b 443d 3637 6f3c
00000010: 022f 1a3d 746a 173d ab7c bf3c 7044 afbc
00000020: 284b 0e3d 7310 ecbc 45fb 513d 1d34 d03c
00000030: f777 133d baff 463d 2cc9 fc3c 518d bcbb
00000040: 2975 52bd 63c1 9b3c b993 723d 1b94 ffbc
00000050: a8db f23c 6e90 3e3d 59e3 2dbb 2d59 1bbd
00000060: 4d39 fbbc d611 cf3c b269 7fbc be41 f53c
00000070: 7732 b63c 9b76 eb3c 8de9 7c3c a789 6b3d
00000080: 9227 e73c b919 2abc e7be 54bd 33b7 e03c
00000090: 895c 46bb 58e0 b33a d7d8 b6bc 80cd 3a3d
000000a0: bbed a5bb e3f2 e5bb 4132 723d f5ab 6b3d
000000b0: a74b 0abb 6fdf d03c 3272 1cbd 3171 49bd
000000c0: 3dba 383d d9f1 133d f28c 26bd 671f 80bd
000000d0: 6e6b 643d d6aa dcbb e4cb 123a c598 993c
000000e0: b937 3f3d b180 173d 84d3 d3bb 3645 1e3d
000000f0: 5de9 3b3b 9919 933c 4117 e43c 0879 773c
00000100: 7c57 443d db8f 603d d293 ee3c d154 5d3d
00000110: bede 2abd f222 d0bc 80a3 22bd 10fc 61bc
00000120: 61ce f739 cc37 87bc 14ec f5bc 2e73 dcbb
00000130: 7da3 2f3d ee5c 433d c8b8 113d bef3 7bbc
00000140: 87d9 1f3d 696b 14bd 0fff 02bd 8c97 e63c
00000150: fa39 d1bc b358 5c3c 76c7 e03b 369c 5f3d
00000160: 8cd1 59bc b2b4 73bd 8eab ad3c 46af 2e3b
00000170: b4c4 e23c 298a 9e3c 0f39 4b3d 06d4 133d
00000180: 9a92 4cbd 6b7b f53c 4339 5a3c ce5f 3abd
00000190: 5eae 183d e378 d43c 3868 92bd bbf0 18bc
000001a0: 7cab 11bd ade1 413d 2ec2 42bd f1a3 783c
000001b0: 2f37 8b3c 9deb 213d ca95 b1bc 2db9 3b3d
000001c0: e098 083c b084 50bd 8565 63bd a481 563c
000001d0: e4b7 ec3c 7ce9 dc3c 1573 4a3d cd11 6b3b
000001e0: 5587 1abc 7091 97bc a9c0 2f3d 68c1 2fbd
000001f0: d967 2dbd f877 8e3d 6876 a23a da9c 9c3d
00000200: 960f 44bd 2f72 363d 01ad 353d 6290 5c3c
00000210: f687 373d c2c6 05bc 7e60 223d 3536 a2bc
00000220: 38ce 6abd ea1f 06bd ccf7 4cbd c3a2 63bc
00000230: 6777 843d d18a a83c 3f9b 4d3b 785d b23c
00000240: e61f 213d 8fdb 363b edae d939 40a2 303d
00000250: 79c1 c23c fbf2 483d cf6b 4fbd 4daf 493d
00000260: c10d 29bd 3d72 49bb 936d 01bd 1191 843b
00000270: 8ba0 3e3d 22df 61bb 6e5f 8a3d 6783 763c
00000280: 2764 acbc 6c20 ac3d b542 4d3d cddd dbbc
00000290: cc62 e2bc 8731 76bd eba4 06bc 5f80 9f3c
000002a0: 3615 6d3d d270 a73c a34f 50bd 57fb bf3c
000002b0: 70b5 28bd 8838 4a3d 6f28 a73c ab9c 55bc
000002c0: e8f9 733c b877 903c 3422 f7bc 13dd a5bc
000002d0: 977c 493d c6f4 5d3d e68e 203d 1fc8 103d
000002e0: 167a d0bc a00d 253d 241a 50bd 31a0 aebc
000002f0: 219f 44bc 1ffd a53c f2ba b63b 7ec9 303c
00000300: be1d 033c 7345 a33c 5f11 463d 6085 853d
00000310: dfc2 72bd 3aee ab3c c3d6 6ebd 15a4 a0bc
00000320: fb2d 25bd 4226 483d 1a8f 773d 400c 6cbd
00000330: 024e b0bc 5570 1dbd d2c9 71bc 7b86 8e3d
00000340: a72c 743d 9f7d 3aba 4df2 793d bf3a 893c
00000350: 1ad7 883c 6579 ad3c f2a5 463d 9316 383d
00000360: 3ab7 56bd 7194 1b3d 125a a63c 76ec 883c
00000370: 32c0 3abc 5526 febc 5f71 9a3c e80d 363c
00000380: 0d12 32bc 331c f0ba 6fdf 20bd 5e02 2b3d
00000390: 33d1 293d df98 893d a1d2 4b3c e437 24bd
000003a0: 8b12 723d e775 773d f206 46bc bdee c1bb
000003b0: c392 c0bc 795c 16bd 5f96 4fbb 7168 1e3d
000003c0: 6c07 c0bc 3511 143c 0d6e 49bd c7d8 3cbb
000003d0: 498f cb3b 7e8a d53b eb3e d53b 5327 1bbd
000003e0: 34ed 42bd 11e0 0f3c b1cf e3bc ce80 5b3c
000003f0: 2aad 32bd 6823 38bd 8902 d73c 4e80 143b

network.0.bias f4 [256]
0.068482704 -0.0008592107 0.072817996 -0.0052132695 0.06463013 0.020288236 -0.051155426 0.042902417
-0.0064914757 -0.02961533 0.04769692 -0.0533987 0.01314951 0.0011369158 0.065027036 0.048546106
0.0030714844 -0.004602141 -0.04166494 0.037426837 0.03378407 -0.008963545 0.05733229 0.037154883
-0.016983029 0.01863161 0.009206564 0.030685619 0.023027139 0.026905913 0.018040089 0.061096687
0.0064518964 -0.026205784 -0.019932618 0.013277931 0.0040797517 0.03099126 -0.042015906 -0.042823065
-0.015058874 -0.003737347 0.051449772 0.05651356 0.020983811 0.07036232 -0.008758185 0.023832057
0.015999036 0.005647855 0.061929107 0.050983507 -0.027482856 0.03096057 0.045026302 0.049681872
-0.044091683 0.03570547 -0.023068685 -0.041451972 0.031659313 0.0644485 0.016228389 -0.04480417
0.044832695 -0.01734303 0.05827167 -0.0034093317 -0.051356863 0.040139996 -0.023660708 0.026461735
0.04344025 0.0144092655 0.03392719 0.01627081 -0.00094835146 0.044936284 -0.0012008096 0.021461455
-0.029429598 -0.0149821155 0.020625075 0.028337551 0.0035705408 -0.015091599 -0.03428615 -0.037084527
0.051350407 0.039307084 0.00399825 -0.016553385 0.04949836 0.008958517 -0.008972636 -0.047995098
0.04033543 -0.046585415 0.06581751 0.03866163 -0.05215569 0.0038143469 0.010158054 -3.3704324e-05
0.02883763 0.016601918 0.008325062 0.01045827 -0.039684627 0.0634129 0.07068073 0.01764719
0.0149813015 0.054528117 0.029238235 0.0152919665 0.026313292 -0.00069451245 -0.03874015 -0.04424117
0.027886452 -0.06099502 0.021406071 0.023244748 0.0166595 0.025116514 0.01615168 0.04093216
0.04900229 -0.01771265 0.05912489 -0.015189213 0.048997253 -0.02324565 -0.03859763 0.058204513
0.019650834 0.055552226 -0.009052594 -0.032654375 0.011093837 0.010774613 0.020459045 0.054027032
0.033463564 0.05091907 0.019096278 0.0003338054 0.048693027 0.042936474 0.010204061 0.025585013
0.0031117455 0.0015333502 -0.03461494 -0.057484597 -0.04370525 -0.018111125 0.066613235 0.04766699
0.05156244 -0.02320506 -0.029153723 -0.043186586 0.013922045 -0.03392942 -0.0540385 -0.033252537
0.01912165 -0.043445736 -0.012987965 -0.020897338 0.004594974 0.023363216 -0.036104094 -0.036765646
0.022236403 -0.026479885 0.03365329 -0.04921305 -0.0013177636 0.051156927 0.050127413 -0.020765666
0.071741894 0.032745913 0.030946076 0.026076255 0.044595636 -0.03709289 -0.0003411914 0.04910084
0.025183197 0.031744063 0.021031728 0.057288524 -0.0355525 0.024849385 0.051957607 0.026531912
0.034037504 0.060237546 0.016957028 -0.033310317 0.051752727 0.028886186 0.031115504 -0.04830154
0.049218558 -0.0036549033 -0.027307041 0.0028742005 0.061894756 0.036731333 -0.018255034 0.01623335
-0.035243653 0.040000815 0.041660424 0.01771532 -0.013747224 0.039419778 -0.0012845654 0.02498412
-0.029604103 0.0042244014 0.011605075 -0.02275909 0.06616274 0.05595705 -0.018106485 0.060704645
-0.013432711 -0.041605078 -0.020197945 0.0049230363 -0.024738604 0.00952973 0.015037664 0.020993663
-0.04258618 -0.0018727598 0.07126628 0.03711185 0.019556403 0.01609582 0.030541945 0.030258331
-0.029999364 0.02391455 -0.039627757 -0.021606924 0.04161859 0.0014812929 -0.00064895593 -0.013891737
00000000: a940 8c3d a73c 61ba 9a21 953d 13d4 aabb
00000010: cd5c 843d 8433 a63c 5a88 51bd 72ba 2f3d
00000020: 72b6 d4bb d99b f2bc d85d 433d 98b8 5abd
00000030: 0b71 573c 9004 953a e52c 853d 48d8 463d
00000040: f54a 493b 8fcd 96bb dba8 2abd e24c 193d
00000050: 2a61 0a3d d5db 12bc 43d5 6a3d b82f 183d
00000060: fe1f 8bbc 51a1 983c 21d7 163c 6860 fb3c
00000070: 69a3 bc3c ca69 dc3c cfc8 933c 8540 7a3d
00000080: 6e6a d33b 83ad d6bc bb49 a3bc ae8b 593c
00000090: 70af 853b 62e1 fd3c df18 2cbd 3d67 2fbd
000000a0: 7fb9 76bc 47ee 74bb ffbc 523d c37a 673d
000000b0: 3ee6 ab3c 1f1a 903d 7e7e 0fbc 723b c33c
000000c0: 6910 833c a411 b93b 60a9 7d3d 15d4 503d
000000d0: ba23 e1bc 05a1 fd3c 806d 383d 387f 4b3d
000000e0: 7b99 34bd e63f 123d 8afa bcbc 8bc9 29bd
000000f0: 32ad 013d 93fd 833d 66f1 843c 9484 37bd
00000100: 7da2 373d f812 8ebc 46ae 6e3d 186f 5fbb
00000110: 935b 52bd d669 243d 1ad4 c1bc 48c6 d83c
00000120: 67ee 313d d714 6c3c 3df7 0a3d 5d4a 853c
00000130: ca9a 78ba 1c0f 383d 7c64 9dba efcf af3c
00000140: 5716 f1bc 8c77 75bc ebf5 a83c 2724 e83c
00000150: bcff 693b c142 77bc a26f 0cbd f2e5 17bd
00000160: ce54 523d 7700 213d c003 833b f79a 87bc
00000170: cbbe 4a3d bec6 123c f701 13bc 8296 44bd
00000180: c436 253d 59d0 3ebd 55cb 863d a85b 1e3d
00000190: 34a1 55bd 1ffa 793b f76d 263c be5d 0db8
000001a0: e53c ec3c bf00 883c d765 083c 2a59 2b3c
000001b0: 598c 22bd 9fde 813d 0fc1 903d d790 903c
000001c0: 2274 753c e058 5f3d 0685 ef3c 288b 7a3c
000001d0: f98e d73c f10f 36ba fead 1ebd 3b36 35bd
000001e0: 2172 e43c ead5 79bd c95b af3c c56b be3c
000001f0: 8179 883c 26c1 cd3c 8750 843c 7ba8 273d
00000200: a0b6 483d 1f1a 91bc f12c 723d 2ddc 78bc
00000210: 58b1 483d a96d bebc 8c18 1ebd db67 6e3d
00000220: c9fa a03c bb8a 633d 5551 14bc 98c0 05bd
00000230: edc2 353c 0188 303c ba99 a73c 734b 5d3d
00000240: 1711 093d 8490 503d cc6f 9c3c 9a02 af39
00000250: 5772 473d 28de 2f3d ef2e 273c a997 d13c
00000260: 6dee 4b3b b2fa c83a 65c8 0dbd f874 6bbd
00000270: 4704 33bd c85d 94bc 856c 883d 763e 433d
00000280: 2333 533d 8a18 bebc cad3 eebc 6be4 30bd
00000290: 4a19 643c 93f9 0abd 7957 5dbd d033 08bd
000002a0: 02a5 9c3c 28f4 31bd 79cb 54bc e530 abbc
000002b0: 7091 963b 3764 bf3c e3e1 13bd 9397 16bd
000002c0: 1e29 b63c 58ec d8bc 08d8 093d a093 49bd
000002d0: cfb8 acba ed89 513d 6752 4d3d c21c aabc
000002e0: 6aed 923d 9420 063d a082 fd3c df9d d53c
000002f0: eaa9 363d b7ee 17bd efe1 b2b9 f61d 493d
00000300: fe4c ce3c 1006 023d bb4a ac3c 5fa7 6a3d
00000310: 809f 11bd f090 cb3c 80d1 543d 7459 d93c
00000320: e96a 0b3d a5bb 763d 77e9 8a3c 6670 08bd
00000330: abfa 533d b9a2 ec3c f1e5 fe3c d6d7 45bd
00000340: 6699 493d 1a87 6fbb 04b3 dfbc 155d 3c3b
00000350: 5b85 7d3d 9873 163d 958b 95bc cdfb 843c
00000360: a65b 10bd e5d7 233d 1fa4 2a3d b81f 913c
00000370: 093c 61bc a276 213d dd5e a8ba 7fab cc3c
00000380: 4e84 f2bc d96c 8a3b 3623 3e3c 4571 babc
00000390: 5580 873d 3833 653d 0d54 94bc 6fa5 783d
000003a0: e014 5cbc 166a 2abd 2976 a5bc 6c51 a13b
000003b0: 9da8 cabc 9622 1c3c 8960 763c e7fa ab3c
000003c0: d96e 2ebd 6477 f5ba 0ef4 913d 9802 183d
000003d0: c034 a03c 62db 833c 1a33 fa3c 52e0 f73c
000003e0: 3ac1 f5bc 72e8 c33c b750 22bd 0101 b1bc
000003f0: 4178 2a3d f127 c23a b21e 2aba 2b9a 63bc

network.2.weight f4 [128, 256]
0.04401785 -0.01579277 -0.03671833 -0.017368272 0.061112016 -0.070983134 0.046295844 0.017674526
0.040053673 0.068507664 -0.03930443 -0.044895336 -0.0383099 0.024644502 -0.0237938 0.054837186
0.04400594 -0.01784937 0.011100598 0.06996205 0.06176503 0.024975758 -0.02499258 -0.03296957
-0.030392725 -0.056552827 0.05470746 0.005837531 0.017388776 0.046946317 -0.009215392 0.007127231
-0.022340396 0.0010720819 -0.009527034 0.033888035 0.04757518 -0.05197045 0.006006402 0.04050914
-0.036180187 0.031273697 0.05639223 0.036020365 0.042259645 -0.045842987 0.043462344 0.0606675
0.05452026 -0.04150846 0.019686867 0.0563474 -0.011516242 0.043592732 0.04998041 -0.058557373
0.06963441 0.044688687 -0.03632796 -0.014555783 0.027613213 -0.042829055 0.0075476156 0.02112628
-0.044451516 0.032336503 -0.006445229 -0.010684543 0.034619413 0.060915 0.051673938 0.046426423
0.015195338 0.0446732 0.019205997 -0.04108568 -0.02788087 -0.041725785 0.0038830664 -0.024479665
0.02291172 -0.0259439 0.016039012 0.033137616 0.04825544 0.035695348 0.009157278 0.040831957
0.041216902 -0.041958965 0.04609866 0.061786044 0.0491118 0.04073952 0.0404558 0.0053263656
0.031924155 -0.014603919 0.050988447 -0.012737382 -0.043758854 0.037120804 0.005917551 -0.01678711
-0.033652768 0.03763768 0.07255069 0.03700578 -0.06386291 -0.036812987 -0.01703681 -0.027961422
0.004278219 0.011536169 0.011664134 -0.031212801 -0.03189566 0.0226949 0.060297083 0.036259342
0.042648803 -0.029293086 -0.0064236624 -0.035920594 -0.024913425 -0.028622821 0.036520217 -0.02258906
-0.029638104 -0.025250379 -0.049456816 -0.032633837 -0.0022594724 -0.004289045 -0.018795893 0.045428917
0.040334396 -0.0294804 0.06851835 -0.048848398 0.04056699 -0.036846347 0.0046190475 0.011701639
0.04636474 -0.008773383 0.009581198 0.027274042 0.0023836126 0.06301817 0.07435382 0.060810447
-0.022416439 -0.03614566 0.03927677 0.046017658 0.017101118 0.011219538 -0.044553 0.018327337
0.049446605 -0.0055054356 0.02168808 0.04122938 0.07334253 -0.03954977 -0.041282427 -0.010532595
0.025965728 -0.009186139 -0.03949042 0.00056447805 0.03101429 0.056590825 -0.026413785 -0.044749778
0.05901766 0.046689473 0.026805047 -0.07264268 0.023632107 0.05724016 0.046578556 -0.015012646
0.0063053244 -0.017992849 0.065830156 -0.043932665 0.004557661 -0.061378255 -0.047835935 0.033261057
-0.0061650407 0.019221013 0.058971442 0.07788204 0.04796706 -0.002142051 -0.04539505 0.0265913
-0.04272123 0.03922834 0.028037773 -0.0016716258 0.05377746 0.027808495 -0.057973925 -0.02845538
0.040978108 0.05176704 0.07530823 0.011757545 -0.000699754 -0.025465325 0.010533391 0.013380841
0.028512778 -0.015773546 -0.022495693 -0.002593991 0.066272475 0.056486733 -0.016056096 0.06144903
0.065119185 0.002804557 -0.034121737 0.05242651 -0.01804756 0.06430702 -0.06875675 0.0519672
0.03818571 -0.013119299 0.06080851 0.006578329 -0.04722321 0.027622236 -0.022540124 0.031997453
-0.02648732 0.015734473 -0.022220165 0.07319986 -0.021858716 -0.031616345 -0.04456574 -0.051059052
-0.028533084 0.053672157 0.059674103 -0.051819813 0.042001277 0.046388622 -0.068281606 0.020269606
00000000: 104c 343d d75f 81bc f665 16bd e847 8ebc
00000010: 9850 7a3d 9b5f 91bd b6a0 3d3d 2bca 903c
00000020: 520f 243d bf4d 8c3d affd 20bd 2ce4 37bd
00000030: d7ea 1cbd 44e3 c93c 37eb c2bc f59c 603d
00000040: 933f 343d d838 92bc 48df 353c 4348 8f3d
00000050: 54fd 7c3d f699 cc3c 3dbd ccbc 1a0b 07bd
00000060: 2afa f8bc f0a3 67bd ee14 603d c248 bf3b
00000070: e872 8e3c c84a 403d 28fc 16bc 8c8b e93b
00000080: 3503 b7bc 1985 8c3a 4717 1cbc 2ece 0a3d
00000090: 31de 423d f7de 54bd 5ad1 c43b e9ec 253d
000000a0: ad31 14bd d918 003d 8afb 663d 178a 133d
000000b0: 7318 2d3d dbc5 3bbd 9205 323d 7c7e 783d
000000c0: a350 5f3d c604 2abd 5a46 a13c 88cc 663d
000000d0: 9fae 3cbc 4b8e 323d 42b8 4c3d dbd9 6fbd
000000e0: 7c9c 8e3d 7c0b 373d a1cc 14bd 617b 6ebc
000000f0: 1b35 e23c 856d 2fbd fd51 f73b 0511 ad3c
00000100: cb12 36bd 4873 043d 8032 d3bb 390e 2fbc
00000110: 16cd 0d3d 0282 793d 0da8 533d a229 3e3d
00000120: def5 783c 3ffb 363d e555 9d3c 7549 28bd
00000130: 6c66 e4bc a8e8 2abd 0b7b 7e3b 9489 c8bc
00000140: 5cb1 bb3c 4d88 d4bc 3f64 833c 4fbb 073d
00000150: 7fa7 453d 4935 123d 6808 163c 693f 273d
00000160: 0ed3 283d 2add 2bbd f3d1 3c3d 5d13 7d3d
00000170: 7429 493d 7cde 263d fbb4 253d cb88 ae3b
00000180: e7c2 023d 4745 6fbc 43d9 503d 74b0 50bc
00000190: 7c3c 33bd fc0b 183d 04e8 c13b 1f85 89bc
000001a0: 7cd7 09bd f829 1a3d 7595 943d 5f93 173d
000001b0: 8fca 82bd 37c9 16bd c890 8bbc 5a0f e5bc
000001c0: 4d30 8c3b 3302 3d3c ed1a 3f3c fdb1 ffbc
000001d0: 06a5 02bd a8ea b93c 13fa 763d ad84 143d
000001e0: 83b0 2e3d 0ef8 efbc 967d d2bb 7921 13bd
000001f0: 3d17 ccbc 687a eabc 3996 153d b10c b9bc
00000200: 9ccb f2bc e2d9 cebc 3b93 4abd 0fab 05bd
00000210: a813 14bb 1e8b 8cbb d8f9 99bc ac13 3a3d
00000220: ae35 253d e180 f1bc 5953 8c3d 4215 48bd
00000230: 9229 263d 32ec 16bd 615b 973b 3bb8 3f3c
00000240: f4e8 3d3d 3cbe 0fbc 75fa 1c3c d06d df3c
00000250: 6236 1c3b ac0f 813d d146 983d 6014 793d
00000260: aea2 b7bc 790d 14bd aee0 203d 037d 3c3d
00000270: a517 8c3c 27d2 373c 357d 36bd 3623 963c
00000280: 8688 4a3d f166 b4bb 33ab b13c 23e0 283d
00000290: 9c34 963d f1fe 21bd c317 29bd e890 2cbc
000002a0: 14b6 d43c 7681 16bc b5c0 21bd 7bf9 133a
000002b0: ae11 fe3c c8cb 673d b961 d8bc 8b4b 37bd
000002c0: 80bc 713d 763d 3f3d 4296 db3c afc5 94bd
000002d0: 1f98 c13c a874 6a3d 28c9 3e3d 9af7 75bc
000002e0: e59c ce3b bd65 93bc f6d1 863d bdf2 33bd
000002f0: 6e58 953b c467 7bbd 9def 43bd bf3c 083d
00000300: 1c04 cabb 6375 9d3c 0a8c 713d 9e80 9f3d
00000310: 1c79 443d a761 0cbb 29f0 39bd ffd5 d93c
00000320: 75fc 2ebd e5ad 203d 79af e53c 741a dbba
00000330: c145 5c3d a4ce e33c 1176 6dbd 421b e9bc
00000340: a9d8 273d ad09 543d 343b 9a3d b8a2 403c
00000350: b26f 37ba a89c d0bc 3e94 2c3c 513b 5b3c
00000360: a193 e93c 8637 81bc e348 b8bc f3ff 29bb
00000370: ddb9 873d a25e 673d 1388 83bc fab1 7b3d
00000380: 355d 853d a9cc 373b 3cc3 0bbd 2ebd 563d
00000390: 7ad8 93bc 66b3 833d 57d0 8cbd 8fdb 543d
000003a0: 9e68 1c3d 54f2 56bc 5812 793d 068f d73b
000003b0: 206d 41bd 0748 e23c 11a6 b8bc c30f 033d
000003c0: f0fb d8bc 95e5 803c 1007 b6bc cfe9 953d
000003d0: 0d11 b3bc 2480 01bd 918a 36bd 4c23 51bd
000003e0: 37be e9bc 56d7 5b3d d56c 743d 0341 54bd
000003f0: 8809 2c3d ff01 3e3d 3ad7 8bbd 720c a63c

network.2.bias f4 [128]
0.043391343 0.018936845 0.02982947 -0.038324606 -0.019299584 0.043530516 0.0069479733 0.07913904
0.03897561 0.031941377 -0.029996067 -0.023480412 -0.065054744 0.015502553 -0.060408268 -0.027287653
0.0075191883 -0.053363338 -0.008497 0.017549837 -0.03746496 0.0035802352 0.06180407 0.027508954
0.005240397 -0.055760983 0.06610988 0.044096112 0.04302314 -0.035504974 -0.004042469 0.061601955
0.023638155 0.06000783 -0.0059955493 -0.030438634 0.04239713 0.021551598 -0.023499815 0.015494578
0.030435111 0.010081563 -0.0011207177 0.04777059 -0.009577428 0.029077578 -0.065686986 -0.016108235
0.010389691 -0.03192598 0.07162825 -0.032627426 -0.031087693 -0.018748669 0.0478551 -0.03186372
0.0019146731 -0.0052193534 0.008303027 -0.043068457 0.040147133 0.048904575 -0.06792493 0.008596013
-0.03095391 -0.026856352 -0.013610289 0.028628899 0.014684182 0.016606439 -0.019772004 -0.043529365
-0.013259122 0.029008508 -0.030855356 -0.032789074 -0.021466011 0.0084951585 0.016886376 0.01739424
-0.042482935 -0.008194461 0.022400139 -0.004443313 -0.03541834 -0.003099767 0.00724363 0.00096587185
-0.040278677 0.037616532 0.07518191 0.03448464 -0.006021353 -0.00048645644 -0.044699423 -0.06389269
-0.032654934 0.043636184 -0.011645327 -0.0305127 0.03660904 0.00025908006 0.0298593 -0.030800967
0.050708026 0.015533708 0.061774477 0.014308209 0.016896864 0.017509768 -0.033528976 0.04103647
-0.018109009 -0.029233558 -0.037505664 0.03255249 0.055264983 0.04488763 -0.030936116 -0.057790887
-0.04384346 -0.015299189 0.06576214 0.05319469 -0.036520097 0.040177364 -0.035764802 0.04670961
00000000: 1fbb 313d 7121 9b3c ef5c f43c 43fa 1cbd
00000010: 291a 9ebc 0e4d 323d d3ab e33b a613 a23d
00000020: e4a4 1f3d f6d4 023d 50ba f5bc fe59 c0bc
00000030: 6c3b 85bd 6cfe 7d3c a96e 77bd 5b8a dfbc
00000040: 8663 f63b 8493 5abd 0037 0bbc adc4 8f3c
00000050: dc74 19bd 61a2 6a3b 4426 7d3d 755a e13c
00000060: a3b7 ab3b a165 64bd 9e64 873d 209e 343d
00000070: 0839 303d aa6d 11bd b076 84bb 5552 7c3d
00000080: cea4 c13c c5ca 753d 5076 c4bb 715a f9bc
00000090: 9da8 2d3d fa8c b03c af82 c0bc f8dc 7d3c
000000a0: 0e53 f93c 242d 253c 0ce5 92ba 18ab 433d
000000b0: a5ea 1cbc 1a34 ee3c e686 86bd 6bf5 83bc
000000c0: 8639 2a3c d1c4 02bd d5b1 923d 56a4 05bd
000000d0: 9eab febc cf96 99bc b603 443d 8883 02bd
000000e0: c5f5 fa3a 1c07 abbb 6b09 083c 8d68 30bd
000000f0: 5271 243d 2a50 483d 3a1c 8bbd 4bd6 0c3c
00000100: 0e93 fdbc da01 dcbc b1fd 5ebc 2787 ea3c
00000110: ec95 703c 3a0a 883c e6f8 a1bc d94b 32bd
00000120: ca3c 59bc 40a3 ed3c 5fc4 fcbc d64d 06bd
00000130: 7dd9 afbc 472f 0b3c 4c55 8a3c 5d7e 8e3c
00000140: 9602 2ebd 1042 06bc 7f80 b73c 3699 91bb
00000150: d212 11bd 7625 4bbb f95b ed3b 9032 7d3a
00000160: 41fb 24bd cb13 1a3d f9f8 993d c43f 0d3d
00000170: c54e c5bb 140b ffb9 be16 37bd 2cda 82bd
00000180: 2ec1 05bd dbbb 323d 0bcc 3ebc c5f5 f9bc
00000190: 5cf3 153d 23d5 8739 7e9b f43c 4f52 fcbc
000001a0: 38b3 4f3d 1881 7e3c 3c07 7d3d fa6c 6a3c
000001b0: 4b6b 8a3c a570 8f3c ae55 09bd dc15 283d
000001c0: 5859 94bc 377b efbc 8a9f 19bd c255 053d
000001d0: 895d 623d 17dc 373d bd6d fdbc 23b6 6cbd
000001e0: 3395 33bd 73a9 7abc 4dae 863d ade2 593d
000001f0: 1996 15bd 0591 243d 1d7e 12bd 9352 3f3d

network.4.weight f4 [64, 128]
0.10166931 -0.0022252048 -0.015719071 0.005008404 0.020970939 -0.009485898 -0.015830854 0.06579341
0.015694793 -0.03770122 -0.011659888 -0.043708887 -0.07095644 0.031919714 -0.00064070814 -0.00955055
-0.062785015 -0.036232337 0.0382161 -0.09661249 0.03712682 0.06957615 -0.02655467 0.09336847
0.08062457 -0.01531493 0.03317722 -0.07942573 0.01928508 -0.06320416 0.03463736 0.056400284
0.039871253 -0.055165727 0.035931263 0.018081522 0.038782127 0.086902045 0.029752972 0.047574703
0.02828274 -0.039253227 -0.040102504 0.07085089 0.0043480108 -0.044702526 0.032461997 0.09044144
0.10670589 -0.023865089 -0.056443587 0.07986073 -0.038805768 -0.01646223 0.04229786 -0.07210986
0.06532998 -0.062202543 -0.09430199 0.035590075 0.025882302 0.028869117 -0.058931086 -0.03497795
0.016254883 -0.048287317 0.022201765 -0.050891403 -0.04692812 0.015984572 0.06283747 -0.0151200015
0.0070872987 0.06660006 -0.045181807 0.02618575 -0.046682287 -0.04920279 -0.08118534 -0.101860255
0.06518798 0.06997016 -0.009231781 -0.019098587 -0.066061094 0.036887724 -0.06939172 -0.015067455
0.09342135 -0.088884234 0.08671325 0.02321098 -0.029387143 -0.07462792 -0.05318101 -0.022065282
-0.04903195 0.034941304 -0.012828064 0.025602316 -0.087103166 0.10619252 0.040219657 0.0685965
0.019156808 0.03030813 0.09675928 -0.0048207534 -0.06736917 0.1054922 0.044833448 0.058413554
-0.02156779 -0.009221417 0.073808685 0.077909395 0.038581394 -0.09611 -0.06059421 0.023756886
0.023913374 0.07785015 0.08934672 0.062066283 -0.047375694 0.09978872 -0.07650867 -0.047134187
0.025823053 -0.025477037 -0.031455997 0.034189135 0.08779447 0.02072159 -0.04219594 0.00797796
0.040632352 0.04775503 0.07867466 0.012304889 -0.04458545 0.08930435 -0.051089153 0.08264691
0.040806398 0.0034735294 -0.002787422 -0.058647595 -0.06747915 0.04418285 0.055362385 -0.06840329
0.06535136 0.050407153 0.07547511 0.039635304 0.08063359 -0.04048129 0.061591804 0.021520345
-0.06651821 0.06371145 0.047351133 0.075995795 -0.045349024 -0.06832726 -0.02673499 -0.037213616
-0.08571649 0.014136541 0.038277667 0.04755717 -0.04587964 -0.03836114 -0.08589223 0.03405343
0.06908992 0.008649653 -0.03474767 -0.052012548 0.06191226 -0.05979114 -0.045294773 -0.020248964
0.03472816 -0.04254013 0.06639353 -0.04436948 0.010840773 -0.0117721995 -0.08775977 -0.010368967
0.039550688 -0.04798429 -0.05270419 0.00050096645 0.063341215 0.05687506 -0.051858198 -0.014859566
0.054606494 -0.04960134 0.087951764 0.014999846 0.0034925733 -0.021299375 0.058469407 0.100842744
-0.01544682 -0.01748227 0.018746695 -0.048194326 0.025646795 0.05673612 -0.046060927 -0.036242615
-0.09726522 -0.025065428 -0.09625997 -0.075599834 -0.01971823 -0.036516517 -0.007687581 0.007723934
-0.030769773 -0.049587294 -0.04102682 -0.08409593 0.06470772 -0.0675218 0.034084763 0.033209138
-0.030091388 0.02633407 -0.05069215 0.05412594 0.040529102 0.030580195 0.043981925 -0.084534526
-0.063560106 0.02531427 -0.01861107 -0.038651474 0.0055530053 0.08584203 0.006446214 -0.01312683
-0.046629146 0.007064841 0.058068056 -0.012258465 -0.0731961 -0.092653446 0.062295962 -0.058071014
00000000: 0038 d03d bed4 11bb 48c5 80bc 8a1d a43b
00000010: 3fcb ab3c bd6a 1bbc b5af 81bc b2be 863d
00000020: 5e92 803c 986c 1abd 1d09 3fbc 1708 33bd
00000030: 9c51 91bd 3fbe 023d 32f5 27ba e979 1cbc
00000040: 6e95 80bd 5c68 14bd 7c88 1c3d c5dc c5bd
00000050: 4b12 183d f17d 8e3d 2e89 d9bc f837 bf3d
00000060: 7f1e a53d 79eb 7abc d6e4 073d f5a9 a2bd
00000070: befb 9d3c 2f71 81bd e8df 0d3d fc03 673d
00000080: 0a50 233d 75f5 61bd a92c 133d b31f 943c
00000090: 02da 1e3d b3f9 b13d 81bc f33c b1dd 423d
000000a0: 34b1 e73c fec7 20bd 8642 24bd 451a 913d
000000b0: c279 8e3b ff19 37bd dff6 043d 5d39 b93d
000000c0: 9e88 da3d b880 c3bc 6431 67bd 068e a33d
000000d0: ccf2 1ebd ccdb 86bc 8540 2d3d 56ae 93bd
000000e0: b9cb 853d 18c8 7ebd 6721 c1bd e6c6 113d
000000f0: 1f07 d43c ed7e ec3c b961 71bd 0a45 0fbd
00000100: f628 853c ecc8 45bd 7ae0 b53c 8173 50bd
00000110: b337 40bd 14f2 823c eeb0 803d e2b9 77bc
00000120: 923c e83b 9d65 883d 8f10 39bd 7f83 d63c
00000130: ed35 3fbd dd88 49bd 8044 a6bd 1c9c d0bd
00000140: 4781 853d 844c 8f3d e540 17bc a474 9cbc
00000150: 0a4b 87bd 9517 173d 3f1d 8ebd 7ddd 76bc
00000160: b153 bf3d f008 b6bd b796 b13d f424 be3c
00000170: 4ebd f0bc 86d6 98bd 55d4 59bd 40c2 b4bc
00000180: bad5 48bd 9d1e 0f3d cd2c 52bc f3bb d13c
00000190: 2563 b2bd 777b d93d 5ebd 243d 527c 8c3d
000001a0: bdee 9c3c c148 f83c bb29 c63d 69f7 9dbb
000001b0: d9f8 89bd 4b0c d83d 47a3 373d 0d43 6f3d
000001c0: efae b0bc 6d15 17bc 0229 973d f68e 9f3d
000001d0: 8607 1e3d 52d5 c4bd a231 78bd cd9d c23c
000001e0: fbe5 c33c e66f 9f3d 6afb b63d 3739 7e3d
000001f0: 040d 42bd 075e cc3d 94b0 9cbd c70f 41bd
00000200: de8a d33c 38b5 d0bc 01d8 00bd e809 0c3d
00000210: 96cd b33d 53c0 a93c a6d5 2cbd fdb5 023c
00000220: 1c6e 263d c79a 433d 2e20 a13d 729a 493c
00000230: 3c9f 36bd 33e5 b63d dc42 51bd c842 a93d
00000240: 9c24 273d 27a4 633b 2ead 36bb 7638 70bd
00000250: 8232 8abd 13f9 343d abc3 623d 0617 8cbd
00000260: efd6 853d bb77 4e3d b292 9a3d a158 223d
00000270: 3923 a53d b6cf 25bd b047 7c3d 6f4b b03c
00000280: b33a 88bd 267b 823d 43f3 413d afa3 9b3d
00000290: e6bf 39bd 2aef 8bbd 5603 dbbc 4e6d 18bd
000002a0: 218c afbd f39c 673c 0bc9 1c3d 4fcb 423d
000002b0: 4aec 3bbd 9220 1dbd 44e8 afbd 9c7b 0b3d
000002c0: 047f 8d3d 46b7 0d3c 9353 0ebd 1c0b 55bd
000002d0: b697 7d3d 8ee7 74bd 0387 39bd 28e1 a5bc
000002e0: 1d3f 0e3d 8f3e 2ebd 55f9 873d c6bc 35bd
000002f0: 7f9d 313c 2fe0 40bc 65bb b3bd 9ae2 29bc
00000300: e7ff 213d 2d8b 44bd 59e0 57bd 4a53 033a
00000310: 0ab9 813d d3f5 683d 4369 54bd 8a75 73bc
00000320: 0fab 5f3d c62a 4bbd 0e20 b43d eac1 753c
00000330: a8e3 643b 077c aebc 9e7d 6f3d a486 ce3d
00000340: a914 7dbc fa36 8fbc ab92 993c 6a67 45bd
00000350: 3a19 d23c 2264 683d 62aa 3cbd 2373 14bd
00000360: fd32 c7bd 0356 cdbc f223 c5bd 16d4 9abd
00000370: 2088 a1bc 5892 15bd 1ae8 fbbb 0e19 fd3b
00000380: e410 fcbc 0c1c 4bbd bd0b 28bd 7d3a acbd
00000390: 7b85 843d df48 8abd 779c 0b3d 4e06 083d
000003a0: 3782 f6bc 8cba d73c 92a2 4fbd 29b3 5d3d
000003b0: d801 263d 5183 fa3c 6426 343d 7020 adbd
000003c0: cd2b 82bd df5f cf3c 3e76 98bc 0251 1ebd
000003d0: fcf5 b53b f2cd af3d c33a d33b ea11 57bc
000003e0: 34fe 3ebd 2f80 e73b c5d8 6d3d bbd7 48bc
000003f0: d6e7 95bd 17c1 bdbd 0d2a 7f3d dfdb 6dbd

network.4.bias f4 [64]
0.029194107 0.06342513 0.017044388 -0.037240308 -0.04758846 -0.07003395 -0.026714478 0.04244788
0.07171315 -0.06880711 0.063542455 0.058926057 -0.061081134 0.05320693 -0.02904724 0.045068722
0.07458384 0.03411451 0.05730686 -0.03641673 0.027366571 -0.004434631 -0.04704054 0.08755369
0.058452513 -0.08616987 -0.015326287 0.010903891 0.0074265557 -0.08297516 -0.0047148196 -0.06888663
-0.07554295 0.06703934 -0.009457786 0.00231274 -0.013066641 -0.010898251 0.07349345 -0.057487648
-0.0028991317 -0.0665221 0.017711118 0.037055828 -0.08724811 0.06584953 -0.01697625 -0.005139228
-0.047559693 -0.028872408 -0.079042114 0.08516337 0.04339078 0.015074065 -0.044335008 0.0093447445
-0.028079621 0.06811654 -0.079277195 0.08778451 -0.086429164 0.059880324 -0.013593262 -0.039869003
00000000: 7b28 ef3c 09e5 813d aca0 8b3c 4b89 18bd
00000010: 1eec 42bd f66d 8fbd 52d8 dabc d4dd 2d3d
00000020: 58de 923d beea 8cbd 8c22 823d 735c 713d
00000030: 3630 7abd 83ef 593d 7af4 edbc fb99 383d
00000040: 6abf 983d a8bb 0b3d 99ba 6a3d b629 15bd
00000050: dc2f e03c 6250 91bb 95ad 40bd 594f b33d
00000060: e76b 6f3d d479 b0bd 1b1b 7bbc 3ca6 323c
00000070: 775a f33b e1ee a9bd c67e 9abb 6f14 8dbd
00000080: 43b6 9abd ec4b 893d d4f4 1abc 5791 173b
00000090: 7715 56bc 948e 32bc bc83 963d 2b78 6bbd
000000a0: 5cff 3dbb bd3c 88bd e816 913c dac7 173d
000000b0: 23af b2bd 1edc 863d c711 8bbc f866 a8bb
000000c0: f4cd 42bd d485 ecbc d5e0 a1bd 226a ae3d
000000d0: 88ba 313d 36f9 763c a098 35bd b31a 193c
000000e0: 3c07 e6bc af80 8b3d 155c a2bd 5dc8 b33d
000000f0: c601 b1bd 1245 753d 46b6 5ebc ae4d 23bd

actor.weight f4 [4, 64]
-0.0011848593 -0.060508657 0.018147295 0.07611169 0.029078709 -0.06064992 -0.11754071 -0.062122222
-0.044015072 -0.07858884 -0.07719166 -0.0385225 0.025046967 0.04404229 0.04064658 0.10629194
0.07228551 -0.034751523 0.078364685 -0.041000485 0.04613553 0.032602184 0.00034053624 -0.043392573
-0.089137316 -0.12004233 -0.10669549 -0.057507623 0.01166479 0.05345867 -0.0832128 0.03147575
0.037671573 0.038104337 -0.10684627 -0.039425567 -0.06507931 -0.09628909 0.07501682 -0.04354097
-0.009678363 -0.11172868 0.045566473 -0.11493875 0.02649744 -0.089807406 0.103262864 -0.041391827
0.11500479 0.0947497 -0.040944338 -0.03336047 -0.08211921 -0.012758862 0.10842803 -0.088575915
-0.05999812 -0.058906864 -0.024036359 0.096049026 -0.023938322 -0.021744236 -0.027315976 0.07464691
0.024778288 0.09820414 0.017665343 0.10813548 0.06195999 0.017556466 0.029391564 -0.12579523
0.09134924 0.049057797 -0.11815029 -0.13479722 -0.08269249 0.10895265 -0.059968047 -0.018061407
-0.13185535 -0.02882242 -0.060495846 0.08354679 -0.094205 -0.07346341 0.07841626 -0.03373294
-0.11260244 0.061715044 -0.08759239 0.01228161 0.010975018 -0.035083883 -0.0019568086 0.021390378
-0.04747836 0.08281997 -0.038537975 -0.00021352808 0.047817096 0.0071307756 0.0010670824 -0.024486199
-0.09699309 -0.064354405 0.05332211 0.116359554 -0.03359939 0.020387335 -0.054110125 0.058055736
-0.10476563 -0.08699994 0.05697915 0.118520364 -0.028482968 -0.017774655 -0.12103057 0.033687137
-0.037298195 0.11110868 0.11403422 -0.04151889 -0.10485395 0.059765756 0.082548 0.047167785
-0.05899614 -0.013629906 -0.05833172 0.068999715 0.10623035 -0.077495545 -0.016825808 0.09828692
0.021051135 -0.055372857 -0.07501542 -0.03811796 0.08522402 0.0028102708 -0.046164304 0.009856055
0.04111882 -0.048996277 0.058930974 -0.120029084 -0.06678132 0.047549944 -0.08518648 -0.10082746
0.09798917 -0.08495747 -0.11158147 0.07036341 -0.122485705 0.1182636 -0.11321371 -0.104966715
0.11161216 -0.049083233 -0.024417575 0.009272936 -0.031921778 -0.015222569 0.08643878 0.09664081
-0.07713038 -0.06834123 -0.119881704 0.054153148 -0.014778162 -0.089658454 -0.07182679 -0.008281944
0.07017763 0.12153152 -0.008230075 0.10215525 0.08672529 -0.041974165 0.075304165 0.07807238
0.0958837 -0.071638875 -0.024097461 0.03524339 0.1104952 -0.07314379 0.060333442 -0.05846478
0.031236434 -0.07371011 -0.11615199 0.08167984 -0.043237384 -0.0947623 -0.09274301 -0.06666514
-0.07183726 -0.109657034 0.096657656 0.038638372 0.0603668 -0.012782993 0.09898574 0.12741116
0.09180747 0.053768516 0.115864836 0.095544554 0.088168025 -0.040911138 -0.08690113 -0.032026272
0.08587561 -0.007892443 -0.07629885 0.06511695 -0.055634554 -0.0050115054 -0.021049602 -0.044270616
0.037271816 -0.09705722 0.12563021 0.08049731 0.03688243 -0.048680272 0.036027458 -0.016203523
-0.11193501 0.1155839 -0.013325226 -0.008279431 -0.05113435 -0.066618964 0.015491134 0.12001561
0.10085916 -0.09311548 0.02203852 0.020056374 0.07186947 -0.024561832 0.03198424 -0.019399006
0.05250179 -0.007141046 0.118611604 -0.11292026 -0.06296701 -0.017913086 0.0828263 0.075264685
00000000: 484d 9bba edd7 77bd a3a9 943c 72e0 9b3d
00000010: 7936 ee3c 0d6c 78bd 2fb9 f0bd df73 7ebd
00000020: 2649 34bd 30f3 a0bd a916 9ebd c5c9 1dbd
00000030: 4c2f cd3c b065 343d 077d 263d 97af d93d
00000040: 6d0a 943d 9d57 0ebd aa7d a03d 20f0 27bd
00000050: 9cf8 3c3d de89 053d 008a b239 69bc 31bd
00000060: a08d b6bd c1d8 f5bd 2a83 dabd 1d8d 6bbd
00000070: ad1d 3f3c 7af7 5a3d 796b aabd b7ec 003d
00000080: 824d 1a3d 4b13 1c3d 38d2 dabd b47c 21bd
00000090: 4d48 85bd 3733 c5bd 6ba2 993d 0458 32bd
000000a0: ff91 1ebc 02d2 e4bd e9a3 3a3d 0265 ebbd
000000b0: 2911 d93c f2ec b7bd 7b7b d33d 7a8a 29bd
000000c0: a287 eb3d 210c c23d 40b5 27bd fda4 08bd
000000d0: 1e2e a8bd 8c0a 51bc 840f de3d 4a67 b5bd
000000e0: 97c0 75bd 5348 71bd e6e7 c4bc 5ab5 c43d
000000f0: 4d1a c4bc f820 b2bc c1c5 dfbc 7be0 983d
00000100: d6fb ca3c 411f c93d e9b6 903c 2276 dd3d
00000110: c2c9 7d3d 94d2 8f3c 94c6 f03c 77d0 00be
00000120: 4f15 bb3d d4f0 483d c7f8 f1bd 4808 0abe
00000130: ae5a a9bd 9122 df3d 0ea1 75bd 84f5 93bc
00000140: 1705 07be ff1c ecbc 7eca 77bd 941a ab3d
00000150: 8dee c0bd fc73 96bd b498 a03d 8d2b 0abd
00000160: 1c9c e6bd eac8 7c3d a463 b3bd ce38 493c
00000170: 90d0 333c 1eb4 0fbd cd3d 00bb e03a af3c
00000180: ab78 42bd 849d a93d ffd9 1dbd 82e6 5fb9
00000190: dcdb 433d 48a9 e93b 58dd 8b3a 4897 c8bc
000001a0: 50a4 c6bd 3ecc 83bd 4968 5a3d eb4d ee3d
000001b0: 849f 09bd 5703 a73c 94a2 5dbd dacb 6d3d
000001c0: 5d8f d6bd 062d b2bd f862 693d ceba f23d
000001d0: 1d55 e9bc 279c 91bc e0de f7bd 86fb 093d
000001e0: fec5 18bd f38c e33d c68a e93d b60f 2abd
000001f0: abbd d6bd f0cc 743d ed0e a93d 0233 413d
00000200: f0a5 71bd f84f 5fbc 3eed 6ebd b94f 8d3d
00000210: 4c8f d93d fcb5 9ebd 47d6 89bc a74a c93d
00000220: 6e73 ac3c a6ce 62bd afa1 99bd 9421 1cbd
00000230: ee89 ae3d 852c 383b c816 3dbd 4a7b 213c
00000240: 356c 283d 52b0 48bd 9b61 713d cfd1 f5bd
00000250: a5c4 88bd bbc3 423d 4076 aebd a17e cebd
00000260: 8cae c83d 2ffe adbd d384 e4bd b11a 903d
00000270: c9d9 fabd 3034 f23d 97dc e7bd caf8 d6bd
00000280: eb94 e43d 800b 49bd 5e07 c8bc 83ed 173c
00000290: 69c0 02bd 1568 79bc d106 b13d 9eeb c53d
000002a0: 88f6 9dbd 7df6 8bbd 8a84 f5bd b1cf 5d3d
000002b0: 1b20 72bc da9e b7bd ed19 93bd feb0 07bc
000002c0: 4ab9 8f3d 84e5 f83d 70d7 06bc c636 d13d
000002d0: 079d b13d 1aed 2bbd 1239 9a3d 69e4 9f3d
000002e0: ac5e c43d 67b7 92bd 0a68 c5bc 5f5b 103d
000002f0: 4f4b e23d 69cc 95bd 3320 773d c478 6fbd
00000300: 8de3 ff3c 53f5 96bd 18e1 edbd c347 a73d
00000310: af19 31bd bd12 c2bd 0cf0 bdbd bc87 88bd
00000320: 6a1f 93bd de93 e0bd 73f4 c53d 4543 1e3d
00000330: 2d43 773d c26f 51bc 09b9 ca3d 1278 023e
00000340: 8e05 bc3d 603c 5c3d 8b4a ed3d ddac c33d
00000350: 7091 b43d 7092 27bd 38f9 b1bd fb2d 03bd
00000360: 8ddf af3d 4e4f 01bc 9242 9cbd 095c 853d
00000370: 0fe1 63bd 8e37 a4bb 3770 acbc 1b55 35bd
00000380: 55aa 183d f0c5 c6bd 35a5 003e c6db a43d
00000390: 0812 173d f764 47bd 8791 133d 40bd 84bc
000003a0: 2f3e e5bd 40b7 ec3d 0c52 5abc 73a6 07bc
000003b0: 4172 51bd 866f 88bd 86ce 7d3c beca f53d
000003c0: 3f8f ce3d 54b3 bebd 208a b43c 444d a43c
000003d0: 4d30 933d e535 c9bc e801 033d aaea 9ebc
000003e0: 1e0c 573d 70ff e9bb a4ea f23d bd42 e7bd
000003f0: d9f4 80bd 77be 92bc d6a0 a93d 5f24 9a3d

actor.bias f4 [4]
0.033546645 -0.079253495 0.03520755 -0.011968047
00000000: 3568 093d a84f a2bd cb35 103d a115 44bc

critic.weight f4 [1, 64]
-0.112563446 0.099098206 -0.038641896 0.031931818 -0.027023518 -0.019219665 -0.08203856 0.118921414
0.015536815 0.108076036 -0.04215921 0.0203489 0.10890179 0.05370604 -0.05879162 0.07689072
0.07510893 -0.101942115 -0.046600796 -0.001615926 -0.011500468 0.024196805 0.08204499 -0.07471351
-0.077049084 0.065224804 0.06861789 0.02309545 0.076320365 -0.008957081 -0.0038694679 0.05309265
0.043215785 0.1290405 -0.07464384 0.040087033 -0.047171213 0.048367016 0.12564847 -0.095431894
0.0085276 -0.0870184 0.07890876 -0.13324662 0.102633774 -0.05478676 -0.11563877 0.09095728
0.088646665 -0.12658772 -0.080981344 -0.006887275 0.11180414 -0.10102582 0.032605886 0.027574332
0.03360438 0.10115096 0.112463854 -0.12273263 0.034294017 -0.12341503 -0.10429815 0.050851684
00000000: aa87 e6bd 00f4 ca3d f746 1ebd f0ca 023d
00000010: 6d60 ddbc 8f72 9dbc d503 a8bd 128d f33d
00000020: 208e 7e3c f856 dd3d 23af 2cbd bdb2 a63c
00000030: e707 df3d ddfa 5b3d 7bcf 70bd e278 9d3d
00000040: b6d2 993d 07c7 d0bd 7ae0 3ebd 7bcd d3ba
00000050: 756c 3cbc 6138 c63c 3407 a83d 6603 99bd
00000060: e9cb 9dbd 9594 853d 8987 8c3d ab32 bd3c
00000070: da4d 9c3d b8c0 12bc e696 7dbb ae77 593d
00000080: 0903 313d 3123 043e dfde 98bd 4d32 243d
00000090: 9a36 41bd 7e1c 463d fea9 003e cc71 c3bd
000000a0: 59b7 0b3c b436 b2bd ea9a a13d cd71 08be
000000b0: a831 d23d 1568 60bd 05d4 ecbd cf47 ba3d
000000c0: 628c b53d 36a0 01be 8cd9 a5bd a6ae e1bb
000000d0: 92f9 e43d a0e6 cebd c08d 053d 91e3 e13c
000000e0: bfa4 093d 3c28 cf3d 7353 e63d 3f5b fbbd
000000f0: e277 0c3d 05c1 fcbd 459a d5bd db49 503d
