archived/ppo_2048_final.pth (torch, 113461 bytes, 9 tensors)

network.0.weight f4 [128, 16]
00000000: 65d5 6b3b 13ac 463e 4a9d 6e3e 6a2f 243e
00000010: 881c 983d 26e6 39be 20fc 0b3e 2daa 4f3e
00000020: b5f5 c53d 7022 70bd 90ef 453e 4e99 b73d
00000030: 02d2 703c f464 5bbe ecaa 54be c905 80bd
00000040: 54f7 bfbd 92d5 22be 9618 313e b774 62be
00000050: c25e d9bd dbe4 6bbe 1aa9 b5bd 9357 c6bd
00000060: 043f a13c 3bfa f8bd dba7 5c3e a7c9 53be
00000070: 8dc8 053e 87e0 48be 81b2 c23d b60a e1bd
00000080: 4151 c7bd 185a 26be b54c 3ebd 6bbd 94bc
00000090: 76c9 583e b88b 233e 27a5 793d e443 f1bd
000000a0: f53c 073e 3e51 afbd 5251 7abe 39b1 f13d
000000b0: cced 88bc 72db 7f3c 107f 36be a094 c0bd
000000c0: ef8f f3bd 4a44 febc fccc 0abd eec8 b83c
000000d0: 6c9a 03be 8ebd e13d b7c4 353d 6a27 1c3e
000000e0: f905 68be 9fe8 aebc 0cf9 32be 5951 ca3b
000000f0: 973b a0bd 2992 36be 4b5d 41be 308d abbd
00000100: 99f2 87bd 848c 573e 1f40 64be 703d 603d
00000110: 7fc2 cabd 4376 63bd 8256 023e 4cdb b63d
00000120: ffb1 53be 88ed 4a3e 19e4 13be fd3a 5abd
00000130: b83c 96bd 0bf4 bfbd 409b 773e df5b adbd
00000140: cf39 2f3d 1f5a 80bd f961 85be 8b07 53bc
00000150: 98f8 473e 2552 2d3e 9b61 5c3d c38b 35be
00000160: aeb3 8bbe 0f97 293d 6f9f 7c3d 05b5 60be
00000170: fd25 a73d 730f 363e a49e ed3c 8123 2bbd
00000180: b7d8 86bd aed1 79bd 8bbf 60be 4280 2dbe
00000190: a9dd f1bd fac6 b0bc 835b 06be ee32 fb3d
000001a0: a7e9 553e 3d72 aabd 4566 84be 0fdf 10bd
000001b0: 0e20 d03d 170c a03d af92 8d3d 637f 5d3e
000001c0: f166 b93d 16c7 c53d bf5f a8bd 4236 11be
000001d0: 2253 483d d1f5 febb ead7 993d 60de 33be
000001e0: 4ad7 823d 86b0 1cbd 3221 4bbe 7a06 40ba
000001f0: cf9f 083e 8788 5e3e f7d1 d3bd 5966 dfbc
00000200: aa0f 8c3d 1896 a3bd 3650 0c3c e9e8 e23d
00000210: c96a 8bbc e579 7ebe f530 a03d a1bc 63bd
00000220: 19b1 c2bd caae 71bc 5ded 62be 70b7 2ebe
00000230: c9e9 84bd 0c3f b43d f2d5 b53d 1d3d 0cbe
00000240: c43d d3bd a607 a5bd adf6 82be 4a7b e0bd
00000250: 7d00 853d faf0 e73b d147 4ebe 82e4 6c3d
00000260: d6e2 1c3e 4152 64bb 58c5 41be bedb e73b
00000270: 3307 553e 44c4 d63d 691b d33d 1432 1d3e
00000280: d412 fabd 28dc b23c 9d3b 133d ba89 463c
00000290: 82f7 243e ba05 493e 4af5 79bd 3543 203c
000002a0: 21bc f83c ef33 9e3d 23c8 683d f34a 77bc
000002b0: e421 203d aeee e7bc aa17 05be f351 1a3e
000002c0: d33a 043e 5b70 e53c ab25 373e 2a24 7d3e
000002d0: 7c4f 96bd 9b77 39be 345d 5e3e 713d f03d
000002e0: f6e9 b5bb 3870 4c3e f968 953d 117b 183e
000002f0: f818 3a3e 6b06 753e 82d6 c13d 2f9d febc
00000300: 2746 1dbe 9d0f d33d bb54 41bd 966d 3c3d
00000310: a4f6 323e 8d10 863e 3474 01be 0dbb 173e
00000320: 6ee2 ffbc d0aa 18be 116c f4bd fb23 c53d
00000330: eafa 79bd 893a 64bb a136 8ebd 3aa6 08bd
00000340: d544 cf3d e6ac f63d 7b82 d53d ac7d 9c3d
00000350: 342c e3bc 45e3 1d3d 2976 163e f234 d03d
00000360: 7393 07be 321f 67be b3f9 133e 50fb a63d
00000370: c2ac 5cbe bd88 f53d ea49 2bbd 1c3d 4a3e
00000380: f8b5 3f3e da5f f3bd 532a 6fbe 9111 7ebe
00000390: 33c7 00be 3eb7 e03b 4ecd 413d d0d4 32be
000003a0: 43e5 4a3e 598f 9abd fdbc e6bd 6c7a 34be
000003b0: a91e 3bbb 1a4d 92bc 36b2 093e 67ca 1ebe
000003c0: 7a11 2e3c 396f 5c3e bc7e bbbc e057 3bbc
000003d0: c690 75be c37c f63d a1c9 5c3e 1981 b7bc
000003e0: de9f 3e3e 17ea 113d 717c 363d e4bd 6b3e
000003f0: fad2 0abd 6b77 8c3d 30e4 f53d dfa6 e03d
0.0035985347 0.19401579 0.23302189 0.16033712 0.07427317 -0.18154201 0.13670397 0.2027976
0.096660055 -0.058626592 0.19329667 0.089647874 0.014698507 -0.2142523 -0.20768327 -0.062511034
-0.09373346 -0.15901783 0.17294535 -0.22114836 -0.10613777 -0.2303652 -0.08870144 -0.09684672
0.019683369 -0.12157103 0.21548407 -0.20682393 0.13064785 -0.196169 0.09506703 -0.10988371
-0.09732295 -0.16245306 -0.046459872 -0.018156728 0.21170601 0.15971267 0.060948517 -0.11780527
0.13206847 -0.085604176 -0.24445084 0.11801381 -0.016714953 0.015616285 -0.17821908 -0.09403348
-0.118926875 -0.031038422 -0.033886895 0.022556748 -0.12851876 0.11022483 0.044377055 0.1524941
-0.22658528 -0.021351157 -0.17477816 0.006174248 -0.07823866 -0.17829193 -0.18883245 -0.08376539
-0.06638069 0.21049696 -0.22290085 0.05474609 -0.099003784 -0.055532705 0.12728313 0.08928546
-0.20673369 0.19817173 -0.14442481 -0.05327891 -0.073358 -0.093727194 0.24180317 -0.08464789
0.04277974 -0.06267189 -0.2605131 -0.012880216 0.19528425 0.16925867 0.05380402 -0.17729096
-0.27285522 0.041403826 0.061675485 -0.21944053 0.081615426 0.17779331 0.02900631 -0.041781906
-0.06584304 -0.06099098 -0.21948068 -0.16943458 -0.118098564 -0.021579254 -0.13120846 0.122655734
0.20889913 -0.083225705 -0.25859275 -0.035368975 0.10162364 0.07814806 0.06912743 0.21630625
0.09052838 0.09657113 -0.08221387 -0.14180854 0.048907407 -0.0077807684 0.075118855 -0.17565298
0.063887194 -0.038254283 -0.19836882 -0.0007325184 0.13342212 0.21731769 -0.10342782 -0.027270483
0.06838925 -0.079876125 0.008564046 0.1107958 -0.017018693 -0.24851187 0.07821838 -0.055599812
-0.09506435 -0.014751146 -0.2216086 -0.17062163 -0.064899035 0.08801088 0.088786975 -0.13695188
-0.10314515 -0.080580994 -0.25578824 -0.109610155 0.06494234 0.007078287 -0.20144583 0.05783511
0.15320906 -0.0034839066 -0.18922937 0.007075756 0.20803528 0.104866534 0.103079624 0.15351135
-0.122106224 0.021833494 0.035945524 0.0121177975 0.16110042 0.19631091 -0.06102494 0.009781648
0.030363144 0.07724749 0.05683149 -0.015093553 0.03909482 -0.028312054 -0.12997308 0.15070324
0.12913065 0.028007677 0.17885463 0.24720827 -0.07339379 -0.18112032 0.21715242 0.11730469
-0.005551572 0.19964683 0.072954126 0.14890696 0.18173587 0.2392823 0.09464742 -0.03108081
-0.15358792 0.10305712 -0.047199946 0.046002947 0.17476898 0.26184502 -0.12641984 0.14817448
-0.0312359 -0.1490891 -0.119346745 0.09626003 -0.061030306 -0.0034824929 -0.069440134 -0.03336165
0.101205505 0.120446965 0.10425278 0.076411575 -0.027731039 0.03854682 0.14693512 0.101663485
-0.13239841 -0.22570494 0.14450721 0.08153403 -0.21550277 0.119889714 -0.041818537 0.19749874
0.1872176 -0.118835166 -0.23355989 -0.24811389 -0.12575988 0.0068577817 0.047314934 -0.17463994
0.19814019 -0.07546873 -0.112665154 -0.17624825 -0.002855221 -0.01785903 0.13446888 -0.15506898
0.010624284 0.21526803 -0.02288758 -0.011434525 -0.23981008 0.12035515 0.2156129 -0.022400426
0.18615672 0.035623636 0.04455227 0.23021656 -0.03389261 0.06858715 0.12006414 0.10969328

network.0.bias f4 [128]
00000000: afc2 01be ea25 31be a949 833d 08bb f13d
00000010: 7077 153e 9915 34be 9f8d 28be e0f4 7a3b
00000020: b764 013e 2a96 5c3d 6c6d f7bd c72e aabe
00000030: 376f 82be 782f f9bd 2010 1a3e a408 213e
00000040: 51ab 1f3e e7a7 5e3e 054c bcbd bf5f 30be
00000050: 22b1 473e 3346 773d fd46 29bd 0645 e43c
00000060: 7281 333e 06f4 a63e a17e 01bd bcf8 a73e
00000070: a7ca 9d3e b442 3d3e 3df7 193e e5dd 89be
00000080: fc32 a3bd f4f5 cfbc a5dc 08be 15ae 4abe
00000090: 0398 713d c8f1 0abe 675d 413e 5416 3bbd
000000a0: 7463 f93d 22b0 d63c b383 3e3e 602b 8abe
000000b0: 47df 173c 274c 983e 53ba 65bd 2aa5 fb3b
000000c0: cb02 09be 6a97 11be 93b6 22be cb13 06be
000000d0: f136 7abd d361 a3bd 9cff 0e3e c4a6 a33c
000000e0: 7995 d33d b727 4cbb 369b 913e 1e99 9cbd
000000f0: f8a8 5c3d fb75 53bd 00e7 41be d0b9 61bd
00000100: bc54 4cbd da4c 783e b806 863e 07b5 313e
00000110: 42f3 033e 4b23 2bbe b786 953e 40ac 643d
00000120: 37fe 7f3d 6847 d53d f7a7 903e 51f4 133e
00000130: ac48 f63d 34b6 c1bd 1708 85bd f6a5 97bc
00000140: d5e3 553d b9af 0d3d 045b 8a3c d164 1cbd
00000150: 2bdd c33d 1789 06be 3078 39be aa65 0a3e
00000160: fa16 62be b804 06be 3ec5 503d 69ff 1f3e
00000170: 9b03 d5bc 333d c7bd 00d5 5abe 1e67 8cbd
00000180: 5991 09be b81f 48be 0ecf 63be 0b1f 883c
00000190: a6f5 923e b967 22be 06c5 4ebe 9ef7 fcbd
000001a0: 1543 cb3c 48b4 673e bce5 5bbe b3e9 543e
000001b0: d2e2 79be 63e4 a1bd d47f 0ebd 4da6 ab3e
000001c0: 9e5f 1dbe 070d 2bbe 4a75 433e 1375 cf3d
000001d0: 43e8 b0bb b1c5 453e 8cf9 a5bd 3ddc f03d
000001e0: 7a08 593e af76 47be 6739 5cbd 577e 233e
000001f0: af0c 8c3c d4f2 4fbc 64de fdbd e76c 2ebc
-0.12671922 -0.1729962 0.06410534 0.118032515 0.14596343 -0.17586364 -0.16460274 0.003829293
0.12636076 0.053854145 -0.120814174 -0.33238813 -0.25475475 -0.12167257 0.15045214 0.15725952
0.15592696 0.21743737 -0.09194187 -0.17224024 0.19501165 0.06036968 -0.041327465 0.027864944
0.17529848 0.3260805 -0.031614903 0.32806957 0.30818674 0.18482476 0.1503572 -0.26927105
-0.07968709 -0.025385834 -0.13365419 -0.1979297 0.05898286 -0.13568795 0.18883286 -0.04567559
0.12177172 0.026207034 0.18604927 -0.26986217 0.009269542 0.297456 -0.056085896 0.007679601
-0.13379972 -0.14217916 -0.15889959 -0.13093488 -0.061087552 -0.07977643 0.13964695 0.019976981
0.10331244 -0.0031151602 0.2843873 -0.07646392 0.05387208 -0.051626187 -0.18935776 -0.055108845
-0.049885496 0.24248067 0.26177 0.17354213 0.12885764 -0.16712682 0.29204342 0.055828333
0.062498298 0.1041401 0.28253147 0.14448668 0.1202558 -0.094585806 -0.06495684 -0.018511754
0.05221923 0.03459141 0.016889103 -0.038182084 0.09563669 -0.13138233 -0.18112254 0.13515344
-0.22079077 -0.13087738 0.050969355 0.15624775 -0.026002696 -0.0972847 -0.21370316 -0.068556055
-0.13434352 -0.1954335 -0.22246954 0.016616365 0.2870304 -0.1585988 -0.20192346 -0.12351917
0.02481226 0.22627366 -0.21474355 0.20792274 -0.24402931 -0.079048894 -0.034789875 0.33525315
-0.15368506 -0.16704188 0.19087711 0.10129752 -0.0053987815 0.19313695 -0.08104238 0.11760757
0.2119464 -0.19478868 -0.05376568 0.15966164 0.017095892 -0.012692172 -0.12395933 -0.0106460815

network.2.weight f4 [128, 128]
00000000: 63ca c43c cf36 90bd 6bfe 173b 37a8 8bbd
00000010: f1fe 443d 78bd b03d 7fbd df3c 33a1 96bd
00000020: 4640 39bc de3c b83c ed13 803d 1108 6fbd
00000030: 02d6 953c dc24 44bd 98ec 34bd b9d2 b4bb
00000040: 408f e9bc f7c2 72bd 8d52 163d 60de 7dbd
00000050: 3092 46bd 9647 753b 3e43 a4bd 655b 3a3d
00000060: e89e 9bbd 7bab fa3c f804 813d afe1 9fbd
00000070: cd31 5ebd 5c0d 603d d424 7e3d 6cf9 253d
00000080: 7ae1 993b 44f4 27bd 5b77 99bd bcc9 48bd
00000090: a4b5 61bd 3a6a 1d3d 237d 80bc 84c1 833d
000000a0: 7303 56bd b5d8 1dbd a08f b9bd 51b6 8fbd
000000b0: 3d5e 94bd 0ca8 abbd d46a 3a3d fcb0 d73c
000000c0: 4c37 353d f34f 82bd b456 7cbd cbbf 993d
000000d0: 43f2 f33c b911 eb3b 7a50 b5bd 22c4 8fbd
000000e0: 9e20 b2bd a7a6 8ebd 62ba ff3c b871 133d
000000f0: 3435 33bc afaf fdbc 4d82 db3c 284b 993d
00000100: c70f 773c 2efb 21bd 4850 ae3c 00e9 693b
00000110: e0ca 153d 86f5 5e3d 82b9 3f3d e90f 213d
00000120: 3913 8abd 3ea1 96bc d087 583d d3c2 613d
00000130: acaf f93c 92f3 3ebd c201 aabd 4ec0 aabd
00000140: 0d7e 85bd bb7f 043d aa95 903d 110c 183d
00000150: c650 3f3d 6637 963d 9bab 253d f594 5a3d
00000160: fd6b 853d 9693 38bd 010d 7e3d e013 cc3b
00000170: 575d bfbc ce2a 343d e598 11bd 72e7 de3c
00000180: 9945 613d 942d b8bc 4648 8e3d 48f8 63bd
00000190: db52 723d 0576 c9bd aafd 41bd 6f9e 883c
000001a0: ec79 bebd 5a41 33bd 637d 98bd e0cb a5bc
000001b0: f330 9dbd 7c1c bfbb 10e6 123d 6e62 6fbd
000001c0: 108b 0ebd 8360 f03b f09b 9fbd b3a2 973d
000001d0: b950 83bd 1b89 333c 4e31 5f3d f62f b93c
000001e0: 7730 f73c b800 34bd 587e 323d 210b 6e3d
000001f0: 874b 3c3d 3229 90bd 3c17 1bbd 1ad2 00bc
00000200: 3be8 a5bc ba3d e3bb 5e3e c93c 8d98 263d
00000210: 793e 6dbb b6fd b13b 09b2 ffbc d24c 74bd
00000220: f179 a83c 0b80 c5bd fb07 383d 2d3c 573d
00000230: f2e5 0fbd f918 963d ca03 243c 7a54 c1bc
00000240: 8895 1fbd f386 92bd 2eab a93c ff20 6f3d
00000250: 0fbb d6bc ce04 4b3d b53f 8ebd 01c8 c1bd
00000260: 9a44 643d e567 00bd 71a2 283d 728b b73c
00000270: bcb8 253d f205 63bc a895 0dbd 17ab 883d
00000280: 2d3f 983d b87e 9abd 2f88 a13d a0fa ae3d
00000290: 3db8 09bd adc6 753d 464f 6c3d 3c7f 3c3d
000002a0: b9fd 4a3d 46d8 493d bc39 c1bd 2540 a7bc
000002b0: 8d92 7a3d 5ba1 91bd 6cab 303c 4e04 6a3a
000002c0: 983a 4f3c eca8 8a3d f9d6 10bd 6e4f 6ebb
000002d0: 3ffd b3bc 8a5b cd3c 0260 43bb 1bfa f8bc
000002e0: bda9 8abd a8a3 56b7 1ca5 033d 30ee 2dbc
000002f0: 81ef aabd 421a 8bbd 6b66 71bd 5f49 58bd
00000300: 11eb 45bc f3e9 2d3d b520 2c3c 58af 8cbd
00000310: b6a4 ee3c 9024 aabd 244d 2abd 8504 9cbb
00000320: 6a78 1b3c 1501 163c acf4 7c3d e1ef 9e3b
00000330: 7b29 adbd b432 533d 4585 833d 8641 623d
00000340: 779e a2bc 20a4 1dbc 0afe edbc fb6c 93bd
00000350: 3612 acbd 26a6 9bbd 5b9c cbbc 6ed5 55bc
00000360: 1845 11bd 6b37 59bb c274 53bd 42ca 9c3c
00000370: 8f68 4ebd 1a87 a43d e65d 3abd c26e 79bd
00000380: 7ff5 e33c 519f 613d 13df 2e3d f8ac 5e3c
00000390: 476b 87bd 1277 4dbd bc62 75bc 6028 243d
000003a0: 30a8 473d 46fc b9bd 5a51 efbb c85f bbbd
000003b0: f14e 1abc caa5 85bd 3677 fabc 79ab 543d
000003c0: 477f 0b3b 66d4 a8bd fede a4bd 604a a4bb
000003d0: 6a01 aabc f1e3 963d df21 bbbd 1fbc 273c
000003e0: 89ed 443d c2ae 13bc 00e9 203c 8756 8f3d
000003f0: b4ad 3e3d 1617 8fbd 0d99 fe3c 0869 a9bc
0.024022287 -0.07041704 0.0023192416 -0.06819194 0.048094694 0.08629888 0.027312038 -0.07354965
-0.011306828 0.022489961 0.062538005 -0.058357302 0.018290523 -0.047886714 -0.044170946 -0.005518284
-0.02851069 -0.059267964 0.03669982 -0.06197965 -0.04847926 0.0037426702 -0.08020638 0.045497317
-0.07598668 0.030599346 0.06299776 -0.078067176 -0.054246712 0.05470024 0.06204684 0.04052107
0.0046960684 -0.041004434 -0.074934684 -0.049020514 -0.055104867 0.038431384 -0.01568467 0.064333946
-0.052249383 -0.038536746 -0.090605974 -0.07017196 -0.07244537 -0.08381662 0.045512035 0.02632951
0.04424219 -0.06362905 -0.061606124 0.07507285 0.029778605 0.0071737436 -0.0885324 -0.07019831
-0.086976275 -0.0696538 0.031216804 0.035997123 -0.010937978 -0.030967562 0.02679553 0.07485038
0.015079445 -0.039546184 0.021278515 0.0035691857 0.03657043 0.05443337 0.046807773 0.039321814
-0.06741948 -0.018387433 0.052863896 0.05511744 0.030479275 -0.046619006 -0.083011165 -0.083374605
-0.06518183 0.032348376 0.07059796 0.037120882 0.04670789 0.07334785 0.04044686 0.053364713
0.06514738 -0.045062624 0.06202412 0.006227955 -0.023359938 0.043986134 -0.035546202 0.027209971
0.054998014 -0.02248267 0.06947379 -0.0556567 0.05916105 -0.098369636 -0.047361054 0.01667711
-0.093005985 -0.043763496 -0.074457906 -0.020238817 -0.07675352 -0.005832253 0.035863936 -0.05844348
-0.03480059 0.007335724 -0.077934146 0.07404079 -0.06411881 0.010957981 0.05449038 0.022605877
0.030174477 -0.043945998 0.043577522 0.058116082 0.045970466 -0.070391074 -0.037863955 -0.007862592
-0.020252338 -0.0069348486 0.024565872 0.040672828 -0.0036200567 0.005431856 -0.031212823 -0.059643574
0.020565959 -0.09643563 0.044929486 0.052547622 -0.035131402 0.07328982 0.010010669 -0.023599852
-0.038960963 -0.07154646 0.020711508 0.058381077 -0.026212243 0.04956513 -0.06945745 -0.09461976
0.055729486 -0.03134908 0.04117054 0.02240536 0.04045938 -0.013856398 -0.03456655 0.06673258
0.07433925 -0.07543701 0.07887303 0.08543897 -0.03362297 0.060003925 0.05769279 0.046019778
0.049558375 0.04927852 -0.0943484 -0.020416329 0.061174918 -0.07110854 0.010783058 0.0008927033
0.012648247 0.067705005 -0.035361264 -0.0036363262 -0.021971343 0.025068063 -0.0029811864 -0.030392697
-0.06770656 -1.2793498e-05 0.032139882 -0.01061587 -0.08346463 -0.06792118 -0.058935564 -0.052804347
-0.01207997 0.04245944 0.010505845 -0.06869382 0.029131275 -0.08307755 -0.041577473 -0.004761281
0.009489158 0.009155531 0.061756775 0.004850373 -0.084551774 0.051562026 0.064219035 0.05523827
-0.019850953 -0.00962165 -0.0290518 -0.07198521 -0.08401911 -0.0760005 -0.02485483 -0.013051374
-0.035466284 -0.0033144604 -0.05162502 0.019139413 -0.050392684 0.08033581 -0.045499705 -0.060896643
0.027827023 0.055083577 0.04269321 0.013591044 -0.066122584 -0.050162382 -0.014977153 0.040077567
0.04874438 -0.090813205 -0.007303399 -0.09149128 -0.009418235 -0.065257624 -0.030574422 0.05192134
0.002128558 -0.08243637 -0.08050345 -0.005013749 -0.020752627 0.07367695 -0.0913732 0.010237723
0.048078094 -0.0090138335 0.0098211765 0.06998926 0.046552375 -0.06986825 0.03107884 -0.020679966

network.2.bias f4 [128]
00000000: 3404 743d e143 96bd b736 5dbd c0d3 083d
00000010: 0882 a4bd 1266 80bd 954a 27bd f18e ab3d
00000020: 2f03 af3d 8887 e4bd e05c 943d 2d48 1b3d
00000030: bc73 a93d 08c2 70bb 67cc ecbd 6a67 8abd
00000040: ad4f 05bd a893 623d 8b2f 61bd ea2f 0c3e
00000050: 0eed 69bd 71f7 8a3c 3cd9 9c3d deda 91bc
00000060: 3dc1 afbd 4a5b 6f3d a858 1ebc 0e18 39bd
00000070: aa74 94bc 8f7e 373e 2d91 e33d f162 68bd
00000080: 3b86 3c3d 091a ddbd 6695 9abd 8e81 77bd
00000090: b266 7f3d 0796 09bd 4d4c 33bd 5cef c23b
000000a0: 2303 333e a46e 593d 2c75 923d 5b9d dc3c
000000b0: 5fa9 a23d 624d 9ebd 442d 443d 901e 5abd
000000c0: ccc7 22bd f308 2cbc 2f4a d9bc 770e fb3c
000000d0: d293 eebc 110b 8fbc cbe9 06be 01db 923b
000000e0: d7fc ad3c 20cc 09be da40 8f3c d851 9dbc
000000f0: 9f7e 0cbe 069d 053e 5e1f 91bc 9a82 363d
00000100: e2e3 8f3d e1e4 a23c ed20 053e fdf3 88bb
00000110: ded2 e43d efa5 8fbd 1988 0e3e 577d fd3c
00000120: 17af 263e e0e3 b73d 6d9f 293e 7ac9 723c
00000130: f421 dd3c c6a0 80bd 96ce f03c d65e 53bd
00000140: fea9 7a3d 2ea7 f9bb 723c 02be e180 ab3d
00000150: 3564 f0bd 134c fe3d 8d0e d53d fe24 0fbe
00000160: 3633 d83c 1860 f33d 37b4 e83c d1cc dcbd
00000170: 9706 6a3d a9de 843d 06a2 cdbc 10ce d03c
00000180: 3179 e4bc d1d3 113e 1360 2ebc 7c18 8abc
00000190: fece d2bd 6f7e ea3c bb01 aa3d 42d1 bcbc
000001a0: 7f95 00be 34e3 16be f8f9 3ebd b413 a63d
000001b0: e4ff 81bd 0b41 c53d 62b0 133e 2c14 0a3d
000001c0: 0210 073e 648d de3d 63b4 3f3d 1935 c13c
000001d0: 73f8 a0bc 6147 d43d 1e01 b5bd 07ce d13b
000001e0: 4f09 c43d 3930 a639 ef35 eb3d 922b 093e
000001f0: 71e4 033e 8d2d ecbd 293d c2bd c35e 783d
0.05957432 -0.073371656 -0.05400726 0.033405066 -0.08032614 -0.06269468 -0.04084261 0.08376873
0.08545529 -0.11158663 0.07244277 0.03791063 0.08274028 -0.0036736745 -0.11562424 -0.06758006
-0.032546688 0.055316597 -0.05497698 0.13690153 -0.05711084 0.016963692 0.07658622 -0.01780456
-0.08581779 0.05843667 -0.009664692 -0.045188956 -0.018122036 0.17919372 0.111116745 -0.056734983
0.04602645 -0.107959814 -0.07548027 -0.060426287 0.062353797 -0.033590343 -0.043773938 0.005948944
0.17481665 0.05308403 0.07151255 0.026930502 0.07942461 -0.07729603 0.04789473 -0.053251803
-0.039741322 -0.010500181 -0.026524631 0.030646546 -0.02912322 -0.017461332 -0.13175122 0.0044816737
0.021238727 -0.13456774 0.017486978 -0.019204065 -0.13720177 0.13048181 -0.017715152 0.044558145
0.07025887 0.019884529 0.13000841 -0.0041794763 0.11173032 -0.07014071 0.13919105 0.030943556
0.16277729 0.089790106 0.16564722 0.014818544 0.02699373 -0.06280665 0.029395383 -0.051604114
0.061197273 -0.0076188063 -0.1271837 0.08374191 -0.11737863 0.12416854 0.10403166 -0.13978955
0.026391607 0.11883563 0.028406246 -0.10781253 0.05713519 0.064877816 -0.025101673 0.025488883
-0.02788982 0.14240958 -0.010643023 -0.016857378 -0.10293387 0.028624741 0.08301111 -0.023049
-0.12557028 -0.14735109 -0.046625108 0.08109227 -0.063476354 0.096315466 0.14422753 0.033710644
0.131897 0.10866812 0.04680289 0.02358489 -0.01964972 0.10365177 -0.08838104 0.006402734
0.09572088 0.00031697916 0.114848964 0.13395527 0.12880112 -0.115321256 -0.094843216 0.060637247

network.4.weight f4 [64, 128]
00000000: 92fb 1ebd 6193 fabc 1601 d7bc 0246 1cbd
00000010: 4d8f 383d 5d5e 203c 79eb c83c d01f 92bc
00000020: 4648 dcbc f601 6e3d 18ce 40bd fb3d 27bc
00000030: ac42 a73d e33c 8ebc 4071 753d 654f a53d
00000040: ab76 963d 664d 1c3d ebdf aabd 23e4 3abd
00000050: a06a 1dbd 4b80 80bd 1132 07bc 8d5c 6abd
00000060: 34a3 4f3d 1658 e5bc 7c87 9f3d ba79 793d
00000070: b797 c33c 60bd a5bd 6d10 16bd 73ec b5bd
00000080: 83d8 5cbd 15da ff3c f37b 27bd 4e54 3a3d
00000090: e3d6 6c3d 7840 2cbc 1168 95bd a785 823c
000000a0: 87e6 0b3d 0c0f 72bc dbe4 debc 291a 873d
000000b0: 2fc3 313c 135b 403d 68b8 a13d dfa6 5d3d
000000c0: 3525 533d 8383 a1bd ecf7 de3d c8cb 80bd
000000d0: 88b7 acbd 663d 9cbd bc99 a6bd 67e7 afbd
000000e0: 4a62 72bd 9d12 983d 237a a23d fcac bf3c
000000f0: c12f 50bc c460 0f3d 5406 1f3d 6a66 5f3d
00000100: ac99 3ebd 5bce 0abc 69a8 a9bd c7d0 1f3d
00000110: 3de3 bb3c 1d65 c9bd 28e9 9ebc 810e 9cbc
00000120: aabf 85bb 8c0e 7dbd 8833 89bd 4b49 31bc
00000130: 4fd8 e7bb 149a efbb 779a 89bd a8d1 fcba
00000140: 801e cfbd 25ed 0fbb dd65 903d 1688 42bd
00000150: b86a ff3d c2d7 6cbd 9eb0 ca3b 7ca5 583d
00000160: f54f cdba 1217 94bd 5b6e 533b 7153 94bd
00000170: d8f9 6e3c ad4a e33c e64e 183d df35 6d3c
00000180: 90e6 893d df9c 72bd 8d44 a03c 5bf2 a9bd
00000190: 98c7 d63b 4fee 1d3b e867 8b3b 4ac4 5ebc
000001a0: 0a75 b93d 8224 d43c a373 4c3d 57d6 a53c
000001b0: d27f b53d 783b 643c 912e 8d3d 97cc ad3d
000001c0: 2a6a a5bc dfe6 5a3d 5e04 15bd 17d0 c53c
000001d0: 3ea4 84bd a8c2 5b3d 529d d8bd fa18 3d3c
000001e0: 4e50 83bd 9a52 963d 3e98 a1bd e08d b23d
000001f0: 5530 1f3d 267c 5abd 1c60 30bc 2ebb c13c
00000200: df15 a43c 1383 f2bb 6328 6ebc 101f 983d
00000210: 57e7 c3bb 42a2 b8bd 1f83 08bd b2ad 40bd
00000220: d7e3 76bd 5574 003d d239 f8ba 2bd3 11bd
00000230: 2751 0f3c c669 673c 4e11 bbbc 2f55 58bb
00000240: e6d6 913d e3c5 7f3d 6b03 82bd 3617 233c
00000250: 8dd1 7a3d 51ee 453d efaa aabc 5210 81bc
00000260: b36a 8dbd 352f 45bd 7198 8dbd 19f4 aabd
00000270: c7c6 91bd a63c 273d cfe1 3b3d 0c89 55bd
00000280: 43b3 7e3d e397 aabd aa3d ad3c 8d4c a3bd
00000290: bb17 27bd b8d9 4fbd 2d3f 113b 4038 ea3c
000002a0: b4d4 a2bd 9e48 4fbd 9395 4ebd 28e3 9b3d
000002b0: 6c13 c1bd 3dfd 1ebd 7434 3cbd d38d 433d
000002c0: 0f25 95bc 6f9f 233d facb a4bc 90a5 f0bc
000002d0: ef5e 67bd 548d 86bd f0e4 32bd 4713 84bd
000002e0: f230 d63c 74af 87bd c4d5 a9bd df70 68bd
000002f0: 3ef5 cdbc 7b23 36bd 037d 90bd f5a3 a7bb
00000300: f0ef 863d 879b d0bd 929c aebd 8c36 3cbc
00000310: 3655 4c3d 54a6 3abb 7bc8 233d 89f7 65bd
00000320: f787 af3c 3bc3 85bc 7bc7 d7bc c0b4 1f3d
00000330: 3843 743d b276 183d abfd 78bd dc8f e1bc
00000340: c202 963d 3e7f 29bd 572f 4cbd bc44 a4bd
00000350: dfb8 c2bd 6bdc 493d c9e6 9d3d 6b6e 9e3d
00000360: ab3d 98ba 4cc0 f5ba e9c3 463d 9e71 46bc
00000370: 2b79 093c d88a 933d 4005 573c 7be1 b0bd
00000380: 0a47 7ebb cc3a 863c 8f6f 473d be91 83bd
00000390: 762c 8f3d b670 9f3d c800 b4bc 1646 873d
000003a0: 32f1 f23c c036 743c d6c9 1c3d 0713 bfbd
000003b0: abe4 6c3d 2eb3 783c b6dc 02bd c6aa 60bc
000003c0: f4c5 063c dc9d aebd 2389 143c 2758 22bd
000003d0: 24a6 4cbd 94e4 2abd ffc0 57bc 5379 11bd
000003e0: 3525 72bd 39a3 7a3c b452 bdbd eef5 8c3d
000003f0: b2ce 213d 927f 8c3d 8fe4 2ebd 2d17 5dba
-0.038814135 -0.030587854 -0.026245635 -0.038152702 0.045058537 0.009788123 0.024526345 -0.017837435
-0.026889931 0.05810734 -0.047071546 -0.010207648 0.081670135 -0.017363017 0.059922457 0.08071784
0.07346853 0.03815975 -0.0834349 -0.045627724 -0.038431764 -0.0627447 -0.008251683 -0.05721717
0.050692752 -0.027996104 0.077895135 0.060907103 0.023876054 -0.08092761 -0.03663676 -0.0888299
-0.05391742 0.03123192 -0.04088969 0.045490555 0.05782212 -0.010513417 -0.0729524 0.015932871
0.034155395 -0.014774095 -0.027208736 0.065967865 0.010849758 0.046961855 0.07896501 0.05411422
0.051549155 -0.07886412 0.10887131 -0.06288868 -0.08433443 -0.07628898 -0.08134791 -0.08589058
-0.059175767 0.07425425 0.07933452 0.023397915 -0.012706698 0.035004392 0.038824394 0.05454103
-0.04653327 -0.008472051 -0.08284075 0.039017465 0.022935504 -0.09833739 -0.019398287 -0.019049885
-0.004081686 -0.06178145 -0.06699282 -0.010820697 -0.0070753465 -0.0073120687 -0.06718915 -0.0019288557
-0.10113239 -0.0021961418 0.07050679 -0.047493063 0.12471527 -0.05782295 0.006185605 0.052892193
-0.0015664088 -0.07230963 0.0032261822 -0.07242478 0.014585935 0.02774557 0.03718462 0.014478176
0.067334294 -0.059231635 0.019563938 -0.08298179 0.006554555 0.0024098342 0.00425433 -0.013596604
0.090555266 0.025896315 0.049914967 0.020243807 0.088622704 0.013930194 0.068936475 0.08486288
-0.020192225 0.053442832 -0.036381118 0.024147077 -0.06476639 0.053652436 -0.105768815 0.011541599
-0.06411801 0.07339974 -0.07890366 0.08718467 0.038864452 -0.053341053 -0.010765102 0.023648825
0.02002996 -0.007400879 -0.014535996 0.074278 -0.0059785056 -0.09015323 -0.03332817 -0.04704065
-0.06027588 0.031360943 -0.001893813 -0.035601776 0.008747376 0.014124339 -0.0228354 -0.0033009758
0.07121067 0.06244458 -0.06348308 0.009954264 0.061235 0.04832298 -0.02083346 -0.015754852
-0.06905117 -0.048140723 -0.069138415 -0.08347339 -0.07117992 0.040829323 0.045869645 -0.05213265
0.062182676 -0.08329751 0.021147568 -0.07973585 -0.040794116 -0.050744742 0.00221629 0.028591275
-0.07950726 -0.050606363 -0.050435614 0.07611686 -0.094275326 -0.038815726 -0.04594846 0.047742676
-0.018206147 0.03994697 -0.020116795 -0.029375821 -0.05648702 -0.06569925 -0.043675363 -0.06448989
0.026146386 -0.06625262 -0.08292726 -0.056748267 -0.025141355 -0.04446743 -0.07055094 -0.0051159807
0.06588733 -0.101859145 -0.08525957 -0.011487614 0.04988595 -0.0028480487 0.039986115 -0.05614427
0.021427138 -0.016328445 -0.026340237 0.038990736 0.059634417 0.03722257 -0.06078879 -0.027534418
0.07324745 -0.041381113 -0.049849834 -0.080209225 -0.095079176 0.049282473 0.077100344 0.07735904
-0.0011615058 -0.0018749326 0.04852668 -0.012112049 0.008390705 0.07204217 0.01312381 -0.08636757
-0.0038799667 0.016385458 0.048690375 -0.064242825 0.06990902 0.0778517 -0.021973029 0.06605165
0.029656027 0.014905632 0.038278423 -0.09329801 0.057835262 0.0151794385 -0.031948768 -0.013712591
0.008225907 -0.08526203 0.009065899 -0.03963485 -0.04996313 -0.041721895 -0.013168572 -0.035516094
-0.059117515 0.015297704 -0.0924429 0.06882845 0.03950376 0.068602696 -0.04269844 -0.00084339344

network.4.bias f4 [64]
00000000: 6bbb ad3d 948c d13c 1bdc ff3b 3861 13bc
00000010: c40e e13d e338 5b3c b224 87bd dccb a9bd
00000020: c3b3 64bd 0f58 2bbd defd 8ebc 7649 0d3e
00000030: 418f 9c3d 0b79 c4bd 8e1d 64bd 5799 c73d
00000040: 8434 e13d 8b15 7dbc 2472 cc3d 1758 d43b
00000050: 4089 ca3c 5cb8 b53d fb4c 4f3d a7c1 97bd
00000060: 8baf 94bd de50 8dbd 74b8 88bd ea39 06be
00000070: c9c8 81bd 0b5d 81bc 9e6f a33b 7858 653d
00000080: 1173 0c3e 6b76 c8bd 3ea9 4e3c 22de ba3c
00000090: d0d5 153e f4b8 eb3c 1a7e 8bbc f4a9 c3bd
000000a0: 586f 2a3d 2a49 1dbd 9c55 dbbd 07da fb3d
000000b0: d580 813d 9ab2 d5bd db13 2f3c 0abe e53c
000000c0: ca14 ac3c a366 c7bd 8da4 89bb 3ab5 e43d
000000d0: 6d34 103e 6c08 e13d 968b bb3d 3ed5 f0bd
000000e0: d29b 903d da06 bdbd 0f42 13bd 840b 8cbd
000000f0: 551a d93b ca8d d33c c51f 21bc 7a5f b83d
0.08483013 0.025579728 0.007808221 -0.008995347 0.109891444 0.013380262 -0.06598796 -0.08290836
-0.055835497 -0.041832026 -0.017455038 0.13797554 0.07644511 -0.095933996 -0.055692248 0.09746044
0.10996345 -0.015447031 0.09982708 0.0064802277 0.024723649 0.088730544 0.050610524 -0.07409983
-0.07260045 -0.0690019 -0.06675807 -0.1310803 -0.06337125 -0.015791437 0.004987671 0.055992573
0.1371577 -0.097882114 0.012613593 0.022811 0.14632344 0.028774716 -0.017027903 -0.095539
0.041610092 -0.038399853 -0.10709688 0.12297445 0.06323401 -0.10434456 0.010685886 0.02804472
0.021006007 -0.09736373 -0.004200524 0.11167379 0.14082499 0.109879345 0.09157483 -0.11759423
0.0706097 -0.092298225 -0.03595167 -0.06838134 0.0066254535 0.025824446 -0.009834235 0.09002586

actor.weight f4 [4, 64]
00000000: df67 c93d b5a4 8d3d 3fc2 a5bd d20e 9c3d
00000010: 9564 bf3d b88c c93d 4b4f f03c dbd2 e93d
00000020: fa66 d93c d364 01bd 165f 793d 56b5 823d
00000030: 84de b4bd 9316 623c b78c 4c3d a37a 893c
00000040: ebb1 bbbc 3bd1 98bd a2fc 00bd c460 873d
00000050: c9c4 e3bc 51bc c6bd 1537 193d 80af 123c
00000060: a22e 1bbd 71b0 da3d 2f46 883c 54cb a1bd
00000070: f45c 98bd c349 823a 4e2f 3ebb 708a a1bc
00000080: a29e cdbd abf5 79bd eb5f 833d b100 20bd
00000090: 5008 8b3d 78c7 a43d 525a bebd 0594 dfbc
000000a0: a265 363d 850b e6bd 6bf1 e53d 1c32 f93d
000000b0: 416f d83d e6d7 ddbd fe16 7abd 6462 7b3d
000000c0: ff7c ecbc aec7 fbbc 9fe3 a7bd 8e5c 0c3e
000000d0: 91a8 a23d e601 813d e452 743d 859c 7a3d
000000e0: 6b49 c5bd 4892 1a3d 1349 51bb 2d06 61bd
000000f0: 0116 aa3c 01ac 26bc 68dd 0f3d 10d6 0d3c
00000100: f185 e2bd 092a e0bb c1b5 ac3d ccc3 46bd
00000110: 14ef 2cbd f7f5 fdbc 287a dc3d 81e4 5abd
00000120: 37a5 8abd 7500 c2bc 621f 6c3c 2d7d c83d
00000130: f0d7 9dbd d853 ed3d 78d2 c93d ec7b 663d
00000140: 206f 663d 1226 91bd df6d 043d 2284 ca3d
00000150: 4b01 943d 9133 7bbd e1ac 013e 26c8 0abd
00000160: 4ed8 3e3d 25e6 6abd da40 64b9 5693 a63d
00000170: ec13 d23b 272f f1bc 256d f538 bb2b f93d
00000180: 7145 0bbd 160c a5bd 1339 a1bd 75fc e5bd
00000190: ba1f 913d 6c0e 293d 20aa e5bd b8ab 76bd
000001a0: 583b 5fbc dfab 31bd 101f 09be 2cb9 46bd
000001b0: 74b3 bb3d bb02 2e3d 3078 5e3d e7a1 cdbd
000001c0: a710 debb 322f b0bb 002f 92bd 2978 51bd
000001d0: c999 963d ce1d d3bd 58db 9e3d 41a4 afbd
000001e0: f379 bfbd 27d5 4b3d f035 74bd 62fc a93d
000001f0: 5409 f33d bb2d 9bbd d11e 7a3c a8e0 e93d
00000200: f638 653d 852a 92bc 82bc a1bd e933 c63c
00000210: dcb3 0e3d 6804 b0bd aeca 523d 807f 9d3d
00000220: dba6 d3bd c9fd 9abd 730e 03bd 8fab cabd
00000230: d512 8ebd 6725 2abd 0dfa 8fbb 5abf b73d
00000240: d343 edbd f0b2 81bc ea65 b7bd 9655 f03d
00000250: 0bcf e7bc 676b 9b3b 7fca fabc 3b32 033c
00000260: 333f c7bd 66fe df3d 46bf 9c3c cc83 ab3d
00000270: 2a06 69bd 91d0 4f3c 61d7 8e3d 6231 dfbd
00000280: e751 fa3a 4cc9 9cbd 95bf b73c 5128 cf3d
00000290: 090d da3d f169 e4bd 7abd f33d f17e 5b3d
000002a0: a623 54bd aa9f f03d 4bf6 92bd 042a df3d
000002b0: 6cf6 203d 8cca acbc 4a89 a33d f973 d53d
000002c0: df2c df3c 0765 92bd b8cf 783d 9965 56bd
000002d0: 0509 12bd 63a2 a83d ec41 2c3d 8267 b8bb
000002e0: d401 d03d 475d dbbd fe58 d7bd 2111 ba3d
000002f0: ac2e 4bbd 8949 c43c f34c e63d 94b3 253d
00000300: 5267 c03b f88e 453b 33ca 80bc 77fa f63b
00000310: df59 bb3d 9b9b 26bd 6ebc c1bd bb41 18bc
00000320: b309 bebd 3def 0fbb b7ec 0f3d 7fdf 943d
00000330: f991 ec3d 2e49 883c 40f7 d23d a7d4 273d
00000340: d4fb 6cbd f691 643d 4042 ac3d b77b e0bc
00000350: 36b4 e23c 2e8d 973d 9955 d53d 4cb6 c23d
00000360: b441 ce3d 43bc ac3d 8a07 b4bd 8e2b 3d3c
00000370: ec66 c2bd 4bb6 0dbb 4dd7 1dbd 9289 303d
00000380: 0730 cfbc 760f 4a3d 81f2 7a3d d810 8bbb
00000390: 9c78 ad3d d63e dbbd c83b 93bd e04c 89bd
000003a0: 0f06 babc a45b 853d 4fab b7bd 4bc4 973d
000003b0: 0856 d43c e07f 34bd a2d0 c4bd afbd 2f3d
000003c0: 0bf0 4bbd 32c2 0e3d f5ea 773a 5324 e5bd
000003d0: 9207 a2bd 3b8f b13d 6bae 4cbd 23cd 983d
000003e0: b296 ef3d ad25 d23b 26c0 063e 679c c2bc
000003f0: 7948 8b3d 6d7e 4cbd 962a 3d3d 5fe3 ac3d
0.09834265 0.06916181 -0.0809369 0.07620014 0.093453564 0.09841293 0.029334685 0.114171706
0.02653836 -0.031590294 0.060881697 0.06382243 -0.08831504 0.013799327 0.049938884 0.01678211
-0.022911986 -0.074617825 -0.03149093 0.066102535 -0.027803795 -0.09703887 0.037406046 0.008952975
-0.03788627 0.10678185 0.016635029 -0.0790011 -0.074396044 0.0009940196 -0.0029019895 -0.019719332
-0.100400224 -0.061025303 0.06414779 -0.03906316 0.06788695 0.08045858 -0.09294571 -0.02729226
0.04453052 -0.11232666 0.112276874 0.12167761 0.10568095 -0.10832195 -0.061057083 0.06137313
-0.028868197 -0.030734863 -0.08197712 0.13707182 0.07942308 0.0629919 0.059649363 0.061184425
-0.09633144 0.03773716 -0.0031934425 -0.05493753 0.020762445 -0.010172845 0.03512326 0.0086569935
-0.110607035 -0.0068409485 0.08433104 -0.04852657 -0.04222019 -0.031001074 0.10765487 -0.053440575
-0.067697935 -0.023681859 0.014411779 0.097895004 -0.077072024 0.115882576 0.09854597 0.056270525
0.05625832 -0.070873395 0.032331344 0.098884836 0.07226809 -0.061328474 0.12663604 -0.033882283
0.046593003 -0.05734839 -0.00021767934 0.08133571 0.0064110663 -0.02944143 0.0001170284 0.12166544
-0.03400177 -0.08058946 -0.07872214 -0.11229793 0.070861295 0.04127352 -0.112140894 -0.060222358
-0.0136249885 -0.0433768 -0.13390756 -0.048516437 0.09165087 0.042483073 0.05431384 -0.10040646
-0.0067768875 -0.00537672 -0.07137871 -0.051139984 0.07353551 -0.10308419 0.0775668 -0.08576251
-0.09349432 0.049763825 -0.05962175 0.08300091 0.118670136 -0.07577082 0.015266136 0.11419803
0.055962525 -0.01784254 -0.07897283 0.024194675 0.034839496 -0.085945904 0.05146282 0.07690334
-0.103345595 -0.07567937 -0.0319962 -0.098960035 -0.06937186 -0.041539576 -0.004393822 0.08972044
-0.11585202 -0.015832394 -0.089549854 0.11735074 -0.028296968 0.004743028 -0.030614136 0.008007581
-0.09728851 0.109371945 0.019134175 0.08374748 -0.056890644 0.012684003 0.06974674 -0.10898091
0.0019097895 -0.07655582 0.02243022 0.101151116 0.106470175 -0.11153019 0.11901374 0.053587858
-0.05179181 0.117492035 -0.07175883 0.10896686 0.039297506 -0.021092676 0.0798517 0.10422511
0.027243076 -0.07148176 0.06074497 -0.052342985 -0.035653133 0.08234098 0.042055055 -0.0056275735
0.10156599 -0.107111506 -0.10515021 0.09085298 -0.049605057 0.023960846 0.11245146 0.040454462
0.0058716917 0.003014503 -0.015721416 0.007537182 0.09148001 -0.04067574 -0.09459768 -0.009293015
-0.09279194 -0.0021962665 0.03513786 0.07269191 0.115512796 0.016636457 0.103010654 0.040974285
-0.05785735 0.05580326 0.08411074 -0.027402742 0.027673822 0.07399975 0.10416717 0.095074266
0.100711256 0.084343456 -0.087905005 0.011546029 -0.09492287 -0.0021623548 -0.038535405 0.043099947
-0.025291456 0.04933115 0.061266426 -0.0042439513 0.0847027 -0.107053444 -0.07189137 -0.06704116
-0.022707967 0.0651162 -0.089682214 0.07410487 0.02591993 -0.044067264 -0.09610106 0.042905506
-0.04978947 0.034853168 0.00094573136 -0.11188569 -0.079116 0.08669897 -0.049971025 0.07461002
0.11698665 0.0064131827 0.13159236 -0.02375622 0.068009324 -0.049925257 0.04618319 0.08441805

actor.bias f4 [4]
00000000: e6db bebd e989 c13d 531f ef3d e82b 13bc
-0.09319286 0.094501324 0.116758965 -0.008982636

critic.weight f4 [1, 64]
00000000: 50b7 483b 8967 80bd 2cd4 34bc 7d7a e0bd
00000010: 5f13 583d bc3f 26bd 5633 d5bd ce06 e8bd
00000020: 7745 88bb f3a1 9b3d 089d 86bd ad51 c63d
00000030: 5b4f 933d 0036 05be b84f 9cbd 6969 d53d
00000040: 3265 ac3d da67 883d 1ef3 943d f9b4 9ebb
00000050: 2ec7 5b3d 89d9 613d 2e1a afbc 0e4e f93c
00000060: c728 0d3c 1756 d2bc 5ed0 f7bd 5736 88bd
00000070: 9f72 483c 6180 f1bd 1f69 f9bd b28f b7bb
00000080: 78bd 0c3e edd6 f0bc 7118 9ebd 6c5b 6dbd
00000090: 6528 023e 5cd2 c6bb 7896 cbbd 3dea 67bd
000000a0: a059 353d 6785 38bd 4157 fdbd f30a d13d
000000b0: 963d a23d 146f 27bd ec4b e8bd 7778 cabd
000000c0: 3a89 a73d d3db 7dbd 57a5 ed3d 91e2 f33d
000000d0: 00b3 a83d 483a a53d 70cd 853d cf06 27bd
000000e0: 032a 9c3d f6b0 93bd e0dc bdbd c14f aa3d
000000f0: ccad aebd 9722 963d ec34 41bc d319 ad3d
0.003062684 -0.06269748 -0.011036914 -0.10960863 0.05275285 -0.040588126 -0.10410182 -0.11329423
-0.0041586715 0.07599249 -0.0657292 0.09683547 0.0719287 -0.1300888 -0.07632393 0.10420496
0.08417739 0.06660433 0.072729334 -0.004843351 0.05365675 0.0551391 -0.021374788 0.030432727
0.008615679 -0.025675816 -0.1210029 -0.066509895 0.012234359 -0.117920645 -0.121782534 -0.0056018466
0.13744152 -0.02939936 -0.077195056 -0.057948515 0.12710722 -0.0060675573 -0.09940809 -0.05661987
0.044274926 -0.045049097 -0.12370158 0.102071665 0.07921903 -0.040877417 -0.11342606 -0.09886258
0.08180471 -0.06197722 0.11603802 0.119084485 0.082372665 0.08067757 0.06533325 -0.040777978
0.076252006 -0.07211487 -0.09270644 0.08315993 -0.08529243 0.07330816 -0.011792403 0.08452191
