archived/ppo_2048_500.pth (torch, 449877 bytes, 9 tensors)

network.0.weight f4 [256, 272]
000000 0e 6c 2b 3d a6 ec d0 3c 30 c3 43 3d 58 e6 60 3c
       0.041851096 0.025503468 0.047793567 0.013726793
000010 1f 2d 27 3d 48 8f ed 3c 04 50 77 3c 4d 11 01 bd
       0.040814515 0.028998986 0.015094761 -0.03151064
000020 9a 08 21 3d 73 10 ec bc 45 fb 51 3d 1d 34 d0 3c
       0.039314844 -0.028816437 0.05126502 0.025415475
000030 f7 77 13 3d ba ff 46 3d 2c c9 fc 3c 51 8d bc bb
       0.03600308 0.048583724 0.030857645 -0.005754151
000040 29 75 52 bd 21 6a ae 3c 59 44 78 3d e0 a7 bf bc
       -0.051381264 0.02129084 0.060612056 -0.023395479
000050 02 63 d1 3c 0a 4e 3a 3d 3e 6f 92 bb 37 0a 3b bd
       0.025559906 0.04548458 -0.0044688275 -0.04566404
000060 eb 85 1e bd 93 cb 54 3c b2 69 7f bc be 41 f5 3c
       -0.038701933 0.012987989 -0.015589165 0.029938575
000070 77 32 b6 3c 9b 76 eb 3c 8d e9 7c 3c a7 89 6b 3d
       0.02224086 0.028743079 0.015436542 0.057504322
000080 92 27 e7 3c b9 19 2a bc 8e 60 51 bd e3 5c 07 3d
       0.02821711 -0.010382109 -0.051117472 0.033047568
000090 d7 3a df ba 7f c7 f0 3a 93 00 d0 bc 4f a5 25 3d
       -0.0017031085 0.0018370001 -0.025390899 0.040440854
0000a0 bb ce 2c bc 76 c1 39 bc 75 79 4c 3d f5 ab 6b 3d
       -0.010547335 -0.011337629 0.049920518 0.057537038
0000b0 a7 4b 0a bb 6f df d0 3c 32 72 1c bd 31 71 49 bd
       -0.0021102221 0.025497166 -0.038194843 -0.049180213
0000c0 3d ba 38 3d d9 f1 13 3d f2 8c 26 bd 0e ff 74 bd
       0.045099486 0.036119316 -0.04066176 -0.05981355
0000d0 8c f6 75 3d e0 12 92 bb 72 6b 40 bb f1 87 44 3c
       0.06004958 -0.0044578165 -0.0029360917 0.011995302
0000e0 c5 1d 21 3d e9 7a 1b 3d 00 85 f9 bb 36 45 1e 3d
       0.03933503 0.037959013 -0.007614732 0.038640223
0000f0 5d e9 3b 3b 99 19 93 3c 41 17 e4 3c 08 79 77 3c
       0.002867303 0.017956542 0.02784312 0.01510454
000100 7c 57 44 3d db 8f 60 3d d2 93 ee 3c d1 54 5d 3d
       0.047934994 0.05482469 0.02912322 0.054035965
000110 32 30 39 bd 02 01 d4 bc 69 3b f8 bc 65 5f 3e bc
       -0.04521198 -0.025879387 -0.030301766 -0.0116194235
000120 d8 fe aa bb c0 3b 6c bc fb 5b fc bc b5 12 75 bc
       -0.005218368 -0.014418542 -0.030805578 -0.014958073
000130 21 29 3e 3d ee 5c 43 3d c8 b8 11 3d be f3 7b bc
       0.046425942 0.047696047 0.03557661 -0.015377937
000140 87 d9 1f 3d 69 6b 14 bd 0f ff 02 bd 8c 97 e6 3c
       0.03902581 -0.036235247 -0.031981524 0.028148435
000150 fa 39 d1 bc a8 2d 19 3c e3 75 5a 3c eb 09 7b 3d
       -0.02554034 0.009349264 0.01333377 0.061288755
000160 05 4e 84 bb 91 71 55 bd e1 71 cc 3c 30 39 9b bb
       -0.004037621 -0.05211026 0.024956645 -0.004737042
000170 30 8b 59 3c 5b 12 1b 3c 0f 39 4b 3d 06 d4 13 3d
       0.013277814 0.0094648255 0.049614962 0.036090873
000180 9a 92 4c bd 6b 7b f5 3c 43 39 5a 3c ce 5f 3a bd
       -0.049944498 0.029966077 0.013319316 -0.045501523
000190 5e ae 18 3d e3 78 d4 3c e2 72 94 bd c7 b2 21 bc
       0.037275665 0.02593655 -0.07248475 -0.009869284
0001a0 15 32 e0 bc e8 aa 4f 3d 87 56 1b bd 07 96 9a 3c
       -0.027367631 0.0507001 -0.037924316 0.018870367
0001b0 ab 4e 8b 3c fc 9c d9 3c 70 13 0c bd 2d b9 3b 3d
       0.017005285 0.026564114 -0.034198225 0.045830894
0001c0 e0 98 08 3c b0 84 50 bd 85 65 63 bd a4 81 56 3c
       0.0083372295 -0.05090779 -0.05551674 0.013092432
0001d0 e4 b7 ec 3c 7c e9 dc 3c 15 73 4a 3d 85 fb 20 3b
       0.02889628 0.026966803 0.049426157 0.002456398
0001e0 b3 13 c0 bb 5e 59 8e bc 7b b2 44 3d f8 fd 4b bd
       -0.0058617233 -0.017376598 0.048021775 -0.04980275
0001f0 98 8c 22 bd 62 45 8d 3d 9a 64 53 bc 06 f1 8a 3d
       -0.039684862 0.06897999 -0.012902403 0.06784253
000200 96 0f 44 bd 2f 72 36 3d 01 ad 35 3d 62 90 5c 3c
       -0.047866426 0.044542488 0.044354443 0.013462158
000210 f6 87 37 3d c2 c6 05 bc 7e 60 22 3d 35 36 a2 bc
       0.044807397 -0.008165063 0.039642803 -0.019801239
000220 d9 d8 67 bd 3e 4f 05 bd c7 28 44 bd ff 26 55 bc
       -0.056603286 -0.032546274 -0.04789045 -0.013009786
000230 c9 d4 7d 3d a0 6f af 3c 7a e0 00 bb 54 bc a3 3c
       0.061970506 0.021415532 -0.0019665048 0.019987263
000240 60 4c 21 3d 8f db 36 3b ed ae d9 39 40 a2 30 3d
       0.039379478 0.0027901863 0.00041519795 0.043123484
000250 79 c1 c2 3c fb f2 48 3d cf 6b 4f bd 4d af 49 3d
       0.023773896 0.04905985 -0.050639924 0.049239445
000260 c1 0d 29 bd 6d ab d0 bb 55 ef f8 bc aa 15 b4 3b
       -0.041272882 -0.006368092 -0.03038756 0.0054957466
000270 fe 0d 69 3d 6b 5a f1 3b d2 7d 8f 3d de 2d 27 3c
       0.05689811 0.007365515 0.0700642 0.010203807
000280 a1 be 13 bd 67 18 8d 3d b5 42 4d 3d cd dd db bc
       -0.03607047 0.0688942 0.050112445 -0.026839161
000290 cc 62 e2 bc 87 31 76 bd eb a4 06 bc 5f 80 9f 3c
       -0.027635 -0.060105827 -0.00821803 0.019470392
0002a0 36 15 6d 3d d2 70 a7 3c 1b 16 59 bd 7e 17 c5 3c
       0.057881556 0.02043954 -0.052999597 0.024059054
0002b0 ac 8b 09 bd 01 cb 67 3d 99 1a c6 3c 93 54 4f bc
       -0.033580467 0.056590084 0.024182605 -0.012654441
0002c0 f7 f1 46 3c da f0 00 3c f2 04 42 bd 13 dd a5 bc
       0.01214265 0.0078699235 -0.047367997 -0.020247018
0002d0 97 7c 49 3d c6 f4 5d 3d e6 8e 20 3d 1f c8 10 3d
       0.049191084 0.054188512 0.03919878 0.0353471
0002e0 16 7a d0 bc a0 0d 25 3d 24 1a 50 bd 93 38 c6 bc
       -0.02544884 0.040296197 -0.05080618 -0.024196899
0002f0 fd 8f 9a bb 85 f3 cd 3c 2d 26 f7 3b 72 de 9c 3b
       -0.004716872 0.025140533 0.0075423927 0.0047872597
000300 98 66 b5 3b 30 4c 6d 3c 12 17 29 3d 87 5d 6d 3d
       0.005535912 0.014483497 0.041281767 0.057950523
000310 df c2 72 bd 3a ee ab 3c c3 d6 6e bd 15 a4 a0 bc
       -0.059267875 0.020987619 -0.05831028 -0.01960949
000320 fb 2d 25 bd 42 26 48 3d 1a 8f 77 3d 40 0c 6c bd
       -0.040327054 0.04886461 0.060439207 -0.05762887
000330 f4 04 a0 bc 73 3b 13 bd ea f7 20 bc 82 53 83 3d
       -0.019533612 -0.035945367 -0.009824732 0.06412412
000340 b0 ca 61 3d 26 b9 d3 bb f2 c8 81 3d cf 9b 44 3c
       0.05512494 -0.0064612804 0.063371554 0.012000038
000350 60 7f 85 3c 65 79 ad 3c f2 a5 46 3d 93 16 38 3d
       0.016296089 0.02117605 0.0484981 0.044943403
000360 3a b7 56 bd 71 94 1b 3d 12 5a a6 3c 76 ec 88 3c
       -0.052420832 0.03798336 0.02030662 0.016714316
000370 32 c0 3a bc ee a2 eb bc f2 fb e5 3c ac 45 39 3c
       -0.011398362 -0.028764214 0.028074238 0.011308115
000380 e1 00 99 bc c0 0f 40 ba 2a 9c 2e bd d8 5e 26 3d
       -0.018677177 -0.00073265657 -0.0426294 0.040617794
000390 09 31 f2 3c 76 78 62 3d a1 d2 4b 3c e4 37 24 bd
       0.029564397 0.05529066 0.012440355 -0.040092364
0003a0 8b 12 72 3d e7 75 77 3d f2 06 46 bc bd ee c1 bb
       0.059099715 0.060415175 -0.012086617 -0.0059183524
0003b0 c3 92 c0 bc 79 5c 16 bd eb 79 cd bb ba 9f 2c 3d
       -0.023507481 -0.036709283 -0.0062706373 0.042144515
0003c0 c6 e4 b7 bc 54 19 81 3c e7 ed 46 bd 67 2b c2 bb
       -0.022447955 0.015759148 -0.048566725 -0.005925584
0003d0 f7 8b 1d bb 16 81 04 bc 5a f7 97 bb 53 27 1b bd
       -0.0024039724 -0.008087417 -0.004637641 -0.0378793
0003e0 34 ed 42 bd 11 e0 0f 3c b1 cf e3 bc ce 80 5b 3c
       -0.047589496 0.008781449 -0.027808996 0.013397409
0003f0 2a ad 32 bd 68 23 38 bd 89 02 d7 3c 7e 6e c6 3b
       -0.043622173 -0.04495564 0.026246326 0.006055652

network.0.bias f4 [256]
000000 5c 3d 8d 3d 08 2f 9f 3a 05 48 8f 3d f3 de a8 bb
       0.06896469 0.0012144754 0.069961585 -0.0051535307
000010 c1 18 79 3d ce b8 a2 3c c3 2c 67 bd 29 d8 2a 3d
       0.060814623 0.019863512 -0.056439172 0.041710053
000020 a8 e6 cc bb d0 33 fa bc 42 29 3f 3d 01 48 51 bd
       -0.0062530823 -0.030542284 0.046670206 -0.05109406
000030 f1 b0 ed 3b 04 7f 2e b9 c5 1a 8b 3d c7 e6 4a 3d
       0.007253759 -0.0001664125 0.06792215 0.049536493
000040 42 cd 07 3b c2 18 0c bc 7a ba 20 bd ae 14 09 3d
       0.0020721708 -0.008550825 -0.039240338 0.033466987
000050 0c c2 1a 3d bd 75 1b bc ce 00 70 3d e5 1d 21 3d
       0.037782714 -0.00948852 0.058594517 0.03933515
000060 88 c5 79 bc 48 fd 8b 3c 7a 38 bb 3b d9 94 ec 3c
       -0.015244849 0.017088547 0.0057135196 0.02887957
000070 bb 42 b1 3c 8d 4c df 3c 75 60 a8 3c 09 38 71 3d
       0.021638265 0.027258182 0.020553807 0.05889133
000080 5b 03 4b 3b fd 6b df bc e6 48 af bc 5e 38 60 3c
       0.0030977342 -0.027273173 -0.021397065 0.013685314
000090 41 45 e6 3b 37 80 04 3d b4 21 3a bd 8e de 2c bd
       0.0070272987 0.032348838 -0.045442298 -0.042204432
0000a0 63 97 77 bc 18 8c c0 bb 99 97 47 3d 13 78 55 3d
       -0.015111777 -0.0058760755 0.04872856 0.052116465
0000b0 ee 8b a7 3c 86 05 93 3d c0 c6 31 bc 77 c7 b9 3c
       0.020452466 0.07178788 -0.010850608 0.02267812
0000c0 db 0a ae 3c e6 47 4f 3b 9d c0 51 3d 6b 6a 51 3d
       0.02124541 0.0031628548 0.05120908 0.05112688
0000d0 85 b7 dc bc f6 49 03 3d 3b 4f 40 3d 02 dd 4a 3d
       -0.026942978 0.032052957 0.04695056 0.049527176
0000e0 f4 a8 38 bd ea db 13 3d a8 33 b0 bc f6 54 2e bd
       -0.045083 0.0360984 -0.021509007 -0.042561494
0000f0 05 c1 de 3c 5a 12 8d 3d 69 fb 71 3c 44 a5 3b bd
       0.027191648 0.06888266 0.0147694135 -0.045811906
000100 23 64 3d 3d c9 9a 9c bc 22 f0 73 3d 27 04 95 bb
       0.046238076 -0.019116776 0.05955518 -0.004547614
000110 52 2f 50 bd 04 06 1d 3d e8 d2 a7 bc 94 ca c6 3c
       -0.05082638 0.038335815 -0.02048631 0.024266519
000120 aa d1 2e 3d 0e e6 7a 3c e3 5e 04 3d e9 37 8b 3c
       0.04268042 0.015313638 0.032317054 0.016994433
000130 85 2a 34 bb 2e 49 2e 3d ff 4c 80 b8 38 e8 9e 3c
       -0.0027491164 0.04255026 -6.117857e-05 0.01939784
000140 27 ad fd bc 6e 81 90 bc a7 14 a7 3c 53 ca de 3c
       -0.030966355 -0.017639842 0.02039559 0.027196085
000150 e7 ea 74 3b 01 a6 93 bc 30 b1 0d bd bd 43 13 bd
       0.0037371458 -0.018023493 -0.034592807 -0.035953272
000160 8f 38 51 3d a1 1e 12 3d 07 b6 06 3b e6 f7 74 bc
       0.05107933 0.03567374 0.0020555274 -0.014951682
000170 77 12 2c 3d e5 cb e4 3b 7b ff 94 bc 23 13 57 bd
       0.042009797 0.006982314 -0.018188229 -0.052508485
000180 dd ff 24 3d dd 0f 36 bd d6 f2 8a 3d ae ac 16 3d
       0.040283073 -0.044448722 0.067845985 0.036785774
000190 37 4d 5e bd ff 44 d3 3b dd 9c 09 3c be 69 1d 38
       -0.054272857 0.006447434 0.0083992155 3.7530197e-05
0001a0 2d ac d8 3c e2 79 12 3c a2 e1 d1 3b 3f 36 11 3c
       0.026449287 0.008940192 0.0064050714 0.008863031
0001b0 b4 72 2f bd a2 31 7f 3d 96 be 8e 3d f2 60 51 3c
       -0.042834 0.062303193 0.06969945 0.012779461
0001c0 04 18 3d 3c cb cf 54 3d 71 5a eb 3c af 12 85 3c
       0.01154137 0.05195598 0.02872965 0.01624426
0001d0 a5 72 d6 3c 46 e2 8e bb 6a f1 20 bd 60 c5 33 bd
       0.026177714 -0.00436047 -0.03929273 -0.043889403
0001e0 06 cc e5 3c aa b7 6f bd 8d d0 b8 3c b5 54 cc 3c
       0.028051388 -0.058524765 0.022560382 0.024942735
0001f0 41 12 8e 3c 1b db ab 3c 26 da 2d 3c 1f df 30 3d
       0.017342689 0.020978501 0.010611093 0.043181535
000200 35 15 38 3d 1f 72 a2 bc 81 d8 80 3d a0 8d 83 bc
       0.0449421 -0.019829808 0.06291295 -0.016058743
000210 6e c1 42 3d e3 e1 d0 bc d8 c0 0d bd 9c bb 69 3d
       0.04754775 -0.025498336 -0.03460774 0.057063684
000220 51 1b a8 3c 59 6c 63 3d 25 3d 1d bc ab 2f 09 bd
       0.020520838 0.05552325 -0.0095970975 -0.033492725
000230 34 29 3e 3c 67 90 2e 3c ff 10 90 3c 93 a0 6a 3d
       0.011606503 0.010654545 0.01758623 0.05728204
000240 47 8c 04 3d 8f d5 4c 3d 25 99 93 3c 46 66 3c bb
       0.03236034 0.050008353 0.018017361 -0.0028747483
000250 a0 41 2d 3d 57 6c 3b 3d ff 8c 7b 3c 57 f2 a0 3c
       0.042298913 0.045757618 0.01535344 0.019646807
000260 af 4c 6b 3b a1 41 cb 3a ed e1 0c bd 3d ab 6f bd
       0.0035903861 0.001550723 -0.034395147 -0.058512915
000270 7f 43 35 bd b7 c9 9b bc c8 47 8a 3d 0f db 41 3d
       -0.044253822 -0.019017084 0.067519724 0.04732805
000280 93 cf 49 3d 6d 20 b8 bc 0f 5b 00 bd be 7c 1f bd
       0.049270224 -0.0224764 -0.03133684 -0.038937323
000290 7e 52 4f 3c 0b 79 16 bd cf bc 60 bd 46 10 0b bd
       0.012653945 -0.03673653 -0.054867562 -0.033951066
0002a0 3c 69 b8 3c 42 49 1a bd 89 29 6f bc 17 b1 bf bc
       0.022511117 -0.03766752 -0.014597305 -0.023399873
0002b0 d4 ab 02 3c 45 7d c7 3c 10 cc 15 bd b1 9e 20 bd
       0.007975537 0.024351725 -0.036571562 -0.03921384
0002c0 7b cb 9e 3c e5 bb fd bc 73 32 06 3d 80 60 47 bd
       0.019384136 -0.030973384 0.032762956 -0.048676014
0002d0 89 bb 04 bc c9 e1 61 3d 81 32 56 3d 73 73 b4 bc
       -0.0081013525 0.055146966 0.052294258 -0.022027707
0002e0 aa 94 92 3d 8f ae 16 3d d9 41 bf 3c 45 27 e3 3c
       0.07157262 0.036787566 0.023346828 0.027728686
0002f0 50 a2 39 3d ba 39 fe bc 35 b8 23 bb ef a5 58 3d
       0.04532081 -0.031033386 -0.0024981622 0.05289262
000300 54 3f c1 3c 13 b2 01 3d a0 71 a6 3c 14 be 56 3d
       0.023589768 0.031663965 0.020317852 0.052427366
000310 8b 02 0b bd 98 d5 ce 3c 32 a9 5e 3d fc ef cd 3c
       -0.033937972 0.025248334 0.054360576 0.025138848
000320 fb 88 02 3d b9 ad 71 3d 4a 46 94 3c 05 b9 0f bd
       0.031868916 0.059003565 0.018099923 -0.035088558
000330 e2 40 4c 3d 49 15 df 3c cd f9 03 3d a7 f4 56 bd
       0.049866565 0.02723183 0.03222065 -0.052479412
000340 71 ab 55 3d 2f fa e7 ba c1 6a e0 bc d9 3c 92 3b
       0.052165452 -0.0017698462 -0.027394654 0.00446282
000350 32 cf 80 3d 98 04 e9 3c 0a c3 8d bc 63 67 70 3c
       0.06289519 0.028444573 -0.017304916 0.014673087
000360 71 d0 03 bd 1d 98 1f 3d 88 4f 28 3d 3c b6 9e 3c
       -0.032181207 0.038963426 0.041091472 0.019374005
000370 fc 27 6b bc 59 0e 19 3d 5b 7f 3e bb 3e bd c6 3c
       -0.014352795 0.0373672 -0.002906761 0.02426016
000380 5a 30 cc bc a3 0f 42 3b 57 64 47 3c 67 f9 b1 bc
       -0.0249254 0.002961137 0.012169919 -0.02172537
000390 04 a9 86 3d 4d c2 61 3d 8a 98 9a bc 6b ef 7f 3d
       0.06575206 0.05511694 -0.018871564 0.062484186
0003a0 97 01 53 bc b6 2e 2f bd d6 03 77 bc ed 37 da bb
       -0.012878797 -0.042769156 -0.015076598 -0.006659499
0003b0 7c b0 a5 bc fa 92 31 3c ff e8 60 3c b9 e5 9c 3c
       -0.020225756 0.010838265 0.013727426 0.019152509
0003c0 e8 f2 30 bd b0 cf fb b9 f9 dd 92 3d b2 ca 13 3d
       -0.043200403 -0.0004802919 0.07171244 0.036081977
0003d0 49 7f a7 3c 29 c3 7f 3c 49 36 00 3d 1f 64 f6 3c
       0.020446436 0.015610495 0.03130177 0.030077038
0003e0 2e 8b 03 bd 2d 80 bf 3c 74 99 1a bd 7a 35 7a bc
       -0.032115154 0.023376549 -0.037744 -0.015271539
0003f0 7d 7d 24 3d dd 95 16 3b 57 f7 e0 ba dc c1 3d bc
       0.040158737 0.002297751 -0.0017163557 -0.011581864

network.2.weight f4 [128, 256]
000000 cf a7 37 3d 44 65 54 bc a5 63 2a bd 9a 46 b9 bc
       0.04483777 -0.012963597 -0.041598935 -0.022616673
000010 39 58 61 3d fb 2a 89 bd 7b af 24 3d 79 ac 5e 3c
       0.055015776 -0.06697651 0.040206414 0.013590925
000020 09 0b 35 3d 1b 85 88 3d 07 14 0e bd b5 de 2a bd
       0.044199977 0.06666013 -0.03468707 -0.041716296
000030 0f bf 3b bd 1d 6c 09 3d 50 cb c5 bc fe 94 6a 3d
       -0.045836505 0.03355037 -0.024144799 0.057270996
000040 7c fa 3a 3d 54 72 ad bc 52 78 3d 3c 4b d2 81 3d
       0.045649037 -0.02117268 0.011564331 0.06338938
000050 15 3f 7d 3d 58 a9 d3 3c 57 b8 b8 bc 43 ac 05 bd
       0.061827738 0.025837585 -0.022548838 -0.032634985
000060 80 57 eb bc 94 86 55 bd d1 95 47 3d 7a e5 f8 3a
       -0.028728247 -0.052130297 0.04872686 0.0018989288
000070 ae ce 47 3c b1 b5 3b 3d 1c 54 11 bc 30 82 ac 3a
       0.012195272 0.04582757 -0.008870151 0.0013161357
000080 48 bb e2 bc 11 28 41 bb f6 30 4b bc 27 bb 09 3d
       -0.027677193 -0.0029473344 -0.01240181 0.033625748
000090 d7 42 36 3d f6 1c 56 bd f9 d6 41 3b 0c 26 38 3d
       0.044497337 -0.052273713 0.0029577597 0.04495816
0000a0 26 07 12 bd 7a 78 f0 3c 31 d4 4f 3d 68 51 f7 3c
       -0.03565135 0.029354323 0.05073947 0.030190185
0000b0 e4 c6 24 3d 8d 3d 3f bd 4c e1 42 3d 92 9a 6e 3d
       0.04022874 -0.04668956 0.04757814 0.05825288
0000c0 7d 97 5a 3d eb da 39 bd c8 1a 05 3c 74 fa 69 3d
       0.053367127 -0.045374792 0.008124061 0.057123616
0000d0 b5 cf 12 bc 8c d1 2f 3d 71 41 43 3d bd d3 62 bd
       -0.008960654 0.04292445 0.04766983 -0.05537771
0000e0 a7 63 88 3d 5c fc 3f 3d 8e 3f 24 bd 32 ad 52 bc
       0.06659632 0.046871528 -0.040099673 -0.012858676
0000f0 5e 66 a7 3c 16 cd 2f bd 2a a8 c3 3b ae 94 88 3c
       0.020434555 -0.042920195 0.0059709745 0.016672458
000100 48 b7 2b bd 61 66 18 3d 13 bf 82 bb 4b 1f 6d bc
       -0.041922837 0.03720701 -0.003990063 -0.014472793
000110 4d 5a 04 3d bd bd 5d 3d fd c0 58 3d c0 1c 48 3d
       0.03231268 0.054136027 0.052918423 0.048855543
000120 d4 03 63 3c 2f 71 35 3d 95 4e bf 3c 9c ca 2a bd
       0.013855893 0.044297393 0.0233529 -0.04169713
000130 5f 52 03 bd 8d ee 37 bd ae 2d 1f 3b c6 1d a6 bc
       -0.032060977 -0.044905234 0.0024288702 -0.020277869
000140 20 f3 a3 3c 3f 80 f5 bc e6 b9 7e 3c 39 b1 e5 3c
       0.020013392 -0.029968379 0.015547251 0.028038608
000150 eb 5d 40 3d 05 ff f2 3c 41 d4 4c 3c 29 25 2e 3d
       0.046964567 0.029662618 0.012501777 0.042515907
000160 3d ab 1d 3d da cf 43 bd 90 55 31 3d 1a 2b 72 3d
       0.038493384 -0.047805645 0.04329449 0.059123136
000170 0f 6d 1c 3d 2f 9f 16 3d b7 04 04 3d c3 5a a8 ba
       0.038189944 0.036772903 0.03223106 -0.0012844432
000180 77 9f fc 3c 88 3c 92 bc 2b f6 50 3d f5 81 14 bc
       0.030837758 -0.01785113 0.051016014 -0.009064187
000190 d9 05 43 bd bf 22 0d 3d 0b ce e1 3a 50 87 9b bc
       -0.047613 0.034456965 0.0017227543 -0.01898542
0001a0 8c 59 20 bd ac b3 fe 3c ec 1c 8f 3d fd f7 0e 3d
       -0.0391479 0.031091534 0.06987938 0.03490447
0001b0 16 0a 6c bd e9 bf 28 bd ee bc b4 bc 4b 23 0a bd
       -0.057626806 -0.041198645 -0.022062745 -0.033725064
0001c0 ef a4 2f 3c 8c e1 db 3b d7 6e 13 3c e4 c6 f4 bc
       0.010720476 0.006710237 0.008998594 -0.029879995
0001d0 07 f6 eb bc 65 16 98 3c d0 1d 63 3d 31 79 10 3d
       -0.028803838 0.018565366 0.055448353 0.035271827
0001e0 ff 36 4e 3d 78 1b f4 bc 8f 69 b5 bb 18 d2 1f bd
       0.050345417 -0.029798254 -0.005536265 -0.03901872
0001f0 2b ea ab bc 3a ba 10 bd d8 aa f5 3c 31 70 c9 bc
       -0.020985683 -0.03533385 0.029988691 -0.02458963
000200 e2 0a 1d bd 3e ef e9 bc a8 b0 5e bd 4d 3e 0b bd
       -0.038340457 -0.028556462 -0.05436769 -0.03399496
000210 b2 c7 6b bb c1 67 1a bc ce 11 c8 bc 5d 76 39 3d
       -0.0035977182 -0.009424151 -0.024422552 0.045278896
000220 ee 4b 16 3d a6 e9 db bc dd 09 86 3d ec ab 36 bd
       0.036693506 -0.02684481 0.0654485 -0.04459755
000230 02 f6 26 3d d4 94 28 bd c6 25 2a bb 74 28 32 3c
       0.040761955 -0.04115756 -0.0025962456 0.010873903
000240 6a a4 36 3d 8f 6e e3 bb 86 8f 1e 3c 7d 42 8f 3c
       0.04459039 -0.00694067 0.009677773 0.017487759
000250 33 c2 cb bb 7c 4c 78 3d 03 75 9b 3d 58 f1 74 3d
       -0.0062182187 0.060619816 0.075906776 0.059800476
000260 8e aa cf bc fa 3d 10 bd 01 30 29 3d b0 54 28 3d
       -0.025349882 -0.035215355 0.041305546 0.04109639
000270 b4 f1 8f 3c 70 e2 68 3c 72 4d 2d bd 22 6b 82 3c
       0.017571308 0.014214143 -0.042310186 0.015920226
000280 03 01 30 3d 4a d6 e6 bb 25 7e ea 3c ed 53 25 3d
       0.042969715 -0.007044588 0.028624604 0.04036324
000290 90 6a 98 3d 37 95 0f bd db 9d 49 bd 72 7f 74 bc
       0.074422 -0.03505441 -0.04922281 -0.014922963
0002a0 3f f5 ba 3c 56 01 45 bc 57 c4 34 bd 2d a8 41 3b
       0.02282202 -0.012024244 -0.044132557 0.0029549703
0002b0 87 95 e7 3c f4 5f 6d 3d 85 aa ec bc 64 0f 1f bd
       0.028269542 0.057952836 -0.028889904 -0.038833037
0002c0 35 df 6b 3d 1d 7d 59 3d ba e0 fb 3c 6f ab 94 bd
       0.057585914 0.053097833 0.030746806 -0.07259261
0002d0 b8 5a 0a 3d e1 a6 60 3d 28 9f 3a 3d e9 51 27 bc
       0.033777922 0.054846648 0.04556194 -0.0102124
0002e0 49 5b f7 3b 64 cc b4 bc ba 6c 61 3d fe d2 2a bd
       0.007548724 -0.022070117 0.05503533 -0.041705124
0002f0 cf b8 be 3b 78 05 82 bd 6b 9e 3f bd 67 b2 fa 3c
       0.0058203707 -0.06348699 -0.04678194 0.030602647
000300 4f 71 da bb 74 38 9b 3c a2 83 6a 3d ac af 8a 3d
       -0.0066663395 0.018947817 0.05725444 0.06771788
000310 ca 7a 37 3d af b4 4f ba 7e f8 38 bd 76 1f cd 3c
       0.044794835 -0.00079233473 -0.045158856 0.025039416
000320 e7 c3 3c bd ca ce 0a 3d 57 92 f5 3c 97 9f ea bb
       -0.046085265 0.033888616 0.029977007 -0.007160138
000330 9e b6 3e 3d 72 59 ad 3c dd 9d 64 bd 07 23 0d bd
       0.046560876 0.021160815 -0.055814613 -0.034457233
000340 4a 24 26 3d 01 f0 4e 3d 70 7f 97 3d 1c e4 1c 3c
       0.04056195 0.050521854 0.07397354 0.00957587
000350 bf a8 30 ba d5 91 0e bd 60 f5 15 3c c5 24 48 3c
       -0.00067390123 -0.034807045 0.00915274 0.012215798
000360 bc 74 d7 3c af 1f 9f bc 6d 03 dd bc 7a f6 95 bb
       0.02630078 -0.019424288 -0.026979173 -0.0045765014
000370 43 58 7a 3d c7 e3 6c 3d f4 8e 95 bc a5 ae 6e 3d
       0.06111933 0.057834413 -0.018256642 0.058272023
000380 14 a6 7d 3d 6f 7d 04 bb ba d2 f9 bc fe 01 5c 3d
       0.061925963 -0.0020216366 -0.03049599 0.053712837
000390 e6 b0 ad bc 2a f8 81 3d c2 5c 84 bd 97 ea 51 3d
       -0.021202516 0.06346162 -0.06463005 0.051249113
0003a0 98 67 22 3d 64 fb 17 bc f1 20 83 3d 37 a3 98 bb
       0.039649576 -0.009276245 0.064027674 -0.0046581286
0003b0 12 81 44 bd ce f9 de 3c ec 2a c2 bc 6e 7f 17 3d
       -0.047974654 0.027218726 -0.023702107 0.03698676
0003c0 0b 16 f7 bc fe 62 4e 3c 55 6a b2 bc 03 4d 88 3d
       -0.030161878 0.012596844 -0.021779219 0.06655314
0003d0 78 d0 b6 bc 3e 64 df bc bc de 29 bd 4a 1f 34 bd
       -0.022316203 -0.027269479 -0.04147218 -0.043975152
0003e0 26 a7 bb bc 97 17 4b 3d d1 cf 71 3d b5 90 72 bd
       -0.022906851 0.049583044 0.05903608 -0.059220035
0003f0 cb fb 44 3d 3a d1 34 3d c3 a5 81 bd 69 42 ae 3c
       0.04809169 0.044144846 -0.06330445 0.021271901

network.2.bias f4 [128]
000000 eb d0 26 3d 1c 96 ad 3c 96 83 00 3d 2a 8a 1b bd
       0.040726583 0.021189742 0.03137549 -0.03797356
000010 61 73 9c bc 7b fb 2d 3d 6d 67 11 3c 19 1b 9c 3d
       -0.019097986 0.04247616 0.008874756 0.07622356
000020 bb 60 25 3d 89 9d f0 3c 06 10 f1 bc 62 b0 b1 bc
       0.040375452 0.029371994 -0.029426586 -0.021690551
000030 dd 1a 85 bd 8f 12 8b 3c df b9 6b bd 9f 77 d2 bc
       -0.064992644 0.016976623 -0.057550307 -0.025691805
000040 d2 0a 1b 3c 82 d8 59 bd 79 58 40 bc 48 25 9f 3c
       0.009463029 -0.053184994 -0.0117398435 0.019426957
000050 7f 91 19 bd 4d fe a1 3b 70 fb 67 3d 21 96 e6 3c
       -0.03749227 0.004943645 0.056636274 0.028147759
000060 8d ba 13 3b 0c 68 53 bd 8e a7 82 3d 56 3c 39 3d
       0.0022541613 -0.0516129 0.06379615 0.045223556
000070 9c 99 36 3d b3 6e 10 bd fd 91 48 bb 2c 4f 79 3d
       0.044580087 -0.03526182 -0.0030604594 0.06086652
000080 56 2f c1 3c cf 6d 79 3d 3e 19 c6 bb 50 09 f8 bc
       0.023582142 0.060895737 -0.0060454896 -0.030277878
000090 82 06 2b 3d 88 40 9e 3c f6 26 c0 bc f2 55 5f 3c
       0.041754253 0.01931788 -0.023456078 0.013631331
0000a0 33 b0 ef 3c fc de 2b 3c ac d4 31 ba 1c ec 36 3d
       0.029258823 0.010490175 -0.0006783705 0.044658765
0000b0 c4 50 1b bc e1 f8 f4 3c 11 0d 86 bd d1 95 9a bc
       -0.009479705 0.029903831 -0.06545461 -0.018870266
0000c0 ce 94 16 3c 82 9d 0f bd 12 4d 8e 3d fa 9e 0c bd
       0.009190751 -0.03506232 0.06948294 -0.0343313
0000d0 67 af fe bc 48 44 9c bc c3 0d 40 3d 06 92 03 bd
       -0.031089498 -0.019075528 0.046888124 -0.03212168
0000e0 46 c5 0b 3a db ed 97 bb 8d 8a 1a 3c e2 61 27 bd
       0.0005331825 -0.004636509 0.009432447 -0.040864833
0000f0 f5 b4 2e 3d 5e b9 4a 3d 50 0a 8b bd 49 7c e2 3b
       0.042653043 0.049493186 -0.06789076 0.0069117886
000100 66 be fd bc 41 2a cf bc 41 65 78 bc 42 2a cf 3c
       -0.030974578 -0.025288703 -0.01516086 0.025288705
000110 a6 3b 71 3c ba b0 6c 3c ff 26 96 bc 9b 4f 2e bd
       0.014723694 0.014446432 -0.018329142 -0.042556386
000120 09 05 56 bc 00 f2 e6 3c 04 fe f2 bc eb fd 05 bd
       -0.013062724 0.028191566 -0.02966214 -0.03271286
000130 dd a6 a8 bc f8 70 7b 3b d4 00 98 3c 4d e8 9f 3c
       -0.02058738 0.0038366895 0.018555082 0.01951995
000140 de 4e 2d bd 26 ba 03 bc 1c 46 c4 3c 0c 22 e0 bb
       -0.04231154 -0.008039987 0.023959212 -0.006839996
000150 2e 56 10 bd 51 11 f3 ba b6 6e 1a 3c 14 d4 5c ba
       -0.035238437 -0.0018544589 0.00942581 -0.0008423936
000160 ef 55 29 bd b3 8f 17 3d f0 ff 93 3d fe 50 0a 3d
       -0.04134172 0.037002277 0.072265506 0.033768646
000170 14 2c bd bb 38 ff 3e b9 05 66 42 bd 8b 5d 82 bd
       -0.005773077 -0.00018214888 -0.047460575 -0.06365498
000180 c0 1a 08 bd 65 f5 29 3d d6 6a 22 bc 0d 18 0c bd
       -0.033228636 0.041493792 -0.009913167 -0.034202624
000190 90 97 15 3d 6a 62 3e bb ce f2 ed 3c c3 a2 0a bd
       0.036521494 -0.0029050359 0.029046442 -0.033846628
0001a0 4c 9b 41 3d b4 68 80 3c 46 b1 70 3d 50 d3 2a 3c
       0.047267243 0.015674926 0.05876281 0.010426357
0001b0 18 f6 89 3c 29 9d 60 3c 4e 76 08 bd 2d 16 1f 3d
       0.01684098 0.013709345 -0.03331595 0.038839508
0001c0 d0 04 94 bc 62 04 ee bc c3 6b 21 bd 3e e2 00 3d
       -0.018068701 -0.029054824 -0.03940941 0.03146576
0001d0 a1 64 65 3d 0f e9 38 3d 73 9d fb bc b9 27 64 bd
       0.05600417 0.045144137 -0.030714726 -0.055701945
0001e0 d9 c9 23 bd e5 91 75 bc 85 db 83 3d 29 15 51 3d
       -0.03998742 -0.014988397 0.064383544 0.05104557
0001f0 4e 91 13 bd a1 07 1d 3d e7 4f 12 bd 6a b9 45 3d
       -0.036027245 0.038337354 -0.035720732 0.048272528

network.4.weight f4 [64, 128]
000000 d6 c0 c9 3d 39 b8 10 3b c5 22 60 bc 0f 3e b9 3b
       0.09851234 0.0022082462 -0.013680165 0.00565315
000010 db 39 ab 3c 91 97 55 bc c2 41 8e bc 4f 8a 7a 3d
       0.020901611 -0.0130366245 -0.01736534 0.061167058
000020 5a 89 85 3c c3 f1 28 bd c0 e8 41 bc c2 0f 25 bd
       0.016300846 -0.041246187 -0.011835277 -0.04029823
000030 ba 6f 91 bd 81 7f 0b 3d 08 47 3a ba 49 93 cf bb
       -0.07101388 0.034057144 -0.00071059214 -0.0063346964
000040 2d 61 7f bd d3 4b 15 bd 4e 9d 0f 3d 9d 60 be bd
       -0.062348533 -0.036449265 0.035062127 -0.09295771
000050 5f c0 18 3d 4f 84 97 3d 18 2e f9 bc 3c f9 be 3d
       0.037292834 0.07398283 -0.030417487 0.093248814
000060 c4 f4 98 3d 76 c9 28 bc 34 46 ef 3c 9a f2 a6 bd
       0.0746856 -0.010301938 0.02920828 -0.08151741
000070 6a 2f a3 3c f1 d7 82 bd fe b4 21 3d 66 4e 62 3d
       0.01992007 -0.06388844 0.03947925 0.055250548
000080 e8 25 16 3d 2c a4 55 bd 17 6c 18 3d ab ef 90 3c
       0.036657244 -0.05215852 0.037212458 0.017692408
000090 80 91 31 3d a5 5d a7 3d ff 04 05 3d 9b ee 37 3d
       0.04335165 0.08172158 0.032475468 0.044905286
0000a0 62 3a bc 3c 4e 54 15 bd 73 76 1a bd ec a9 87 3d
       0.022977058 -0.036457352 -0.03771062 0.06624207
0000b0 e2 9f 8d 3b ba 99 36 bd 54 96 05 3d c1 7a b0 3d
       0.004322038 -0.0445802 0.032614067 0.086171634
0000c0 3d 0b d1 3d 06 6c ef bc ed d6 7a bd 36 5d 99 3d
       0.10207222 -0.029226314 -0.061240125 0.07488482
0000d0 47 bb 1e bd ce a3 8c bc 30 5d 1d 3d 2f 16 89 bd
       -0.03875282 -0.017167952 0.03841895 -0.06693684
0000e0 21 53 71 3d 73 02 88 bd aa 1e b7 bd 2a b0 11 3d
       0.05891717 -0.06641092 -0.089413956 0.035568394
0000f0 55 9c e2 3c 26 f9 f3 3c 79 51 71 bd 39 1d 20 bd
       0.027662436 0.02978189 -0.05891559 -0.03909037
000100 ad 6f 85 3c ce 77 29 bd f9 e1 7e 3c 82 9d 3b bd
       0.016288603 -0.04137402 0.015556806 -0.045804508
000110 88 60 40 bd d4 3f 23 3c 56 e6 81 3d 75 87 7d bc
       -0.04696706 0.009963948 0.06342761 -0.01547419
000120 6f 2e 48 3c 11 8f 7e 3d fb ab 1e bd 06 ad d5 3c
       0.012218102 0.062148158 -0.038738232 0.02608348
000130 0f de 2e bd 66 2c 34 bd a7 46 9c bd cb 29 c9 bd
       -0.04269224 -0.043987654 -0.07630663 -0.098224245
000140 42 04 82 3d 8d 7c 8e 3d 19 36 de bb da e9 c2 bc
       0.06348468 0.0695735 -0.0067813513 -0.02379315
000150 1e 87 87 bd 17 ea 25 3d f7 63 85 bd 49 0b 89 bc
       -0.066175684 0.04050645 -0.065132074 -0.016729014
000160 d4 bc b2 3d 1b 8c b1 bd b8 9e aa 3d ed 49 ce 3c
       0.08727422 -0.08669301 0.083310544 0.025181735
000170 12 a1 ee bc 8d ba 93 bd 55 c4 6a bd 41 68 b7 bc
       -0.029129539 -0.07213316 -0.057316143 -0.02238858
000180 22 91 5d bd e5 83 02 3d 44 39 5c bc 57 ec c3 3c
       -0.054093488 0.031864066 -0.013441388 0.023916407
000190 d7 27 ac bd 67 30 d2 3d 69 e8 14 3d 31 16 82 3d
       -0.08406036 0.10263138 0.036354456 0.06351889
0001a0 f5 41 84 3c bb 0b f9 3c a2 c9 c0 3d 4a ac 20 bc
       0.016144732 0.030401101 0.094134584 -0.009806702
0001b0 32 ef 89 bd c7 24 d2 3d 9a 03 4f 3d e7 c3 5b 3d
       -0.06735076 0.10260921 0.050540544 0.053653624
0001c0 8d 1a b0 bc 0e 9e 17 bc 50 fc 89 3d 03 d3 96 3d
       -0.021497035 -0.009253992 0.06737578 0.07364466
0001d0 68 23 2a 3d d3 7d be bd d0 18 7a bd b6 95 bd 3c
       0.041537672 -0.09301343 -0.06105882 0.023142677
0001e0 f1 30 97 3c ea e9 a0 3d 2a fe ae 3d e7 e1 6d 3d
       0.018455954 0.078571156 0.08544572 0.058076765
0001f0 c6 b9 42 bd 0b 96 c2 3d cd c5 9c bd bb b4 4c bd
       -0.04754045 0.09501275 -0.07654915 -0.049977046
000200 a1 63 bb 3c 16 37 c3 bc c2 39 e6 bc 6f aa 08 3d
       0.022874655 -0.023829978 -0.028103713 0.033365663
000210 76 b5 b3 3d 62 df 91 3c df 59 10 bd 26 f8 e0 3b
       0.08774845 0.017806713 -0.035241958 0.006865519
000220 30 49 2e 3d 55 ef 43 3d fd 50 a2 3d 75 20 7a 3c
       0.042550266 0.047835667 0.079256035 0.015266527
000230 0f 7e 36 bd 0f 64 bd 3d bd ed 52 bd 7b 15 af 3d
       -0.044553813 0.092476 -0.051496256 0.08549019
000240 8e 86 3f 3d 49 cd 6a 3b 05 dd 31 bb c4 fc 68 bd
       0.04675918 0.0035827926 -0.0027139795 -0.05688168
000250 23 74 8a bd c5 d2 3b 3d c6 17 5c 3d cc 12 8b bd
       -0.067604326 0.045855302 0.05373361 -0.067906946
000260 c7 99 84 3d 92 8e 5a 3d 0c ee 95 3d 8f 0c 2e 3d
       0.06474643 0.053358622 0.073207945 0.042492446
000270 c5 ec a8 3d 05 24 24 bd ff e0 81 3d 21 88 c1 3c
       0.08248285 -0.040073413 0.06341743 0.023624482
000280 69 0a 8f bd 3f de 87 3d 20 4c 47 3d 5c 18 9c 3d
       -0.069844075 0.06634187 0.048656583 0.07621834
000290 b5 3a 2e bd 65 c6 8c bd 26 ea bb bc 2b 0a 33 bd
       -0.042536456 -0.06873778 -0.0229388 -0.04371087
0002a0 93 7d b3 bd ba d0 8b 3c a7 a3 2a 3d ef a8 3a 3d
       -0.08764186 0.017067302 0.041659977 0.045571264
0002b0 c4 8d 3b bd 0f 9a 06 bd 7e 2d b0 bd f2 ce 05 3d
       -0.045789495 -0.032861765 -0.08602427 0.03266806
0002c0 b3 7e 8a 3d e2 b3 df 3b 22 24 12 bd 24 46 61 bd
       0.06762447 0.0068268636 -0.03567899 -0.054998532
0002d0 7f 4e 7d 3d a4 75 75 bd 1d f4 48 bd 44 f9 96 bc
       0.061842438 -0.059926644 -0.04906093 -0.018429406
0002e0 58 70 0c 3d bc 16 2e bd 50 7f 8b 3d f7 c2 24 bd
       0.034286827 -0.04250215 0.06811392 -0.040224995
0002f0 0f 01 64 3c 26 e2 20 bc 66 1c b3 bd ca eb 51 bc
       0.013916268 -0.009819543 -0.08745651 -0.012812564
000300 24 dd 21 3d 6d 7b 41 bd 6f e4 57 bd fb 94 8f bb
       0.039517537 -0.04723685 -0.052708086 -0.0043817735
000310 b9 cc 81 3d b1 f7 6b 3d c4 42 56 bd ed 55 6f bc
       0.06337876 0.057609264 -0.052309766 -0.014607889
000320 7f 6b 69 3d da 3c 50 bd 57 68 b5 3d af 3a 76 3c
       0.056987282 -0.050839283 0.08857792 0.01502864
000330 34 ac af 3b 99 c6 bf bc 7c 27 76 3d ec 6e d2 3d
       0.0053611044 -0.023410128 0.06009625 0.10275063
000340 8b 16 77 bc 63 e2 8d bc d4 85 ae 3c f5 45 51 bd
       -0.015081058 -0.017319864 0.021304049 -0.051092107
000350 f0 96 d2 3c 98 58 72 3d de fb 33 bd 37 be 10 bd
       0.025706738 0.05916652 -0.04394137 -0.035337653
000360 99 e4 c6 bd 28 a9 ac bc bd ca c9 bd 48 03 93 bd
       -0.0971157 -0.021076754 -0.098531224 -0.0717836
000370 94 f3 a3 bc c2 bd 06 bd f2 4d 28 bc 99 7a f5 3b
       -0.020013608 -0.03289581 -0.01027249 0.0074914214
000380 d9 72 03 bd 19 44 55 bd b7 e2 2e bd 49 38 b7 bd
       -0.03209195 -0.052066896 -0.04269668 -0.089462824
000390 7e 13 8d 3d da c4 90 bd 80 a0 03 3d 68 f7 00 3d
       0.068884835 -0.070687965 0.032135487 0.031485945
0003a0 56 4a f5 bc 93 ee d7 3c 99 2d 4c bd 69 50 56 3d
       -0.029942673 0.026358878 -0.049848173 0.05232278
0003b0 9b ff 24 3d 4d 87 e8 3c 0e fc 3c 3d 23 90 b0 bd
       0.040282827 0.028384829 0.046138816 -0.08621242
0003c0 99 2b 82 bd 5c f0 ce 3c 14 82 b2 bc 86 7c 18 bd
       -0.06355972 0.025261097 -0.021790542 -0.03722813
0003d0 59 4b 02 3c 84 d8 b5 3d 6d 75 d3 3b 31 e4 4d bc
       0.007952535 0.08879188 0.006453207 -0.012566612
0003e0 ed 8d 29 bd 8f 1b 1b 3c 1a 8d 67 3d b6 9b 5d bc
       -0.041395117 0.00946702 0.05653105 -0.013525894
0003f0 61 45 96 bd 7a 5f be bd d3 53 7f 3d c0 29 69 bd
       -0.07337452 -0.092955545 0.0623358 -0.05692458

network.4.bias f4 [64]
000000 a6 8f d7 3c 0e e5 85 3d c9 a7 83 3c 7a 06 0b bd
       0.026313614 0.06537829 0.016071217 -0.033941723
000010 b2 cb 42 bd 28 86 96 bd b9 3a ef bc 80 fc 2f 3d
       -0.04755754 -0.07349807 -0.029202806 0.042965412
000020 8f c4 a1 3d a5 14 87 bd 91 a9 66 3d 48 46 6a 3d
       0.07898819 -0.065957345 0.056314055 0.05719593
000030 42 36 76 bd 30 bd 6c 3d ee 52 e9 bc 64 cd 37 3d
       -0.060110338 0.05779761 -0.028481927 0.04487361
000040 38 cd 95 3d f3 c3 f3 3c 98 81 57 3d 15 df 07 bd
       0.07314533 0.029756522 0.052613825 -0.033171732
000050 28 81 b6 3c ab 60 33 bb 95 ad 40 bd ff 40 ab 3d
       0.022278383 -0.002737085 -0.04704054 0.083620064
000060 48 43 62 3d cc 29 b0 bd 5b 0a 6d bc 62 a1 52 3c
       0.055239946 -0.08601722 -0.014467801 0.0128558595
000070 3c ce 10 3c fe 19 ad bd ab fe ec b9 44 53 8c bd
       0.008838233 -0.08452223 -0.0004520317 -0.06851819
000080 92 f5 95 bd 68 99 8b 3d 57 d9 79 bc af 5b 8c 3b
       -0.073222294 0.06816369 -0.015249572 0.0042833905
000090 6c 89 81 bc b0 dd 21 bc 7a c5 97 3d 2b 78 6b bd
       -0.015812598 -0.009879515 0.074107125 -0.057487648
0000a0 a2 5a a5 ba 84 45 82 bd ab 8f 8e 3c 3e 52 0f 3d
       -0.0012615512 -0.06360915 0.01740249 0.03499054
0000b0 61 ef ae bd 39 1b 83 3d 04 a9 a3 bc 42 34 a4 bb
       -0.08541752 0.06401677 -0.019978054 -0.0050111124
0000c0 45 69 42 bd 49 be fc bc d5 e0 a1 bd fa 1f ad 3d
       -0.047463674 -0.030852454 -0.079042114 0.08453365
0000d0 bd d7 34 3d 07 4e 50 3c a0 98 35 bd 76 f7 3f 3c
       0.044151057 0.012713916 -0.044335008 0.011716714
0000e0 27 f9 df bc 2b 76 93 3d 71 96 a0 bd f1 1f ae 3d
       -0.027340485 0.07200273 -0.078411944 0.08502186
0000f0 b3 31 af bd 1e 80 6b 3d ad 9e 5f bc 36 29 22 bd
       -0.08554401 0.05749523 -0.013648671 -0.039590083

actor.weight f4 [4, 64]
000000 93 2b dd 3a de 10 6e bd 71 dc a3 3c f7 12 a0 3d
       0.0016873948 -0.058121555 0.020002576 0.07816117
000010 b8 2f ee 3c 4e 0d 71 bd 4a b8 ed bd b3 44 72 bd
       0.029075488 -0.05885058 -0.11607416 -0.059147548
000020 09 e9 2a bd 12 02 9c bd a9 66 99 bd 09 17 13 bd
       -0.041726146 -0.076175824 -0.07490284 -0.03591064
000030 01 92 c9 3c 31 f5 42 3d de c5 31 3d 08 40 d5 3d
       0.024605753 0.047597114 0.04340159 0.104126036
000040 4c 50 98 3d 4f 8c 03 bd 8e 04 a4 3d d8 f5 2d bd
       0.074371904 -0.03211623 0.08008681 -0.042470783
000050 89 3c 42 3d 98 b2 0b 3d 00 8a b2 39 05 8e 27 bd
       0.047421012 0.034105867 0.00034053624 -0.040906925
000060 0b c3 b0 bd 5f 22 f6 bd d8 e0 da bd 8b a5 62 bd
       -0.086309515 -0.120182745 -0.10687417 -0.055333655
000070 11 72 69 3c fb 68 6e 3d 25 22 a2 bd 30 b2 01 3d
       0.014248387 0.058205586 -0.07916669 0.031664073
000080 13 d6 2b 3d 5d 9f 22 3d 6e a4 d5 bd f8 ea 22 bd
       0.041952204 0.039702762 -0.10431753 -0.039774865
000090 90 f2 7e bd 8e 74 bf bd 95 dc 9d 3d 04 58 32 bd
       -0.062243044 -0.09348403 0.07708088 -0.04354097
0000a0 d3 3b 20 bc 94 1b e3 bd 4c 57 41 3d 62 3e e7 bd
       -0.009779888 -0.110892445 0.047202393 -0.112911955
0000b0 c8 3c c3 3c 70 10 b3 bd e7 bd d8 3d 21 f9 28 bd
       0.023832694 -0.087433696 0.10583096 -0.041253213
0000c0 d5 9f eb 3d 6f 41 c7 3d 40 b5 27 bd 63 21 09 bd
       0.11505095 0.09729277 -0.040944338 -0.033479106
0000d0 a5 11 a3 bd 7f 59 24 bc 84 0f de 3d 89 fd b0 bd
       -0.0796235 -0.010031103 0.10842803 -0.08642108
0000e0 9e ef 77 bd 76 e6 69 bd 9d 51 c7 bc cd 4d c9 3d
       -0.06053125 -0.05710455 -0.024330908 0.098292924
0000f0 9d 03 ad bc de 52 9e bc 8b 70 df bc 72 6f 99 3d
       -0.021119887 -0.019326624 -0.027275344 0.0749196
000100 91 c3 d0 3c 88 c9 df 3d 83 cb 9c 3c 00 e6 f2 3d
       0.025483878 0.10927111 0.01914001 0.11860275
000110 60 c0 7d 3d 01 61 32 3c c0 75 fa 3c 7f 9f ea bd
       0.06195104 0.010887385 0.030573726 -0.11456203
000120 97 e5 c2 3d 18 c9 73 3d 94 97 e7 bd 51 1a 01 be
       0.09516447 0.05951795 -0.11308208 -0.12607695
000130 7d f8 aa bd 11 10 ec 3d 0a 0f 72 bd 12 1d 72 bc
       -0.08348177 0.11526502 -0.059096374 -0.014777439
000140 9e e6 f7 bd 56 59 e3 bc 61 20 77 bd 95 57 a4 3d
       -0.121045336 -0.02775256 -0.060333613 0.080245174
000150 68 7b be bd b8 10 82 bd b4 98 a0 3d d1 e2 02 bd
       -0.093008816 -0.06350845 0.07841626 -0.03195459
000160 28 6a e1 bd 46 37 7d 3d bc 27 b4 bd 20 e7 b3 3c
       -0.11006576 0.06182029 -0.08796641 0.021960795
000170 eb db ab 3c 3f 9f 00 bd c9 2c 82 3a 83 9b af 3c
       0.020978888 -0.03140187 0.000993156 0.021436458
000180 d6 fb 17 bd 33 a8 c0 3d 97 b7 10 bd 65 4a 17 ba
       -0.037105404 0.094070815 -0.035331335 -0.00057712785
000190 86 0c 48 3d 19 46 8d 3c ac 1a 37 3c 48 97 c8 bc
       0.04884007 0.01724534 0.011175793 -0.024486199
0001a0 60 6d bf bd 3c 33 89 bd 63 1d 85 3d 60 e0 ef 3d
       -0.093470335 -0.06699225 0.06499746 0.11712718
0001b0 70 51 e6 bc 81 74 af 3c 3b ed 59 bd 5c e7 6c 3d
       -0.028115004 0.021417858 -0.053204756 0.05783783
0001c0 98 01 d7 bd 27 36 b1 bd f8 62 69 3d 3c 6f f4 3d
       -0.10498351 -0.08652907 0.05697915 0.11935279
0001d0 c2 0d 90 bc f4 59 8c bc e0 de f7 bd a2 c6 32 3d
       -0.017584685 -0.017132737 -0.12103057 0.043646462
0001e0 2e 5d 1a bd 32 33 f7 3d 0e 9e e9 3d 56 9f 2a bd
       -0.03768652 0.120703116 0.114071 -0.04165586
0001f0 c4 a3 d1 bd 66 ee 77 3d 33 fa a8 3d 6a e8 41 3d
       -0.10236314 0.06053009 0.08250847 0.047340788
000200 c0 6f 7a bd f7 c9 63 bc 63 70 7b bd 90 e9 8a 3d
       -0.06114173 -0.013903133 -0.061386477 0.0678283
000210 b4 9d d9 3d e2 3a 9c bd 2d 9b a2 bc 9d 4d c7 3d
       0.106257826 -0.076284185 -0.019849384 0.097316004
000220 0b 97 96 3c f1 76 69 bd d3 99 98 bd c1 db 1e bd
       0.01838257 -0.056998197 -0.07451215 -0.038783792
000230 7c bc af 3d e7 f9 91 3a 79 9b 47 bd 62 de 51 3c
       0.085808724 0.0011137099 -0.048732255 0.012809368
000240 31 c8 25 3d c4 aa 50 bd 7d 5c 6d 3d da 4e f5 bd
       0.04047412 -0.050944105 0.05794953 -0.1197793
000250 39 fe 85 bd ee fe 40 3d 40 76 ae bd ed 4f d0 bd
       -0.0654263 0.04711812 -0.08518648 -0.10171495
000260 ac 24 c7 3d 89 25 ae bd 3c 50 e4 bd 5f 79 8d 3d
       0.097237915 -0.08503253 -0.11148116 0.06907915
000270 1d 1e 00 be 8b 2a f2 3d 91 fe ee bd 2c 6b d7 bd
       -0.12511487 0.11824521 -0.116696484 -0.10518488
000280 2f b0 e2 3d b4 97 4b bd 69 0c ce bc 19 3d 0d 3c
       0.110687606 -0.049705222 -0.025152402 0.008620524
000290 e8 b2 09 bd 85 b6 86 bc ab cf af 3d 9e eb c5 3d
       -0.033617884 -0.016444454 0.085845314 0.09664081
0002a0 f5 95 9c bd 28 70 92 bd a4 21 f7 bd e9 d1 53 3d
       -0.076457895 -0.07150298 -0.12066963 0.051713858
0002b0 88 9e 8a bc b3 96 bc bd 17 68 96 bd 03 3f 07 bc
       -0.016921297 -0.09208431 -0.07344072 -0.008254769
0002c0 4c ee 8f 3d f2 d4 f6 3d 70 d7 06 bc e5 62 d0 3d
       0.070278734 0.12052335 -0.008230075 0.10175113
0002d0 d3 3b b2 3d 9c f5 35 bd 12 39 9a 3d 66 cb 9f 3d
       0.08702817 -0.044423684 0.075304165 0.07802467
0002e0 ed 5d c5 3d 6c 47 95 bd d6 b1 c6 bc 32 40 0c 3d
       0.096370555 -0.07289013 -0.02425472 0.03424091
0002f0 6e 9a e3 3d 7e 2f 9a bd bb 25 77 3d 23 43 70 bd
       0.111134395 -0.0752859 0.060338717 -0.058657777
000300 0e 37 f5 3c d3 b9 ad bd 50 63 ed bd 51 dc 93 3d
       0.029933479 -0.08482709 -0.11591208 0.072197564
000310 9d 25 31 bd 37 0f b8 bd 16 93 bd bd 46 88 9f bd
       -0.04324876 -0.08987277 -0.0925657 -0.07789664
000320 bd 54 98 bd ea 7a f3 bd 88 34 b8 3d 80 39 f3 3c
       -0.074380375 -0.11888678 0.089943945 0.029690504
000330 5b 87 7a 3d 24 bf a1 bc 2f a3 c9 3d 09 11 ff 3d
       0.06116424 -0.019744463 0.09845578 0.12454421
000340 f0 b4 a6 3d 76 bd 54 3d 44 85 ea 3d c9 42 ce 3d
       0.0813998 0.051938497 0.114512 0.10071332
000350 15 04 ad 3d 8b 4e 51 bd 38 f9 b1 bd 40 c9 10 bd
       0.08448044 -0.051100295 -0.08690113 -0.035348177
000360 ee 54 a6 3d 8b b6 fd bb 43 e2 9a bd 4b 1d 68 3d
       0.08121668 -0.007742708 -0.07562687 0.05666856
000370 32 ed 83 bd bc 19 4b bc 16 d8 be bc 65 50 35 bd
       -0.06441726 -0.012396272 -0.023296397 -0.044266123
000380 14 6d dd 3c 36 41 db bd 6c af f7 3d ba 4a a7 3d
       0.027029552 -0.107057974 0.12094006 0.0816855
000390 8d 43 0c 3d 0f e8 70 bd 8a 0d d5 3c 40 bd 84 bc
       0.03424411 -0.05881506 0.026007432 -0.016203523
0003a0 02 f7 ec bd 92 48 f5 3d 3c 4d c5 bc af 10 0e bc
       -0.115705505 0.11976732 -0.02408468 -0.00867097
0003b0 b8 20 4a bd dd 34 8a bd 41 51 5a 3c a6 b1 f5 3d
       -0.04934761 -0.06748364 0.0133250365 0.119967744
0003c0 39 8b ce 3d 0f 52 c3 bd 20 8a b4 3c 4e 36 a2 3c
       0.10085148 -0.09537136 0.02203852 0.019801285
0003d0 0d fe 77 3d 03 3d d2 bc e8 01 03 3d 57 fe f8 bc
       0.060545016 -0.025663858 0.03198424 -0.030394716
0003e0 12 65 56 3d 44 04 81 bc 41 c1 f3 3d 8f 84 e9 bd
       0.052342482 -0.015749104 0.11902095 -0.11402237
0003f0 0b 99 88 bd ac 03 9c bc ec 8f a9 3d c1 bd 99 3d
       -0.06669816 -0.01904472 0.08279404 0.07506896

actor.bias f4 [4]
000000 ac ef 0e 3d bf ce 97 bd b3 8f 10 3d 64 8c 8f bc
       0.034896538 -0.074124806 0.035293292 -0.017522998

critic.weight f4 [1, 64]
000000 87 91 db bd 0e 57 ce 3d 35 ff f0 bc da c8 07 3d
       -0.107211165 0.10075198 -0.029418567 0.03315053
000010 6e 9d dd bc f2 1e f6 bb b4 9a 9b bd 87 05 f5 3d
       -0.027052607 -0.007511013 -0.07597867 0.11963945
000020 c5 93 b3 3c 79 61 e2 3d 21 32 16 bd dc 84 be 3c
       0.021921048 0.11053748 -0.0366689 0.023256712
000030 e2 6e e0 3d 6d f0 6c 3d a3 42 75 bd 66 fb 9d 3d
       0.10958649 0.057846475 -0.059878003 0.07713966
000040 0a 07 9d 3d 2c 60 c6 bd 7e 8d 27 bd 1e 0e 92 3b
       0.07667358 -0.09686312 -0.04090642 0.0044572493
000050 82 8a d2 bb d6 ca c8 3c 34 07 a8 3d 6a 35 8f bd
       -0.006425203 0.024510782 0.08204499 -0.0699261
000060 0d 2f 94 bd 53 d7 85 3d 34 bd 8d 3d f5 a2 d3 3c
       -0.07235537 0.065352105 0.06920853 0.02583454
000070 49 c0 a2 3d 29 cf 9a bb 6a e6 2e 3b 7f b8 5a 3d
       0.07946832 -0.0047244024 0.002668763 0.053398605
000080 5f 68 37 3d d9 83 05 3e e8 20 8f bd 9c 84 2b 3d
       0.04477727 0.13038577 -0.06988698 0.041874513
000090 7a 35 28 bd 33 84 52 3d b3 93 01 3e cc 71 c3 bd
       -0.041066624 0.051395606 0.12653999 -0.095431894
0000a0 06 7d 16 3c b4 2e b6 bd 1e d8 a4 3d 8b c5 02 be
       0.009185081 -0.08895627 0.080490336 -0.12770669
0000b0 0e c9 c3 3d db d1 46 bd f2 9a e1 bd 83 75 ba 3d
       0.095598325 -0.048539978 -0.110158816 0.09104445
0000c0 ba b7 b5 3d 53 21 f8 bd 8c d9 a5 bd 88 d3 98 bb
       0.08872934 -0.12115731 -0.080981344 -0.0046638884
0000d0 90 9c e6 3d 9c d1 c2 bd c0 8d 05 3d 1e ed f6 3c
       0.11260331 -0.09512636 0.032605886 0.030142363
0000e0 fc 9e 09 3d 32 42 d4 3d ab ec e7 3d 8c 9b f0 bd
       0.033598885 0.10364188 0.11324438 -0.11748418
0000f0 7e 7a 18 3d 8d 8f f1 bd 1c 8b d5 bd cb 31 51 3d
       0.037226193 -0.11794958 -0.10426924 0.051072877
