archived/ppo_2048_3500.pth (torch, 449893 bytes, 9 tensors)

network.0.weight f4 [256, 272]
0.042527083 0.013194938 0.048087515 0.009927995 0.044718098 0.059631027 0.029151343 -0.014184925
0.065502495 -0.028816437 0.05126502 0.025415475 0.03600308 0.048583724 0.030857645 -0.005754151
-0.051381264 0.010783935 0.058364972 -0.033654455 0.030012766 0.04704606 0.0025490476 -0.03710279
-0.020294448 0.059025 -0.015589165 0.029938575 0.02224086 0.028743079 0.015436542 0.057504322
0.02821711 -0.010382109 -0.058398124 0.024865972 -0.0068444433 -0.001218226 -0.017580895 0.04887367
-0.00063037826 0.0037548058 0.08778974 0.057537038 -0.0021102221 0.025497166 -0.038194843 -0.049180213
0.045099486 0.036119316 -0.04066176 -0.07193336 0.050410192 -5.9434908e-05 -0.0019672855 0.026480474
0.0490218 0.038080107 0.0106618125 0.063569285 0.002867303 0.017956542 0.02784312 0.01510454
0.047934994 0.05482469 0.02912322 0.054035965 -0.04393081 -0.026671536 -0.043749474 -0.01775429
-0.008530405 -0.017172106 -0.018629996 0.013957076 0.06342105 0.047696047 0.03557661 -0.015377937
0.03902581 -0.036235247 -0.031981524 0.028148435 -0.02554034 0.015471097 0.015871968 0.050698932
-0.016216628 -0.06401303 0.012244859 -0.00083443127 0.027831068 0.056734648 0.049614962 0.036090873
-0.049944498 0.029966077 0.013319316 -0.045501523 0.037275665 0.02593655 -0.0734707 -0.006585191
-0.03767991 0.04349257 -0.046032697 0.005683586 0.011539616 0.05049979 0.012806966 0.045830894
0.0083372295 -0.05090779 -0.05551674 0.013092432 0.02889628 0.026966803 0.049426157 -0.0033185086
-0.011935011 -0.02342166 0.047827218 -0.04589971 -0.039023004 0.07540495 0.00025277957 0.10220097
-0.047866426 0.044542488 0.044354443 0.013462158 0.044807397 -0.008165063 0.039642803 -0.019801239
-0.05483551 -0.0342444 -0.052483585 -0.018056616 0.055215817 0.013857571 0.010196587 0.038170487
0.06158724 0.0027901863 0.00041519795 0.043123484 0.023773896 0.04905985 -0.050639924 0.049239445
-0.041272882 -0.006059648 -0.02888763 -0.0076630614 0.045002148 -0.0005549255 0.067255266 0.009232842
-0.019016352 0.109578535 0.050112445 -0.026839161 -0.027635 -0.060105827 -0.00821803 0.019470392
0.057881556 0.02043954 -0.054094538 0.022131657 -0.035613395 0.044869784 0.010379096 -0.016154233
0.0144551415 0.027766725 -0.01861621 -0.020247018 0.049191084 0.054188512 0.03919878 0.0353471
-0.02544884 0.040296197 -0.05080618 -0.027455533 -0.015401599 0.018704316 0.005825509 0.005204061
0.01062172 0.020525662 0.07127689 0.08377838 -0.059267875 0.020987619 -0.05831028 -0.01960949
-0.040327054 0.04886461 0.060439207 -0.05762887 -0.020830357 -0.040464416 -0.009264747 0.058055207
0.05726822 -0.0053628767 0.070471875 0.034592193 0.027116615 0.02117605 0.0484981 0.044943403
-0.052420832 0.03798336 0.02030662 0.016714316 -0.011398362 -0.028803665 0.011340227 0.001207016
-0.017432189 0.0004760877 -0.032077603 0.06298415 0.050080903 0.082342826 0.012440355 -0.040092364
0.059099715 0.060415175 -0.012086617 -0.0059183524 -0.023507481 -0.036709283 0.0014642789 0.0350033
-0.018752962 0.006923831 -0.04949075 -0.013025578 -0.0017345344 0.012297496 0.021198973 -0.0378793
-0.047589496 0.008781449 -0.027808996 0.013397409 -0.043622173 -0.04495564 0.026246326 -0.00054607063
00000000: e130 2e3d 952f 583c 6af7 443d 07a9 223c
00000010: 532a 373d aa3f 743d ccce ee3c e367 68bc
00000020: 2c26 863d 7310 ecbc 45fb 513d 1d34 d03c
00000030: f777 133d baff 463d 2cc9 fc3c 518d bcbb
00000040: 2975 52bd 1aaf 303c 1c10 6f3d 41d9 09bd
00000050: 55dd f53c 5fb3 403d ec0d 273b 18f9 17bd
00000060: 8b40 a6bc 33c4 713d b269 7fbc be41 f53c
00000070: 7732 b63c 9b76 eb3c 8de9 7c3c a789 6b3d
00000080: 9227 e73c b919 2abc df32 6fbd b9b3 cb3c
00000090: 5a47 e0bb e2ac 9fba cf05 90bc c22f 483d
000000a0: f83f 25ba 3013 763b 1bcb b33d f5ab 6b3d
000000b0: a74b 0abb 6fdf d03c 3272 1cbd 3171 49bd
000000c0: 3dba 383d d9f1 133d f28c 26bd cc51 93bd
000000d0: eb7a 4e3d bf49 79b8 93ed 00bb 94ed d83c
000000e0: 15cb 483d e3f9 1b3d e2ae 2e3c 9d30 823d
000000f0: 5de9 3b3b 9919 933c 4117 e43c 0879 773c
00000100: 7c57 443d db8f 603d d293 ee3c d154 5d3d
00000110: cbf0 33bd 447e dabc a632 33bd 7271 91bc
00000120: 1dc3 0bbc 84ac 8cbc ef9d 98bc 38ac 643c
00000130: e5e2 813d ee5c 433d c8b8 113d bef3 7bbc
00000140: 87d9 1f3d 696b 14bd 0fff 02bd 8c97 e63c
00000150: fa39 d1bc 7c7a 7d3c ee05 823c afa9 4f3d
00000160: bcd8 84bc 4319 83bd a99e 483c bcbd 5aba
00000170: fbfd e33c 9762 683d 0f39 4b3d 06d4 133d
00000180: 9a92 4cbd 6b7b f53c 4339 5a3c ce5f 3abd
00000190: 5eae 183d e378 d43c ce77 96bd 96c8 d7bb
000001a0: 4056 1abd 4425 323d c88c 3cbd 603d ba3b
000001b0: a810 3d3c ded8 4e3d 4fd4 513c 2db9 3b3d
000001c0: e098 083c b084 50bd 8565 63bd a481 563c
000001d0: e4b7 ec3c 7ce9 dc3c 1573 4a3d 567b 59bb
000001e0: 108b 43bc c8de bfbc 79e6 433d 5601 3cbd
000001f0: 96d6 1fbd e96d 9a3d 8087 8439 be4e d13d
00000200: 960f 44bd 2f72 363d 01ad 353d 6290 5c3c
00000210: f687 373d c2c6 05bc 7e60 223d 3536 a2bc
00000220: 339b 60bd db43 0cbd 07f9 56bd 78eb 93bc
00000230: fb29 623d de0a 633c 960f 273c a858 1c3d
00000240: e742 7c3d 8fdb 363b edae d939 40a2 303d
00000250: 79c1 c23c fbf2 483d cf6b 4fbd 4daf 493d
00000260: c10d 29bd 0390 c6bb c0a5 ecbc 6b1a fbbb
00000270: 2c54 383d 6b78 11ba 21bd 893d 5945 173c
00000280: 2ec8 9bbc b66a e03d b542 4d3d cddd dbbc
00000290: cc62 e2bc 8731 76bd eba4 06bc 5f80 9f3c
000002a0: 3615 6d3d d270 a73c 3c92 5dbd 734d b53c
000002b0: 5adf 11bd 61c9 373d 150d 2a3c e255 84bc
000002c0: 42d5 6c3c 0b77 e33c 0681 98bc 13dd a5bc
000002d0: 977c 493d c6f4 5d3d e68e 203d 1fc8 103d
000002e0: 167a d0bc a00d 253d 241a 50bd 6dea e0bc
000002f0: fd56 7cbc cb39 993c e9e3 be3b d486 aa3b
00000300: b906 2e3c 6f25 a83c 9ef9 913d 0094 ab3d
00000310: dfc2 72bd 3aee ab3c c3d6 6ebd 15a4 a0bc
00000320: fb2d 25bd 4226 483d 1a8f 773d 400c 6cbd
00000330: 6da4 aabc 04be 25bd 2acb 17bc 4ccb 6d3d
00000340: 1592 6a3d 12bb afbb 8f53 903d 8bb0 0d3d
00000350: aa23 de3c 6579 ad3c f2a5 463d 9316 383d
00000360: 3ab7 56bd 7194 1b3d 125a a63c 76ec 883c
00000370: 32c0 3abc aaf5 ebbc 5ccc 393c bc34 9e3a
00000380: f3cd 8ebc 699b f939 ce63 03bd d6fd 803d
00000390: a221 4d3d 5ba3 a83d a1d2 4b3c e437 24bd
000003a0: 8b12 723d e775 773d f206 46bc bdee c1bb
000003b0: c392 c0bc 795c 16bd 0ced bf3a 9f5f 0f3d
000003c0: d09f 99bc 4ee1 e23b d0b6 4abd 3c69 55bc
000003d0: 5159 e3ba 707b 493c 78a9 ad3c 5327 1bbd
000003e0: 34ed 42bd 11e0 0f3c b1cf e3bc ce80 5b3c
000003f0: 2aad 32bd 6823 38bd 8902 d73c 2e26 0fba

network.0.bias f4 [256]
0.06737866 -0.002045006 0.07344422 -0.0056086695 0.064556986 0.017963225 -0.051153854 0.030513778
-0.009023016 -0.027219182 0.0442509 -0.054482907 0.016153663 -0.0016838715 0.060168914 0.04529457
-0.0008468842 -0.0039495276 -0.050816726 0.038819324 0.030775558 -0.011588437 0.049743533 0.03745615
-0.019462338 0.01668714 0.0073153214 0.029110258 0.024052583 0.030128632 0.015920503 0.06029814
0.009825576 -0.029913878 -0.019237202 0.008223077 0.0011085114 0.025753647 -0.052045643 -0.046060164
-0.01502697 -0.0028959545 0.050854195 0.058748618 0.023782326 0.068703726 -0.012671326 0.025226736
0.016591502 0.008432787 0.06598656 0.04962003 -0.031798813 0.031371314 0.042067736 0.05307847
-0.0512127 0.033499245 -0.023124725 -0.046146758 0.032411955 0.06794693 0.018507153 -0.04556359
0.04176074 -0.015809506 0.056294806 -0.0029757267 -0.05639447 0.03715695 -0.027098436 0.025024222
0.03966577 0.010389664 0.032907482 0.012828588 -0.0011366848 0.04425148 0.00023483059 0.021118581
-0.027075343 -0.015289676 0.018235786 0.030452436 0.002742571 -0.017708333 -0.043701664 -0.03724852
0.051137913 0.040888034 -0.0016437428 -0.014003664 0.05242415 0.007317189 -0.0053333747 -0.04576023
0.03957822 -0.05377138 0.05911116 0.037252013 -0.039222352 0.0056743333 0.01079342 7.214851e-05
0.029951978 0.020780956 0.008107143 0.012349168 -0.039464884 0.065030575 0.07211704 0.024196614
0.010731415 0.05551535 0.029856134 0.014231162 0.021249676 -0.0018113373 -0.037844814 -0.038600795
0.023242887 -0.058170885 0.013199385 0.022844221 0.012460957 0.026017038 0.01860333 0.03133227
0.054760687 -0.017034208 0.058122728 -0.0155407805 0.044598658 -0.019305546 -0.03451844 0.05631234
0.022214409 0.053071607 -0.0153809795 -0.03173535 0.002503405 0.011102519 0.021381836 0.047709197
0.03168688 0.049401492 0.0134901805 -0.0038127955 0.05095058 0.035551544 0.011033517 0.022262346
0.0023128104 -0.0016946446 -0.031964514 -0.05611672 -0.0457431 -0.019222995 0.06487805 0.047299154
0.049033497 -0.02535574 -0.029067243 -0.03981946 0.010778368 -0.02627176 -0.06108355 -0.033118047
0.012515895 -0.051519595 -0.014191296 -0.023503661 -0.0035681587 0.021392126 -0.04427058 -0.03656792
0.017967736 -0.026281342 0.03262273 -0.050258193 -0.0030013383 0.05161351 0.043822188 -0.024153506
0.067025855 0.029894307 0.030788427 0.024373263 0.038811125 -0.037682086 -0.0052274894 0.04058466
0.020769691 0.028212419 0.01842853 0.054340657 -0.038716767 0.019747445 0.048935596 0.02080808
0.030343927 0.05832076 0.0066856905 -0.034629013 0.055513274 0.030511884 0.030740483 -0.045178715
0.048092037 -0.005050359 -0.029622348 0.0014271422 0.055683263 0.03850973 -0.024344884 0.015920332
-0.033908863 0.04287159 0.036604054 0.010119753 -0.0083497 0.034203593 -0.00085481803 0.021241773
-0.039419133 0.0071866834 0.011775089 -0.025899725 0.06271526 0.05051903 -0.019374656 0.053936813
-0.0137998015 -0.043099478 -0.02597072 0.009317892 -0.020578068 0.008332484 0.0067472775 0.015668375
-0.04330068 -0.0056218784 0.07320096 0.036515705 0.012096882 0.014710035 0.027340135 0.025719566
-0.031548537 0.023889996 -0.042483285 -0.02692415 0.037946347 0.0033106178 -0.0012871284 -0.014136101
00000000: d3fd 893d 8205 06bb ec69 963d eec8 b7bb
00000010: 7436 843d 9d27 933c b486 51bd 08f8 f93c
00000020: 46d5 13bc c3fa debc 6f40 353d 7829 5fbd
00000030: b054 843c 5ab5 dcba ae73 763d cd86 393d
00000040: 7001 5eba 0a6b 81bb 3325 50bd 0301 1f3d
00000050: 061d fc3c 6ddd 3dbc e0bf 4b3d 9f6b 193d
00000060: 7b6f 9fbc 78b3 883c 5db5 ef3b a378 ee3c
00000070: ec09 c53c 52d0 f63c b76b 823c 2ffb 763d
00000080: 74fb 203c f30d f5bc 5697 9dbc 16ba 063c
00000090: 784b 913a 50f9 d23c d02d 55bd 95a9 3cbd
000000a0: ae33 76bc 0eca 3dbb 7d4c 503d 64a2 703d
000000b0: 27d3 c23c 8ab4 8c3d 659b 4fbc 4da8 ce3c
000000c0: e7ea 873c ac29 0a3c f623 873d 5f3e 4b3d
000000d0: 793f 02bd 357f 003d 384f 2c3d cf68 593d
000000e0: 68c4 51bd 8136 093d 1070 bdbc 6204 3dbd
000000f0: 66c2 043d c327 8b3d 509c 973c e3a0 3abd
00000100: 4f0d 2b3d f082 81bc 6295 663d 6904 43bb
00000110: e3fd 66bd e331 183d 8afd ddbc 99ff cc3c
00000120: 9378 223d 6939 2a3c ffc9 063d ff2e 523c
00000130: d0fc 94ba 0a41 353d db3c 7639 e000 ad3c
00000140: 1ccd ddbc 8d81 7abc 3763 953c 6377 f93c
00000150: b5bc 333b 1111 91bc 8400 33bd e791 18bd
00000160: fd75 513d 367a 273d db72 d7ba a06f 65bc
00000170: b5ba 563d 08c5 ef3b 97c3 aebb 146f 3bbd
00000180: c61c 223d 613f 5cbd 8b1e 723d 9195 183d
00000190: 9ea7 20bd c2ef b93b e2d6 303c 704e 9738
000001a0: da5d f53c d33c aa3c d3d3 043c 2a54 4a3c
000001b0: eea5 21bd c02e 853d 19b2 933d fa37 c63c
000001c0: d1d2 2f3c 1064 633d da94 f43c d229 693c
000001d0: cd13 ae3c 656a edba 2a03 1bbd de1b 1ebd
000001e0: de67 be3c 9844 6ebd 3c42 583c ce23 bb3c
000001f0: 0b29 4c3c af21 d53c 0366 983c 4456 003d
00000200: be4c 603d 538b 8bbc 1912 6e3d c29e 7ebc
00000210: 15ad 363d aa26 9ebc 3563 0dbd c5a7 663d
00000220: fefa b53c 9d61 593d 8100 7cbc edfc 01bd
00000230: 2b10 243b 57e7 353c f628 af3c b86a 433d
00000240: 1aca 013d 3859 4a3d eb05 5d3c 18e0 79bb
00000250: 8eb1 503d 7f9e 113d edc5 343c 865f b63c
00000260: 8592 173b d61e deba 39ed 02bd a5da 65bd
00000270: 1e5d 3bbd 8b79 9dbc c8de 843d c2bc 413d
00000280: 59d7 483d d7b6 cfbc 6d1e eebc bb19 23bd
00000290: c197 303c e037 d7bc bf32 7abd caa6 07bd
000002a0: 780f 4d3c 3606 53bd 9c82 68bc c08a c0bc
000002b0: c5d7 69bb 8a3e af3c 1155 35bd 3ec8 15bd
000002c0: 1331 933c f84b d7bc 699f 053d 89db 4dbd
000002d0: 1ab2 44bb b068 533d e57e 333d 93dd c5bc
000002e0: da44 893d e8e4 f43c 0338 fc3c 70aa c73c
000002f0: 6af8 1e3d 8858 1abd 5c4b abbb 1a3c 263d
00000300: 3325 aa3c bb1d e73c 6ef7 963c 4f94 5e3d
00000310: 7995 1ebd 65c5 a13c b170 483d b575 aa3c
00000320: d493 f83c c0e1 6e3d a313 db3b 27d7 0dbd
00000330: e361 633d 0ff4 f93c 77d3 fb3c 510d 39bd
00000340: 28fc 443d 7b7d a5bb 91aa f2bc f20e bb3a
00000350: 2214 643d 61bc 1d3d ec6e c7bc 5b6b 823c
00000360: 05e4 0abd 1f9a 2f3d 22ee 153d 52cd 253c
00000370: 2ecd 08bc 1119 0c3d de15 60ba 3a03 ae3c
00000380: f575 21bd 457e eb3b 4eec 403c a92b d4bc
00000390: dc70 803d 0bed 4e3d 99b7 9ebc d9ec 5c3d
000003a0: 9018 62bc 1489 30bd 8cc0 d4bc 12aa 183c
000003b0: 5693 a8bc f984 083c 4418 dd3b f75a 803c
000003c0: 0e5c 31bd bc37 b8bb 63ea 953d 7e91 153d
000003d0: 0032 463c 5c02 713c 6bf8 df3c d7b1 d23c
000003e0: 0a39 01bd f4b4 c33c f402 2ebd 0990 dcbc
000003f0: a16d 1b3d f3f6 583b ddb4 a8ba 1b9b 67bc

network.2.weight f4 [128, 256]
0.04359257 -0.019813782 -0.03496108 -0.017332722 0.064197026 -0.075468026 0.04895369 0.013518773
0.03839238 0.06630715 -0.04075193 -0.048615407 -0.036075488 0.020724248 -0.027298009 0.053541448
0.0388486 -0.018878764 0.018266786 0.069115646 0.056249917 0.018573344 -0.024952611 -0.033687916
-0.029652247 -0.060557265 0.05659807 0.0037016857 0.017024398 0.047770344 -0.012780697 0.008528263
-0.022039266 0.0020243458 -0.006337677 0.031779855 0.046455234 -0.05630288 -0.0018187325 0.0360432
-0.039726496 0.030342687 0.058989353 0.036027268 0.040995754 -0.04746417 0.039691787 0.06051089
0.053458866 -0.04201138 0.021626454 0.057897978 -0.007935879 0.04953042 0.04736001 -0.06915735
0.065790944 0.04112629 -0.03727161 -0.015757142 0.024531452 -0.04190689 0.0068822806 0.023010062
-0.050137036 0.026565215 -0.0064728963 -0.012931892 0.033181358 0.05575867 0.05149374 0.044071082
0.017424576 0.0459672 0.015406558 -0.043713763 -0.029621547 -0.04188915 0.0031377615 -0.029972019
0.02085658 -0.027520344 0.012105774 0.031526204 0.047674827 0.037999578 0.008362556 0.033699006
0.041232932 -0.042008694 0.04541117 0.061786238 0.05228121 0.040414996 0.044124402 0.006843489
0.025311034 -0.021230735 0.049777023 -0.01820006 -0.03635146 0.040018152 0.0042401613 -0.015390975
-0.0350929 0.036751427 0.072802424 0.03611475 -0.06811571 -0.0330657 -0.017987277 -0.027032811
0.0009399051 0.0115404185 0.014864934 -0.03453296 -0.031356674 0.017818606 0.06522595 0.040060364
0.040373683 -0.022896666 -0.0076720375 -0.03628533 -0.027395211 -0.028907733 0.039774463 -0.022172209
-0.022874894 -0.024418859 -0.055916794 -0.032313753 -0.0005567365 -0.0012032328 -0.013250675 0.04451119
0.039273042 -0.03571623 0.06690602 -0.054576375 0.03716272 -0.03402795 0.005509195 0.0067226873
0.047139723 -0.012602377 0.005908709 0.026510445 0.0011290249 0.06089344 0.078982554 0.06022797
-0.025869323 -0.037230473 0.039974805 0.048662737 0.015275525 0.008023414 -0.04060097 0.017063154
0.04746832 -0.006537829 0.0142185595 0.04673294 0.07267941 -0.059753098 -0.045503814 -0.010629894
0.026588747 -0.011597641 -0.037539393 -0.0031049808 0.031637322 0.052076995 -0.027090311 -0.05166298
0.05729045 0.04330178 0.024279185 -0.0760599 0.01619383 0.06401143 0.048245825 -0.01701531
0.006544442 -0.017980387 0.060455997 -0.04650642 0.0019170124 -0.06497352 -0.04811128 0.031902645
-0.004374234 0.015719615 0.059678193 0.0759523 0.044596948 -0.0013708787 -0.04593334 0.02322212
-0.04423531 0.04103499 0.026274992 -0.0044340994 0.054254297 0.02521735 -0.062811024 -0.027028874
0.043056663 0.047594775 0.07470567 0.012469133 -0.0030253092 -0.026281333 0.008489487 0.015415799
0.020466981 -0.012914161 -0.02520493 -0.006491093 0.06915112 0.05577714 -0.018432518 0.061538592
0.0676895 0.0045270706 -0.03827118 0.05703663 -0.018689753 0.06111834 -0.073700845 0.05275925
0.03752658 -0.016148858 0.060063194 0.009024019 -0.043557327 0.025494441 -0.026040807 0.03153978
-0.027760357 0.013978903 -0.02397428 0.07109141 -0.020808456 -0.03906196 -0.047549367 -0.055965565
-0.031617604 0.055256214 0.055020846 -0.048144225 0.035739888 0.046995442 -0.07300933 0.020321965
00000000: 1f8e 323d 8350 a2bc 5933 0fbd 5afd 8dbc
00000010: bb79 833d fb8e 9abd aa83 483d d87d 5d3c
00000020: 5441 1d3d 0bcc 873d 7feb 26bd f320 47bd
00000030: e4c3 13bd e6c5 a93c 13a0 dfbc 474e 5b3d
00000040: b61f 1f3d a3a7 9abc 3aa4 953c 818c 8d3d
00000050: 5066 663d 2027 983c 6b69 ccbc 57fc 09bd
00000060: 45e9 f2bc e50a 78bd 61d3 673d fb97 723b
00000070: c076 8b3c d6aa 433d 2166 51bc 21ba 0b3c
00000080: b18b b4bc e3aa 043b 4aac cfbb 982b 023d
00000090: d847 3e3d d99d 66bd 8962 eeba 09a2 133d
000000a0: 40b8 22bd 3a91 f83c d29e 713d 5491 133d
000000b0: 2aeb 273d ca69 42bd db93 223d 44da 773d
000000c0: aff7 5a3d 2014 2cbd f629 b13c 6e26 6d3d
000000d0: 7d05 02bc 69e0 4a3d 92fc 413d 5ea2 8dbd
000000e0: 67bd 863d 0a74 283d 1eaa 18bd 1f15 81bc
000000f0: 2ff6 c83c 8fa6 2bbd c184 e13b 997f bc3c
00000100: 7e5c 4dbd 4b9f d93c 971a d4bb 49e0 53bc
00000110: 2de9 073d 3463 643d 1aeb 523d e183 343d
00000120: fcbd 8e3c 1a48 3c3d ca6b 7c3c 340d 33bd
00000130: e3a8 f2bc f593 2bbd e7a2 4d3b e187 f5bc
00000140: 6bdb aa3c 5872 e1bc 4c57 463c 9f21 013d
00000150: ae46 433d 72a5 1b3d 1a03 093c f807 0a3d
00000160: dde3 283d 4f11 2cbd 1001 3a3d 9113 7d3d
00000170: d224 563d 328a 253d cabb 343d 593f e03b
00000180: 1659 cf3c 14ec adbc fee2 4b3d 4b18 95bc
00000190: 45e5 14bd 13ea 233d 0df1 8a3b 6e2a 7cbc
000001a0: 93bd 0fbd aa88 163d 7019 953d 0fed 133d
000001b0: 4080 8bbd e66f 07bd 0e5a 93bc ea73 ddbc
000001c0: f763 763a 0614 3d3c 0d8c 733c 6f72 0dbd
000001d0: db6f 00bd 53f8 913c 2f95 853d 5616 243d
000001e0: e05e 253d ca91 bbbc b765 fbbb ed9f 14bd
000001f0: ec6b e0bc e9cf ecbc 8cea 223d 7ea2 b5bc
00000200: 2164 bbbc 0f0a c8bc 0209 65bd 6d5b 04bd
00000210: f4f1 11ba cbb5 9dba 5c19 59bc 5e51 363d
00000220: c5dc 203d 2e4b 12bd 0606 893d 7a8b 5fbd
00000230: f037 183d e460 0bbd 7a86 b43b fd49 dc3b
00000240: 9515 413d 337a 4ebc d89d c13b 6f2c d93c
00000250: cafb 933a 666b 793d 9bc1 a13d 9bb1 763d
00000260: e7eb d3bc fb7e 18bd 9fbc 233d 9452 473d
00000270: 3246 7a3c a374 033c 344d 26bd 07c8 8b3c
00000280: 246e 423d 493b d6bb f6f4 683c 0a6b 3f3d
00000290: f1d8 943d aabf 74bd 3562 3abd 0229 2ebc
000002a0: a5d0 d93c 0804 3ebc e8c2 19bd ef7c 4bbb
000002b0: 2396 013d b04e 553d 80ec ddbc 909c 53bd
000002c0: 64a9 6a3d 355d 313d 24e5 c63c 4bc5 9bbd
000002d0: eca8 843c 6d18 833d 6a9d 453d b163 8bbc
000002e0: c272 d63b 9b4b 93bc b5a0 773d 847d 3ebd
000002f0: 4344 fb3a d610 85bd 5510 45bd 59ac 023d
00000300: bc55 8fbb 6cc6 803c 1f71 743d e18c 9b3d
00000310: 4aab 363d 0eaf b3ba 9924 3cbd 513c be3c
00000320: 1630 35bd 4e14 283d a73e d73c ec4b 91bb
00000330: c139 5e3d 9e94 ce3c 11a3 80bd a86b ddbc
00000340: 2f5c 303d bdf2 423d 49ff 983d 564b 4c3c
00000350: 4444 46bb f34b d7bc 7d17 0b3c 8c92 7c3c
00000360: 5faa a73c eb95 53bc 927a cebc 3cb3 d4bb
00000370: 1a9f 8d3d 9276 643d cbff 96bc e40f 7c3d
00000380: cba0 8a3d d257 943b 3ec2 1cbd 3e9f 693d
00000390: 411b 99bc 3957 7a3d 78f0 96bd 151a 583d
000003a0: 79b5 193d 9c4a 84bc d304 763d 7bd9 133c
000003b0: 2b69 32bd b8d9 d03c 8853 d5bc db2f 013d
000003c0: b069 e3bc c507 653c b665 c4bc 6098 913d
000003d0: 7f76 aabc 6fff 1fbd 20c3 42bd 263c 65bd
000003e0: 7681 01bd 5754 623d 8a5d 613d e132 45bd
000003f0: fd63 123d 4b7e 403d ea85 95bd 407a a63c

network.2.bias f4 [128]
0.04332293 0.017804686 0.027912702 -0.039963983 -0.019612083 0.045965422 0.003645036 0.08074114
0.03692533 0.03247663 -0.031702295 -0.027821805 -0.06505487 0.011119393 -0.061452672 -0.028997272
0.0028513165 -0.056172468 -0.007818386 0.014515129 -0.03745894 0.00013929569 0.0605894 0.025475422
0.0054242625 -0.058047306 0.0687818 0.04093461 0.038768943 -0.03573314 -0.007739579 0.05360335
0.024655623 0.057633813 -0.008228986 -0.030860726 0.03875415 0.023854889 -0.025669923 0.014962122
0.030508451 0.006983854 -0.003314356 0.048929848 -0.011068108 0.028637268 -0.06568755 -0.015191364
0.011542138 -0.032442648 0.07257313 -0.031884097 -0.031299647 -0.021221949 0.04993039 -0.036949165
0.0030802498 -0.0049579274 0.005288667 -0.045427825 0.038572226 0.044504862 -0.06889442 0.00929642
-0.032180645 -0.028950851 -0.012761789 0.025295028 0.014388827 0.018964225 -0.01992363 -0.043953095
-0.019577624 0.031392947 -0.03428025 -0.034415636 -0.025315018 0.005541471 0.016212452 0.013681073
-0.04384499 -0.009577356 0.020533552 -0.004219854 -0.035997074 -0.0056132926 0.0057140607 -0.00027091493
-0.03861335 0.033099554 0.075669035 0.03116738 -0.006359406 -0.0029673115 -0.044778682 -0.06772046
-0.032885894 0.04428581 -0.0139470985 -0.03000541 0.031861197 0.000731433 0.031451657 -0.02919317
0.052921977 0.0153437 0.05978809 0.01427484 0.015531176 0.01765867 -0.035802428 0.041613534
-0.020506427 -0.03135309 -0.03515659 0.032873083 0.05276843 0.041160855 -0.033577565 -0.05912099
-0.044876497 -0.013973752 0.06735586 0.055634737 -0.036847614 0.042956177 -0.035764903 0.051024105
00000000: 6273 313d 22db 913c 2ea9 e43c 46b1 23bd
00000010: 85a9 a0bc 3d46 3c3d 8ee1 6e3b 9c5b a53d
00000020: 043f 173d 3706 053d 44da 01bd 8eea e3bc
00000030: 7d3b 85bd 1d2e 363c ccb5 7bbd b08b edbc
00000040: 27dd 3a3b 1a15 66bd b018 00bc ddd0 6d3c
00000050: 8c6e 19bd e70f 1239 972c 783d d5b1 d03c
00000060: 03be b13b 03c3 6dbd 79dd 8c3d 0dab 273d
00000070: 2fcc 1e3d ea5c 12bd 4b9c fdbb 308f 5b3d
00000080: 97fa c93c 6f11 6c3d ded2 06bc a2cf fcbc
00000090: acbc 1e3d 546b c33c bb49 d2bc b023 753c
000000a0: dcec f93c d0d8 e43b ab35 59bb aa6a 483d
000000b0: 0257 35bc b498 ea3c 3287 86bd 33e5 78bc
000000c0: 3c1b 3d3c 95e2 04bd 39a1 943d e698 02bd
000000d0: 0f34 00bd a7d9 adbc cf83 4c3d 0258 17bd
000000e0: 04de 493b 1c76 a2bb 8e4c ad3b 8712 3abd
000000f0: e9fd 1d3d bb4a 363d 8518 8dbd 0350 183c
00000100: dacf 03bd 562a edbc d316 51bc 8537 cf3c
00000110: 1dbf 6b3c dd5a 9b3c e136 a3bc 2908 34bd
00000120: 4161 a0bc e495 003d 7369 0cbd 69f7 0cbd
00000130: 7161 cfbc 3a95 b53b facf 843c 9426 603c
00000140: ce96 33bd 58ea 1cbc fb35 a83c b346 8abb
00000150: ab71 13bd b6ef b7bb 043d bb3b 9609 8eb9
00000160: 0829 1ebd 6693 073d 5ef8 9a3d bc52 ff3c
00000170: 9062 d0bb 3a77 42bb da69 37bd 06b1 8abd
00000180: 5cb3 06bd 0a65 353d 5f82 64bc e8cd f5bc
00000190: e380 023d a3bd 3f3a 74d3 003d 8426 efbc
000001a0: b7c4 583d 2464 7b3c 5be4 743d 05e1 693c
000001b0: 7976 7e3c eaa8 903c 91a5 12bd f472 2a3d
000001c0: 18fd a7bc 196c 00bd 5b00 10bd eda5 063d
000001d0: b623 583d 4998 283d a188 09bd da28 72bd
000001e0: 6bd0 37bd 2af2 64bc def1 893d 40e1 633d
000001f0: 86ed 16bd d1f2 2f3d 387e 12bd a7fe 503d

network.4.weight f4 [64, 128]
0.10204456 -0.0021760052 -0.01567135 0.0041041803 0.021217717 -0.008333755 -0.014709754 0.06715208
0.016257083 -0.03762825 -0.013603225 -0.046944164 -0.07095631 0.0331876 -0.0009615136 -0.009442146
-0.056864273 -0.025551446 0.037515905 -0.0956557 0.037120335 0.07271423 -0.026813848 0.09548667
0.080288045 -0.014342212 0.034209687 -0.08051309 0.020303277 -0.06378259 0.03280406 0.056827884
0.04004643 -0.054790474 0.03661508 0.018592078 0.035284627 0.08852178 0.030829592 0.046014495
0.02829717 -0.039954055 -0.039755993 0.07122971 0.004596334 -0.043932028 0.03246163 0.09094248
0.10693518 -0.023612099 -0.054833293 0.07924988 -0.03759901 -0.015696526 0.043650106 -0.07259879
0.06561364 -0.064946 -0.09570532 0.035922993 0.026889985 0.028941698 -0.057796583 -0.034891807
0.016487129 -0.04971264 0.022126622 -0.05042683 -0.04686488 0.018023139 0.06095877 -0.015685096
0.0038703764 0.06751444 -0.046801884 0.026359495 -0.04813637 -0.04473893 -0.0827509 -0.1035097
0.06224562 0.06838629 -0.009153897 -0.01908661 -0.06635404 0.03791636 -0.06955969 -0.014780318
0.09220406 -0.08654043 0.08808511 0.023906622 -0.029622592 -0.07401605 -0.052989244 -0.02802181
-0.04764919 0.036006533 -0.014011213 0.024754148 -0.08705065 0.1059904 0.041755073 0.06772394
0.019228863 0.030836634 0.09713533 -0.0054711 -0.066895224 0.10506361 0.044860117 0.05874214
-0.019459821 -0.009603926 0.0754677 0.07823 0.039199498 -0.096776605 -0.06283778 0.023824587
0.023407606 0.07802414 0.09051556 0.06272143 -0.047267687 0.10029902 -0.0765086 -0.04699069
0.023145765 -0.025961298 -0.030322818 0.034390755 0.08720424 0.014668254 -0.04291033 0.0021633315
0.039731093 0.046180587 0.09326802 0.016084565 -0.044585522 0.087932944 -0.050770063 0.08373954
0.03652895 -0.004986036 -0.0045624687 -0.05935439 -0.067478865 0.040953603 0.053269807 -0.06947161
0.06263551 0.048667412 0.06951213 0.037890356 0.08013612 -0.040530797 0.06401001 0.021444762
-0.07109482 0.06422933 0.045859396 0.075643666 -0.04328216 -0.07465482 -0.026868803 -0.03910655
-0.092902526 0.015905516 0.04026121 0.0407574 -0.04579794 -0.04125119 -0.08589192 0.029069688
0.06345064 0.006282363 -0.039290365 -0.055139273 0.061565205 -0.059910093 -0.051253784 -0.018247517
0.030640608 -0.04419711 0.068261154 -0.044669315 0.012565163 -0.012831523 -0.08829808 -0.0151926605
0.03955076 -0.047381278 -0.054925844 -0.0030619162 0.063223064 0.051956914 -0.051258083 -0.014274789
0.057747398 -0.055228457 0.08828316 0.015082823 0.0060880375 -0.028892165 0.0602176 0.10150655
-0.013708456 -0.018787358 0.018729137 -0.05318855 0.025913293 0.056831285 -0.04557349 -0.038967084
-0.10027552 -0.025093695 -0.10074208 -0.07469182 -0.019716267 -0.036168616 -0.01001212 0.014459276
-0.03643274 -0.054127946 -0.04091088 -0.086859345 0.06413758 -0.071255215 0.02884076 0.030253706
-0.032085657 0.026446957 -0.051453542 0.052553516 0.040072568 0.029978873 0.042204347 -0.090480596
-0.06548337 0.026006667 -0.02726425 -0.040229265 0.0055787503 0.08727316 0.009022879 -0.013065981
-0.05082545 0.004873975 0.05348043 -0.017724836 -0.07381551 -0.09952273 0.062295873 -0.05842212
00000000: bdfc d03d 4f9b 0ebb 3461 80bc 5c7c 863b
00000010: c7d0 ad3c 4d8a 08bc 2e01 71bc 0887 893d
00000020: 932d 853c 1420 1abd 10e0 5ebc 8648 40bd
00000030: 8b51 91bd b9ef 073d 160e 7cba 3bb3 1abc
00000040: 83ea 68bd 4451 d1bc 47aa 193d 23e7 c3bd
00000050: 7e0b 183d 33eb 943d b7a8 dbbc 848e c33d
00000060: 0f6e a43d 99fb 6abc 751f 0c3d 0ce4 a4bd
00000070: 0f53 a63c 72a0 82bd 8d5d 063d 5bc4 683d
00000080: ba07 243d fa6b 60bd b2f9 153d 6a4e 983c
00000090: 9d86 103d e84a b53d 578e fc3c b279 3c3d
000000a0: 77cf e73c dda6 23bd 2ed7 22bd e2e0 913d
000000b0: d89c 963b 12f2 33bd 7cf6 043d 0d40 ba3d
000000c0: d500 db3d 296e c1bc e098 60bd c34d a23d
000000d0: 6b01 1abd 0096 80bc 74ca 323d adae 94bd
000000e0: 7260 863d 6902 85bd 2701 c4bd fd23 133d
000000f0: 6348 dc3c 2417 ed3c 1cbc 6cbd b6ea 0ebd
00000100: 0410 873c 7b9f 4bbd e442 b53c 5d8c 4ebd
00000110: 63f5 3fbd 43a5 933c e7af 793d 087e 80bc
00000120: 24a6 7d3b 0345 8a3d 55b3 3fbd deef d73c
00000130: a42a 45bd 2b40 37bd 4e79 a9bd e5fc d3bd
00000140: 43f5 7e3d 1c0e 8c3d 3afa 15bc 865b 9cbc
00000150: a0e4 87bd 2f4e 1b3d 5075 8ebd 2629 72bc
00000160: 7bd5 bc3d 1c3c b1bd f765 b43d d2d7 c33c
00000170: 14ab f2bc ba95 97bd 400b 59bd ff8d e5bc
00000180: cc2b 43bd 967b 133d 498f 65bc 36c9 ca3c
00000190: 9c47 b2bd 7f11 d93d 5e07 2b3d d9b2 8a3d
000001a0: d985 9d3c 1c9d fc3c e3ee c63d ea46 b3bb
000001b0: 5d00 89bd 972b d73d 3ebf 373d 999b 703d
000001c0: 346a 9fbc c959 1dbc cf8e 9a3d 0d37 a03d
000001d0: a78f 203d d032 c6bd 18b1 80bd c82b c33c
000001e0: 4fc1 bf3c 1fcb 9f3d 3960 b93d 1874 803d
000001f0: c39b 41bd 9369 cd3d 8ab0 9cbd 4f79 40bd
00000200: 309c bd3c caac d4bc 8f67 f8bc 52dd 0c3d
00000210: 2398 b23d 1e53 703c bec2 2fbd aec6 0d3b
00000220: 12bd 223d db27 3d3d 4e03 bf3d c7c3 833c
00000230: 4f9f 36bd 3016 b43d 45f4 4fbd a37f ab3d
00000240: 619f 153d e761 a3bb c380 95bb 971d 73bd
00000250: 5c32 8abd f7be 273d 7131 5a3d 2247 8ebd
00000260: 0c47 803d 7b57 473d 605c 8e3d eb32 1b3d
00000270: 681e a43d 9f03 26bd ae17 833d edac af3c
00000280: 299a 91bd ab8a 833d 10d7 3b3d 11eb 9a3d
00000290: a248 31bd a0e4 98bd f71b dcbc 312e 20bd
000002a0: ae43 bebd 494c 823c f0e8 243d 3bf1 263d
000002b0: 9f96 3bbd 02f7 28bd 1ae8 afbd 8e23 ee3c
000002c0: 69f2 813d 48dc cd3b efee 20bd b8d9 61bd
000002d0: cc2b 7c3d 4964 75bd 7def 51bd d17b 95bc
000002e0: 0302 fb3c 0708 35bd 81cc 8b3d 2cf7 36bd
000002f0: 1dde 4d3c 4f3b 52bc a0d5 b4bd a3ea 78bc
00000300: faff 213d df12 42bd ecf9 60bd 6eaa 48bb
00000310: 187b 813d c6d0 543d fff3 51bd cee0 69bc
00000320: 8988 6c3d 3c37 62bd cdcd b43d f21d 773c
00000330: 297e c73b 43af ecbc bba6 763d abe2 cf3d
00000340: 6f99 60bc f2e7 99bc d96d 993c 3ddc 59bd
00000350: 1d48 d43c ecc7 683d 45ab 3abd f39b 1fbd
00000360: 405d cdbd 4b91 cdbc dd51 cebd 06f8 98bd
00000370: 0284 a1bc 8b25 14bd e009 24bc 99e6 6c3c
00000380: 7f3a 15bd 44b5 5dbd 2b92 27bd 50e3 b1bd
00000390: 905a 833d 41ee 91bd 7543 ec3c 9fd6 f73c
000003a0: 406c 03bd 4aa7 d83c f3c0 52bd 5b42 573d
000003b0: 2223 243d 4196 f53c 77de 2c3d e44d b9bd
000003c0: 251c 86bd ef0b d53c 4759 dfbc 71c7 24bd
000003d0: f3cd b63b 45bc b23d b3d4 133c b212 56bc
000003e0: 592e 50bd deb5 9f3b 4c0e 5b3d ad33 91bc
000003f0: 962c 97bd 93d2 cbbd f529 7f3d 084c 6fbd

network.4.bias f4 [64]
0.031693507 0.061734326 0.020999203 -0.038292155 -0.052763417 -0.06491286 -0.023432264 0.041971125
0.07495761 -0.06660843 0.06090518 0.057736177 -0.06108357 0.05658735 -0.025032884 0.046518285
0.075392805 0.03550727 0.05684052 -0.03648011 0.024472868 -0.0065056724 -0.04704054 0.08776356
0.05657926 -0.08705477 -0.015328456 0.007703388 0.008601417 -0.094081156 -0.0067096446 -0.06892545
-0.07758735 0.06718237 -0.012221809 0.0020698488 -0.012236589 -0.010717095 0.07399251 -0.057487648
-0.0076461216 -0.06660568 0.017615365 0.040211942 -0.087431595 0.07139868 -0.016258104 -0.005138486
-0.047559924 -0.028335346 -0.079042114 0.08435662 0.042006887 0.017719895 -0.044335008 0.010369423
-0.030900836 0.066858485 -0.07927935 0.090566285 -0.08746477 0.062247265 -0.013593124 -0.04001115
00000000: 0dd1 013d 22dd 7c3d 8506 ac3c 3cd8 1cbd
00000010: 741e 58bd 09f1 84bd 05f5 bfbc eae9 2b3d
00000020: 6083 993d 006a 88bd b677 793d c57c 6c3d
00000030: c432 7abd 23c8 673d c311 cdbc f589 3e3d
00000040: 8b67 9a3d 1270 113d 9bd1 683d 2b6c 15bd
00000050: 537b c83c 892d d5bb 95ad 40bd 62bd b33d
00000060: a7bf 673d c549 b2bd 3424 7bbc b46c fc3b
00000070: f5ec 0c3c 9fad c0bd 94dc dbbb c928 8dbd
00000080: 1ee6 9ebd e996 893d fb3d 48bc 4da6 073b
00000090: f97b 48bc c196 2fbc 6389 973d 2b78 6bbd
000000a0: 518c fabb 8f68 88bd 194e 903c 47b5 243d
000000b0: 560f b3bd 7939 923d b72f 85bc bf60 a8bb
000000c0: 32ce 42bd 871f e8bc d5e0 a1bd 2ac3 ac3d
000000d0: 6a0f 2c3d 5029 913c a098 35bd 83e4 293c
000000e0: c023 fdbc 1aed 883d 365d a2bd d17a b93d
000000f0: bb20 b3bd fdf6 7e3d b2b5 5ebc bbe2 23bd

actor.weight f4 [4, 64]
0.0012943576 -0.0575765 0.022033751 0.08057092 0.034680884 -0.06732731 -0.11255441 -0.05948481
-0.044991918 -0.07390887 -0.07310449 -0.033683185 0.025048068 0.04656178 0.05968587 0.12836838
0.075521536 -0.032539193 0.07853104 -0.040989187 0.056575257 0.033467527 0.00034053624 -0.04185619
-0.09230693 -0.11984439 -0.106695056 -0.05174322 0.013049181 0.055406984 -0.08361486 0.031475294
0.041501634 0.039331697 -0.103032 -0.039553296 -0.06511426 -0.09130751 0.078023255 -0.04354097
-0.013072632 -0.11177517 0.048657455 -0.11259289 0.026714275 -0.08720388 0.10455782 -0.041405343
0.1150047 0.09507223 -0.040944338 -0.03253764 -0.07846688 -0.0106938835 0.10842803 -0.08642725
-0.0569243 -0.054331586 -0.024035593 0.09865212 -0.025486851 -0.020873839 -0.027316073 0.0748343
0.03458731 0.093293115 0.027991831 0.101822995 0.064401194 0.03288615 0.03949739 -0.13100927
0.093510084 0.04404478 -0.114562616 -0.13971706 -0.08269052 0.10768633 -0.055461526 -0.01725144
-0.13785952 -0.019433545 -0.049281 0.08357054 -0.09016452 -0.07854577 0.07841626 -0.024574865
-0.10401566 0.0615661 -0.087591484 0.007969769 0.0036218828 -0.030296609 -0.0021012987 0.0213443
-0.05507145 0.07656825 -0.032075875 -0.00016888042 0.05761059 0.0029906658 -0.0053444877 -0.024486199
-0.095242254 -0.064296074 0.046174843 0.12827477 -0.033746745 0.03298654 -0.044199143 0.057930358
-0.10476511 -0.07726401 0.05697915 0.11752031 -0.034017928 -0.0069385804 -0.12103057 0.026614437
-0.03853092 0.10416629 0.11403415 -0.030274998 -0.10591874 0.07114134 0.082548074 0.046803463
-0.06252811 -0.018024996 -0.06200025 0.06583546 0.09726728 -0.07606343 -0.022373542 0.09511724
0.0211368 -0.058171086 -0.08011825 -0.04125562 0.08522257 -0.0007846466 -0.05910562 0.009078148
0.039754402 -0.051998034 0.055046834 -0.12000042 -0.073659055 0.045971297 -0.08518648 -0.10369373
0.094883606 -0.08475659 -0.11158169 0.06497152 -0.1222859 0.11258327 -0.11284144 -0.104966186
0.10804346 -0.049967214 -0.030254884 0.00936729 -0.0377869 -0.020390097 0.08447283 0.09664081
-0.07723172 -0.06825597 -0.12247148 0.050646767 -0.014767329 -0.09356306 -0.07519252 -0.008169438
0.070177406 0.1195814 -0.008230075 0.10260762 0.08129442 -0.045476645 0.075304165 0.07501693
0.09224752 -0.073562905 -0.024097098 0.032033928 0.10940606 -0.07635761 0.060333442 -0.058282856
0.023513148 -0.066011496 -0.1259008 0.08754258 -0.036967944 -0.104389176 -0.100408725 -0.060130473
-0.072960496 -0.10533155 0.095203176 0.042431716 0.06036481 -0.008596743 0.09419143 0.11501143
0.09644961 0.046523996 0.10895347 0.09548495 0.08241939 -0.034670584 -0.08690113 -0.03868347
0.08331064 -0.008331946 -0.07630053 0.07018112 -0.049260825 -0.0053737806 -0.020993816 -0.04423764
0.04528947 -0.09087288 0.12261397 0.080509864 0.033581395 -0.042792168 0.041926943 -0.016203523
-0.10987175 0.115496665 -0.0055732797 -0.018183617 -0.051319767 -0.07719316 0.008756526 0.11999859
0.10085916 -0.100851126 0.02203852 0.020007048 0.08017099 -0.033245366 0.03198424 -0.011283866
0.04902876 -0.0021491959 0.1186106 -0.12231862 -0.060668413 -0.026005596 0.08282636 0.07524732
00000000: 6fa7 a93a 56d5 6bbd 2080 b43c 5e02 a53d
00000010: 8b0d 0e3d e7e2 89bd ed82 e6bd 58a6 73bd
00000020: 7249 38bd 895d 97bd cfb7 95bd 61f7 09bd
00000030: 9b31 cd3c 91b7 3e3d 2c79 743d 0073 033e
00000040: 09ab 9a3d d147 05bd e2d4 a03d 47e4 27bd
00000050: 75bb 673d 3f15 093d 008a b239 6571 2bbd
00000060: 6a0b bdbd fa70 f5bd f082 dabd b3f0 53bd
00000070: 3bcc 553c 6ff2 623d 453e abbd 3dec 003d
00000080: 9efd 293d 461a 213d 7102 d3bd a302 22bd
00000090: a05a 85bd 6fff babd a8ca 9f3d 0458 32bd
000000a0: 982e 56bc 61ea e4bd 0a4d 473d 1a97 e6bd
000000b0: e5d7 da3c f397 b2bd 6922 d63d a698 29bd
000000c0: 9687 eb3d 3bb5 c23d 40b5 27bd 3046 05bd
000000d0: 3eb3 a0bd 6635 2fbc 840f de3d c500 b1bd
000000e0: 7429 69bd cc8a 5ebd 4be6 c4bc 1f0a ca3d
000000f0: cdc9 d0bc 9dff aabc f5c5 dfbc ba42 993d
00000100: 6cab 0d3d 7610 bf3d 204f e53c 9388 d03d
00000110: c6e4 833d a1b3 063d 04c8 213d 4b27 06be
00000120: 3782 bf3d 4d68 343d ce9f eabd fd11 0fbe
00000130: a659 a9bd a78a dc3d a02b 63bd e452 8dbc
00000140: 0c2b 0dbe 1933 9fbc e0da 49bd 0827 ab3d
00000150: 2da8 b8bd 9bdc a0bd b498 a03d 3a51 c9bc
00000160: 2a06 d5bd bc2c 7c3d 2a63 b3bd a293 023c
00000170: 1c5d 6d3b 9830 f8bc f1b5 09bb 3eda ae3c
00000180: 9a92 61bd d1cf 9c3d fe61 03bd 7e15 31b9
00000190: 15f9 6b3d 0cff 433b d020 afbb 4897 c8bc
000001a0: 5f0e c3bd a9ad 83bd d521 3d3d 765a 033e
000001b0: 073a 0abd e51c 073d 290a 35bd 6248 6d3d
000001c0: 178f d6bd 983c 9ebd f862 693d 7dae f03d
000001d0: 6256 0bbd 085d e3bb e0de f7bd 8506 da3c
000001e0: 99d2 1dbd 2355 d53d bd8a e93d 4603 f8bc
000001f0: edeb d8bd 8db2 913d f70e a93d fdb4 3f3d
00000200: bd0e 80bd 28a9 93bc f9f3 7dbd bed4 863d
00000210: 1134 c73d 25c7 9bbd b848 b7bc d4cc c23d
00000220: 1527 ad3c ce44 6ebd 0915 a4bd a7fb 28bd
00000230: 2c89 ae3d beb0 4dba bc18 72bd 83bc 143c
00000240: 83d5 223d e4fb 54bd ca78 613d c8c2 f5bd
00000250: 8fda 96bd 664c 3c3d 4076 aebd 615d d4bd
00000260: 5652 c23d dd94 adbd f184 e4bd ca0f 853d
00000270: 0871 fabd 0f92 e63d 6a19 e7bd 83f8 d6bd
00000280: e445 dd3d 6caa 4cbd 17d9 f7bc 4379 193c
00000290: 70c6 1abd 2209 a7bc 1700 ad3d 9eeb c53d
000002a0: aa2b 9ebd c9c9 8bbd 54d2 fabd fc72 4f3d
000002b0: abf2 71bc fd9d bfbd 89fe 99bd 1bd9 05bc
000002c0: 2cb9 8f3d 18e7 f43d 70d7 06bc f223 d23d
000002d0: b07d a63d b845 3abd 1239 9a3d 7aa2 993d
000002e0: 45ec bc3d 26a8 96bd 4767 c5bc 0236 033d
000002f0: 4910 e03d 6161 9cbd 3320 773d 01ba 6ebd
00000300: a59e c03c 0931 87bd 24ec 00be 8649 b33d
00000310: b36b 17bd fec9 d5bd 17a3 cdbd 5f4b 76bd
00000320: 506c 95bd 11b8 d7bd e2f9 c23d e1cc 2d3d
00000330: 1741 773d 5bd9 0cbc 70e7 c03d 1d8b eb3d
00000340: 6087 c53d f28f 3e3d ff22 df3d 9d8d c33d
00000350: 7fcb a83d be02 0ebd 38f9 b1bd 8f72 1ebd
00000360: c59e aa3d b782 08bc 7443 9cbd 1ebb 8f3d
00000370: b8c5 49bd 8a16 b0bb 39fb abbc 8732 35bd
00000380: 7481 393d 8f1b babd 081d fb3d 5be2 a43d
00000390: a58c 093d d746 2fbd 96bb 2b3d 40bd 84bc
000003a0: 7104 e1bd 8489 ec3d 0fa0 b6bb cff5 94bc
000003b0: ad34 52bd 7317 9ebd 8877 0f3c d2c1 f53d
000003c0: 3f8f ce3d 098b cebd 208a b43c d2e5 a33c
000003d0: b030 a43d 4b2c 08bd e801 033d f7df 38bc
000003e0: 62d2 483d 86d9 0cbb 1dea f23d 2f82 fabd
000003f0: 717f 78bd b009 d5bc dea0 a93d 441b 9a3d

actor.bias f4 [4]
0.035703428 -0.0759816 0.031893432 -0.013214066
00000000: c23d 123d 3e9c 9bbd b0a2 023d cf7f 58bc

critic.weight f4 [1, 64]
-0.1128275 0.10082262 -0.036948614 0.033943266 -0.023189548 -0.010871013 -0.080800116 0.12144431
0.014083434 0.10905503 -0.039170574 0.023159327 0.1089001 0.053024326 -0.054991342 0.06697626
0.07744689 -0.10183462 -0.04687946 -0.0016635584 -0.008109669 0.024996271 0.08204499 -0.07480564
-0.07635541 0.06503522 0.068616405 0.02457738 0.078239776 -0.0056442935 -0.003464179 0.05308328
0.044124182 0.12922102 -0.07222684 0.04002387 -0.046404947 0.048988663 0.12815459 -0.095431894
0.006982358 -0.08695803 0.08152199 -0.13323507 0.1028434 -0.054440144 -0.11533484 0.09096253
0.08864649 -0.12544517 -0.080981344 -0.008548366 0.11385154 -0.10117827 0.032605886 0.0277082
0.030463632 0.102756545 0.11246192 -0.123140484 0.03227992 -0.12364537 -0.104298204 0.050758768
00000000: 1b12 e7bd 177c ce3d 6e57 17bd 1808 0b3d
00000010: 02f8 bdbc 551c 32bc 887a a5bd cbb7 f83d
00000020: 34be 663c 3e58 df3d 5371 20bd a1b8 bd3c
00000030: 0407 df3d 0930 593d 9a3e 61bd d92a 893d
00000040: 7a9c 9e3d ab8e d0bd ad04 40bd c20b daba
00000050: 6bde 04bc fbc4 cc3c 3407 a83d b333 99bd
00000060: 3a60 9cbd 2f31 853d c286 8c3d 8056 c93c
00000070: 2d3c a03d c4f3 b8bb 4807 63bb da6d 593d
00000080: 8fbb 343d 8452 043e aaeb 93bd 12f0 233d
00000090: 1d13 3ebd 56a8 483d f53a 033e cc71 c3bd
000000a0: 44cc e43b 0d17 b2bd 00f5 a63d c66e 08be
000000b0: 8f9f d23d a1fc 5ebd ac34 ecbd 904a ba3d
000000c0: 4a8c b53d b374 00be 8cd9 a5bd 720e 0cbc
000000d0: ff2a e93d 8e36 cfbd c08d 053d 4ffc e23c
000000e0: de8e f93c 0672 d23d 6f52 e63d 1431 fcbd
000000f0: f337 043d c939 fdbd 4c9a d5bd 6de8 4f3d
