archived/ppo_2048_3000.pth (torch, 449893 bytes, 9 tensors)

network.0.weight f4 [256, 272]
0	0x3d34e2fc	0.04416178
1	0x3c60a742	0.013711752
2	0x3d4efc0d	0.050533343
3	0x3bfad61f	0.0076549198
4	0x3d24f3f1	0.040271703
5	0x3d7952b2	0.06086988
6	0x3cfa0676	0.030520659
7	0xbc41aaa0	-0.011820465
8	0x3d755c57	0.059902515
9	0xbcec1073	-0.028816437
10	0x3d51fb45	0.05126502
11	0x3cd0341d	0.025415475
12	0x3d1377f7	0.03600308
13	0x3d46ffba	0.048583724
14	0x3cfcc92c	0.030857645
15	0xbbbc8d51	-0.005754151
16	0xbd527529	-0.051381264
17	0x3c4a18e3	0.012335035
18	0x3d6a42a8	0.057192475
19	0xbd11a5e1	-0.035558585
20	0x3cf1fdbe	0.029539939
21	0x3d597f9a	0.053100206
22	0x3af1cde4	0.0018448201
23	0xbd24e91e	-0.04026138
24	0xbcb50cae	-0.022100773
25	0x3d698706	0.057013534
26	0xbc7f69b2	-0.015589165
27	0x3cf541be	0.029938575
28	0x3cb63277	0.02224086
29	0x3ceb769b	0.028743079
30	0x3c7ce98d	0.015436542
31	0x3d6b89a7	0.057504322
32	0x3ce72792	0.02821711
33	0xbc2a19b9	-0.010382109
34	0xbd5e1164	-0.054215804
35	0x3ce304e4	0.027712293
36	0xbba3d91a	-0.0050002458
37	0xbad6e594	-0.0016395324
38	0xbcc405e4	-0.02392859
39	0x3d4b5317	0.049639788
40	0x3ada85a4	0.0016671908
41	0xbb47b156	-0.003047069
42	0x3da2d1c7	0.07950168
43	0x3d6babf5	0.057537038
44	0xbb0a4ba7	-0.0021102221
45	0x3cd0df6f	0.025497166
46	0xbd1c7232	-0.038194843
47	0xbd497131	-0.049180213
48	0x3d38ba3d	0.045099486
49	0x3d13f1d9	0.036119316
50	0xbd268cf2	-0.04066176
51	0xbd9086b4	-0.070569426
52	0x3d59be33	0.053159904
53	0xbb442565	-0.0029929515
54	0xba60a2bf	-0.0008569173
55	0x3cc5d959	0.024151491
56	0x3d404270	0.04693836
57	0x3d2c7949	0.042107854
58	0x3bcad433	0.006189847
59	0x3d7045fe	0.0586605
60	0x3b3be95d	0.002867303
61	0x3c931999	0.017956542
62	0x3ce41741	0.02784312
63	0x3c777908	0.01510454
64	0x3d44577c	0.047934994
65	0x3d608fdb	0.05482469
66	0x3cee93d2	0.02912322
67	0x3d5d54d1	0.054035965
68	0xbd2a2494	-0.04153879
69	0xbcd0f493	-0.025507247
70	0xbd2e172b	-0.042502563
71	0xbca12303	-0.019670015
72	0xbc28bf7d	-0.010299561
73	0xbc7af228	-0.015316524
74	0xbc916176	-0.017746668
75	0x3c60ea2f	0.013727709
76	0x3d69b27a	0.057054974
77	0x3d435cee	0.047696047
78	0x3d11b8c8	0.03557661
79	0xbc7bf3be	-0.015377937
80	0x3d1fd987	0.03902581
81	0xbd146b69	-0.036235247
82	0xbd02ff0f	-0.031981524
83	0x3ce6978c	0.028148435
84	0xbcd139fa	-0.02554034
85	0x3c9dc04c	0.019256733
86	0x3c950c80	0.018194437
87	0x3d505341	0.050860647
88	0xbc72c8b0	-0.014818355
89	0xbd78c19b	-0.06073151
90	0x3c77aade	0.0151164215
91	0xbb76bb86	-0.0037648394
92	0x3cc641c8	0.024201289
93	0x3d52bf9c	0.051452264
94	0x3d4b390f	0.049614962
95	0x3d13d406	0.036090873
96	0xbd4c929a	-0.049944498
97	0x3cf57b6b	0.029966077
98	0x3c5a3943	0.013319316
99	0xbd3a5fce	-0.045501523
100	0x3d18ae5e	0.037275665
101	0x3cd478e3	0.02593655
102	0xbd8962d2	-0.067083016
103	0xbc02f9fb	-0.00799417
104	0xbd08325f	-0.033251163
105	0x3d34056c	0.043950483
106	0xbd2d7896	-0.042351328
107	0x3b88548a	0.0041604685
108	0x3c32b8fb	0.010908361
109	0x3d4131f0	0.047166765
110	0x3b7cbd69	0.0038565046
111	0x3d3bb92d	0.045830894
112	0x3c0898e0	0.0083372295
113	0xbd5084b0	-0.05090779
114	0xbd636585	-0.05551674
115	0x3c5681a4	0.013092432
116	0x3cecb7e4	0.02889628
117	0x3cdce97c	0.026966803
118	0x3d4a7315	0.049426157
119	0xba946228	-0.0011320757
120	0xbc65d610	-0.014028087
121	0xbcca8233	-0.024720287
122	0x3d3f770f	0.046744402
123	0xbd3d076f	-0.046149667
124	0xbd12ba17	-0.035822
125	0x3daba6bc	0.083814114
126	0x3a6a2b97	0.0008932887
127	0x3dcce906	0.10005383
128	0xbd440f96	-0.047866426
129	0x3d36722f	0.044542488
130	0x3d35ad01	0.044354443
131	0x3c5c9062	0.013462158
132	0x3d3787f6	0.044807397
133	0xbc05c6c2	-0.008165063
134	0x3d22607e	0.039642803
135	0xbca23635	-0.019801239
136	0xbd62254e	-0.055211358
137	0xbd095cd5	-0.033535797
138	0xbd64973e	-0.0558083
139	0xbca667b2	-0.020313118
140	0x3d7de13b	0.061982375
141	0x3c9b8d6a	0.01898833
142	0x3bbd2c66	0.005773115
143	0x3d1a28f2	0.037636705
144	0x3d7632c3	0.060107004
145	0x3b36db8f	0.0027901863
146	0x39d9aeed	0.00041519795
147	0x3d30a240	0.043123484
148	0x3cc2c179	0.023773896
149	0x3d48f2fb	0.04905985
150	0xbd4f6bcf	-0.050639924
151	0x3d49af4d	0.049239445
152	0xbd290dc1	-0.041272882
153	0xbb6c23eb	-0.003603215
154	0xbcf3fc35	-0.029783348
155	0xbb7d4db5	-0.0038651053
156	0x3d30a6ef	0.04312795
157	0xba81692f	-0.0009873266
158	0x3d865aec	0.06560311
159	0x3c18858a	0.009309182
160	0xbc80945c	-0.015695743
161	0x3ddc05ef	0.10743319
162	0x3d4d42b5	0.050112445
163	0xbcdbddcd	-0.026839161
164	0xbce262cc	-0.027635
165	0xbd763187	-0.060105827
166	0xbc06a4eb	-0.00821803
167	0x3c9f805f	0.019470392
168	0x3d6d1536	0.057881556
169	0x3ca770d2	0.02043954
170	0xbd50bb28	-0.050959736
171	0x3ca4c0da	0.02011149
172	0xbd0ff290	-0.035143435
173	0x3d2b50fc	0.04182528
174	0x3c30d24f	0.010792329
175	0xbc4dd418	-0.012562774
176	0x3c950668	0.018191531
177	0x3cdb7af0	0.02679202
178	0xbcca2602	-0.024676327
179	0xbca5dd13	-0.020247018
180	0x3d497c97	0.049191084
181	0x3d5df4c6	0.054188512
182	0x3d208ee6	0.03919878
183	0x3d10c81f	0.0353471
184	0xbcd07a16	-0.02544884
185	0x3d250da0	0.040296197
186	0xbd501a24	-0.05080618
187	0xbcde05ec	-0.027102433
188	0xbc599789	-0.013280758
189	0x3c973773	0.018459057
190	0x3b2edf28	0.0026683304
191	0x3bb97320	0.005659476
192	0x3bf500e4	0.007476913
193	0x3d01d3c1	0.031696085
194	0x3d907461	0.070534475
195	0x3da06b8d	0.07833014
196	0xbd72c2df	-0.059267875
197	0x3cabee3a	0.020987619
198	0xbd6ed6c3	-0.05831028
199	0xbca0a415	-0.01960949
200	0xbd252dfb	-0.040327054
201	0x3d482642	0.04886461
202	0x3d778f1a	0.060439207
203	0xbd6c0c40	-0.05762887
204	0xbc9efec4	-0.019408591
205	0xbd241d05	-0.040066738
206	0xbc3a27a7	-0.011361993
207	0x3d72b1bb	0.05925153
208	0x3d7e1e4d	0.062040616
209	0xbb3228d5	-0.0027184982
210	0x3d86d899	0.065842815
211	0x3cfd6f4e	0.030936863
212	0x3ccc7b35	0.024961093
213	0x3cad7965	0.02117605
214	0x3d46a5f2	0.0484981
215	0x3d381693	0.044943403
216	0xbd56b73a	-0.052420832
217	0x3d1b9471	0.03798336
218	0x3ca65a12	0.02030662
219	0x3c88ec76	0.016714316
220	0xbc3ac032	-0.011398362
221	0xbcf09efe	-0.029372688
222	0x3c4efcae	0.012633486
223	0x3b86bcf6	0.0041118814
224	0xbc8ef976	-0.017452937
225	0xba1753fa	-0.00057727064
226	0xbcfce9c3	-0.030873185
227	0x3d769c5d	0.060207713
228	0x3d432439	0.047641966
229	0x3da9563d	0.08268402
230	0x3c4bd2a1	0.012440355
231	0xbd2437e4	-0.040092364
232	0x3d72128b	0.059099715
233	0x3d7775e7	0.060415175
234	0xbc4606f2	-0.012086617
235	0xbbc1eebd	-0.0059183524
236	0xbcc092c3	-0.023507481
237	0xbd165c79	-0.036709283
238	0x3b6871d6	0.0035468242
239	0x3d0ed857	0.034874287
240	0xbcc277e2	-0.023738805
241	0x3c05bcdc	0.008162703
242	0xbd459172	-0.04823441
243	0xbc0d1056	-0.008609852
244	0x3b84d66b	0.004053881
245	0x3c1d1a8f	0.009588852
246	0x3c8c715e	0.017143901
247	0xbd1b2753	-0.0378793
248	0xbd42ed34	-0.047589496
249	0x3c0fe011	0.008781449
250	0xbce3cfb1	-0.027808996
251	0x3c5b80ce	0.013397409
252	0xbd32ad2a	-0.043622173
253	0xbd382368	-0.04495564
254	0x3cd70289	0.026246326
255	0x39df9960	0.00042648148

network.0.bias f4 [256]
0	0x3d8b2824	0.067947656
1	0xbb36a969	-0.0027871972
2	0x3d97b604	0.074077636
3	0xbb917521	-0.0044390117
4	0x3d87ee76	0.0663728
5	0x3c8e575f	0.017375646
6	0xbd4b7c02	-0.04967881
7	0x3d04055c	0.032231674
8	0xbc1f3bde	-0.009718863
9	0xbcd55a1b	-0.026043942
10	0x3d36ce89	0.04463056
11	0xbd635408	-0.05550006
12	0x3c83531b	0.016030839
13	0xbb1fe224	-0.0024396265
14	0x3d781ca0	0.060574174
15	0x3d36e840	0.044655085
16	0xba423026	-0.00074076874
17	0xbb7e760a	-0.003882768
18	0xbd4f62e1	-0.050631408
19	0x3d220423	0.039554726
20	0x3cf5f8e6	0.03002591
21	0xbc3d8100	-0.0115664005
22	0x3d509fb5	0.05093356
23	0x3d17f7f2	0.037101693
24	0xbca7245d	-0.020403082
25	0x3c80417b	0.015656224
26	0x3c0803f9	0.008301728
27	0x3cf13b77	0.0294473
28	0x3cc63c18	0.024198577
29	0x3cf8fe2a	0.030394632
30	0x3c82bbfc	0.015958779
31	0x3d78966f	0.06069034
32	0x3c2f5fac	0.010703962
33	0xbcdfd6cd	-0.027324105
34	0xbc937f7a	-0.018005121
35	0x3c09d224	0.008411918
36	0x3609f682	2.0558077e-06
37	0x3cd5c835	0.026096443
38	0xbd50b59e	-0.050954454
39	0xbd3dccc2	-0.04633785
40	0xbc7b31f0	-0.01533173
41	0xbb08d90e	-0.0020881328
42	0x3d527c9c	0.051388368
43	0x3d728dd0	0.059217274
44	0x3cc52370	0.02406475
45	0x3d8b0dea	0.06789763
46	0xbc67c567	-0.0141461855
47	0x3cd77d88	0.026304975
48	0x3c7ddaa2	0.015494021
49	0x3c01c589	0.007920631
50	0x3d87f7d3	0.066390656
51	0x3d50f8a5	0.051018376
52	0xbcf70c75	-0.030157307
53	0x3d0591ca	0.03260974
54	0x3d2a40f6	0.041565858
55	0x3d54a1c5	0.051912088
56	0xbd45efc5	-0.048324365
57	0x3d0b2740	0.03397298
58	0xbcb6b01d	-0.022300774
59	0xbd35faac	-0.044428512
60	0x3d0a9caa	0.033840813
61	0x3d8a3cda	0.06749888
62	0x3c9bc978	0.019016966
63	0xbd3a70b1	-0.045517627
64	0x3d27a9a4	0.040933266
65	0xbc88aa7c	-0.016682856
66	0x3d63715f	0.05552804
67	0xbb13dead	-0.0022563145
68	0xbd60d021	-0.054885987
69	0x3d1d0bab	0.038341206
70	0xbccd3271	-0.025048466
71	0x3cc77f6a	0.024352748
72	0x3d289be8	0.04116431
73	0x3c300fe7	0.010745979
74	0x3d0336dd	0.032034744
75	0x3c405e54	0.01174124
76	0xb9b7dd94	-0.0003506957
77	0x3d366179	0.04452655
78	0x3ac36a52	0.0014909005
79	0x3ca80320	0.020509303
80	0xbcdf6145	-0.027268061
81	0xbc756c4c	-0.014979433
82	0x3c92fbb3	0.017942285
83	0x3cfbf750	0.030757576
84	0x3b57cd5c	0.00329288
85	0xbc83fa6f	-0.016110627
86	0xbd2e4390	-0.0425449
87	0xbd1c02e8	-0.03808871
88	0x3d52fa4e	0.05150824
89	0x3d27f7cb	0.0410078
90	0xbaa7441f	-0.001276139
91	0xbc6a6ecf	-0.014308645
92	0x3d5d4a94	0.0540262
93	0x3bf22085	0.0073891305
94	0xbb8bd224	-0.004266994
95	0xbd3bbdf7	-0.04583546
96	0x3d234318	0.039858907
97	0xbd55a2fd	-0.05215739
98	0x3d70f47f	0.05882692
99	0x3d152e2f	0.036420997
100	0xbd1c9d41	-0.038235907
101	0x3ba70246	0.0050967066
102	0x3c3f763c	0.011685904
103	0x3a8d571a	0.0010783405
104	0x3cfea4ac	0.031084381
105	0x3cb5e099	0.022201823
106	0x3c0da979	0.008646362
107	0x3c50ad51	0.012736634
108	0xbd254d22	-0.040356763
109	0x3d86f3c5	0.06589464
110	0x3d95abd2	0.07308163
111	0x3cc8d09f	0.02451354
112	0x3c343d15	0.011000891
113	0x3d683694	0.056692675
114	0x3cf734a9	0.030176478
115	0x3c641538	0.013921075
116	0x3cabfca7	0.020994497
117	0xba6389fc	-0.0008679924
118	0xbd1ea36b	-0.038730066
119	0xbd195ec0	-0.037443876
120	0x3cb68c46	0.022283684
121	0xbd8018bb	-0.06254717
122	0x3c77a23a	0.015114361
123	0x3cbe1d20	0.023207247
124	0x3c561ed8	0.013068877
125	0x3ce49de8	0.027907327
126	0x3ca5607f	0.020187614
127	0x3d0a32f9	0.033740018
128	0x3d60d813	0.054893564
129	0xbc82e694	-0.015979089
130	0x3d6ca81f	0.05777752
131	0xbc713bb8	-0.014723711
132	0x3d3ac8c2	0.045601614
133	0xbc9cce12	-0.01914123
134	0xbd0bbe5c	-0.034117088
135	0x3d697dd9	0.057004783
136	0x3cc890fe	0.0244832
137	0x3d5a0d13	0.053235125
138	0xbc833c15	-0.01601986
139	0xbd08c5f8	-0.033391923
140	0x3ae597c1	0.001751654
141	0x3c370c6c	0.011172395
142	0x3cbf55dd	0.023356372
143	0x3d44d0eb	0.048050802
144	0x3d058d84	0.032605663
145	0x3d47637a	0.048678853
146	0x3c6f4345	0.014603441
147	0xba8a8d97	-0.0010570762
148	0x3d53edf0	0.051740587
149	0x3d150df6	0.036390267
150	0x3c1e312e	0.00965528
151	0x3cb0300a	0.021507282
152	0x3b1bdf24	0.0023784125
153	0xba6c9d30	-0.00090261083
154	0xbd01f764	-0.03173007
155	0xbd684c48	-0.056713372
156	0xbd358cb5	-0.04432364
157	0xbc9edf28	-0.019393519
158	0x3d84b80f	0.06480419
159	0x3d435058	0.047684044
160	0x3d479a6e	0.04873126
161	0xbcd199ac	-0.025585972
162	0xbcef2d4b	-0.029196402
163	0xbd1ec62e	-0.038763218
164	0x3c3bff5a	0.011474455
165	0xbcd20add	-0.025639946
166	0xbd79ba43	-0.06096865
167	0xbd034508	-0.032048255
168	0x3c55d8f3	0.013052213
169	0xbd5a78a5	-0.05333771
170	0xbc545e85	-0.012961988
171	0xbcc1b675	-0.023646573
172	0xbb0a9e8c	-0.002115163
173	0x3cad4d6e	0.021155085
174	0xbd2b55f5	-0.041830022
175	0xbd1c71c1	-0.03819442
176	0x3c909c65	0.0176527
177	0xbcd75756	-0.026286762
178	0x3d040bba	0.032237746
179	0xbd520c2f	-0.05128115
180	0xbb67f184	-0.0035391757
181	0x3d602237	0.05472013
182	0x3d364357	0.044497814
183	0xbcd1a368	-0.025590613
184	0x3d8abbf8	0.067741334
185	0x3ceb8383	0.028749233
186	0x3cfcd53e	0.0308634
187	0x3cc440bd	0.02395665
188	0x3d20e8cb	0.03928451
189	0xbd10cfaf	-0.035354313
190	0xbb8cbdf0	-0.0042951033
191	0x3d2911f6	0.041276895
192	0x3cb84ae0	0.02249664
193	0x3cdc6c9a	0.026907254
194	0x3c9e1b26	0.019300055
195	0x3d65abb8	0.056071967
196	0xbd17eea4	-0.03709282
197	0x3ca7e4de	0.020494875
198	0x3d452017	0.048126306
199	0x3caaf4f9	0.020868765
200	0x3cfd96e9	0.030955749
201	0x3d7672f1	0.06016821
202	0x3be543d3	0.0069966107
203	0xbd0c5c56	-0.034267746
204	0x3d6629ce	0.05619221
205	0x3d03b16a	0.032151617
206	0x3cf938b2	0.030422542
207	0xbd33ee44	-0.0439284
208	0x3d4339ea	0.047662653
209	0xbbc37658	-0.0059650354
210	0xbce4fc0d	-0.027952218
211	0x3b7037b2	0.003665429
212	0x3d62372e	0.055228405
213	0x3d1fcc46	0.03901317
214	0xbcc4922b	-0.02399548
215	0x3c89af36	0.01680718
216	0xbd0ebce8	-0.034848124
217	0x3d2c42fb	0.042056065
218	0x3d18b7ec	0.037284777
219	0x3c26de47	0.010184831
220	0xbbc03c8a	-0.005866592
221	0x3d0d01a7	0.034425404
222	0xbad6ddc6	-0.0016392998
223	0x3cc3dacd	0.023908043
224	0xbd1bbc25	-0.038021225
225	0x3c05744c	0.008145403
226	0x3c2fce6f	0.01073037
227	0xbcf641bb	-0.03006064
228	0x3d80b116	0.062837765
229	0x3d4b54dc	0.049641475
230	0xbca3ce68	-0.019995883
231	0x3d5c6624	0.053808346
232	0xbc61f678	-0.013791673
233	0xbd315592	-0.043294497
234	0xbcceedec	-0.025259934
235	0x3c1e29aa	0.009653488
236	0xbca01c58	-0.019544765
237	0x3c144915	0.009050627
238	0x3bfcac52	0.007710972
239	0x3c6a922c	0.014317077
240	0xbd34878c	-0.04407458
241	0xbbada994	-0.0052997563
242	0x3d9403a6	0.072272584
243	0x3d1c5b35	0.03817292
244	0x3c423b2b	0.011854927
245	0x3c661688	0.014043458
246	0x3cd7c50b	0.026339075
247	0x3ccfe67e	0.025378462
248	0xbd03ed8e	-0.03220897
249	0x3cc87c71	0.0244734
250	0xbd3185a0	-0.043340325
251	0xbcd2430a	-0.025666732
252	0x3d1a17a0	0.037620187
253	0x3b7f7640	0.0038980395
254	0xbad3f7ba	-0.0016171851
255	0xbc6d0a50	-0.014467791

network.2.weight f4 [128, 256]
0	0x3d360db9	0.04444668
1	0xbc974d67	-0.018469526
2	0xbd133cb4	-0.035946563
3	0xbc89c4fb	-0.01681756
4	0x3d82d362	0.06387974
5	0xbd9b440c	-0.07581338
6	0x3d4b4662	0.04962767
7	0x3c3be187	0.011467344
8	0x3d196ce8	0.037457377
9	0x3d8c6c37	0.06856578
10	0xbd27bf40	-0.040953875
11	0xbd44901d	-0.047989
12	0xbd163f68	-0.036681563
13	0x3ca28a57	0.019841356
14	0xbcd4177a	-0.0258901
15	0x3d5b5fd5	0.05355819
16	0x3d1df87e	0.03856706
17	0xbc97ea36	-0.018544298
18	0x3c8c0c55	0.017095724
19	0x3d8d8471	0.06910027
20	0x3d6c1924	0.057641163
21	0x3c9d2b2c	0.019185625
22	0xbcc89784	-0.02448631
23	0xbd0fc9db	-0.035104614
24	0xbd05f662	-0.032705672
25	0xbd775747	-0.06038597
26	0x3d67143b	0.056415778
27	0x3b683891	0.0035434107
28	0x3c853184	0.016258962
29	0x3d3f5d16	0.046719633
30	0xbc587266	-0.013210868
31	0x3bf92ac6	0.007603976
32	0xbcad9172	-0.021187518
33	0x3b3c20f9	0.0028706177
34	0xbbd87d21	-0.0066067134
35	0x3cfdcc55	0.030981222
36	0x3d4759b7	0.048669543
37	0xbd6e4120	-0.058167577
38	0xba06941c	-0.00051337644
39	0x3d179adb	0.037012916
40	0xbd1fa66f	-0.038977083
41	0x3d00b61e	0.03142368
42	0x3d6e9468	0.058247
43	0x3d160cf0	0.036633432
44	0x3d25f873	0.040520143
45	0xbd3d7296	-0.046251856
46	0x3d2d62c9	0.042330537
47	0x3d79aa62	0.060953505
48	0x3d5e433f	0.05426335
49	0xbd31ecc1	-0.043438677
50	0x3cb59716	0.02216677
51	0x3d6e8575	0.058232743
52	0xbc4adb6e	-0.012381418
53	0x3d46bbd9	0.04851899
54	0x3d48a7eb	0.048988264
55	0xbd89e421	-0.06732965
56	0x3d8b5e29	0.06805069
57	0x3d237f26	0.03991618
58	0xbd1aef9a	-0.037826158
59	0xbc8d6166	-0.017258357
60	0x3cd67664	0.0261795
61	0xbd38830e	-0.04504686
62	0x3bb7bc04	0.00560713
63	0x3ca8eb45	0.020619998
64	0xbd4789f6	-0.048715554
65	0x3ce2b65e	0.02767485
66	0xbb9ed2e4	-0.0048469175
67	0xbc5c8f40	-0.013461888
68	0x3d050a03	0.03248025
69	0x3d69ef41	0.057112936
70	0x3d4a2944	0.04935576
71	0x3d36a5bd	0.044591654
72	0x3c8ed00f	0.017433194
73	0x3d3a6bee	0.045513086
74	0x3c92827e	0.01788449
75	0xbd2fd66d	-0.0429291
76	0xbceeadac	-0.029135548
77	0xbd2d24cf	-0.04227143
78	0x3b8245bc	0.003975598
79	0xbcf5b293	-0.029992377
80	0x3ca0716b	0.019585332
81	0xbce925d7	-0.028460426
82	0x3c4b1f09	0.012397536
83	0x3d030759	0.03198943
84	0x3d41f3a6	0.047351502
85	0x3d1903bf	0.03735709
86	0x3c065b3a	0.008200461
87	0x3d114979	0.03547046
88	0x3d27ccfa	0.040966965
89	0xbd2b0c4d	-0.041759778
90	0x3d36f761	0.044669513
91	0x3d7d2ee6	0.061812304
92	0x3d5c07cd	0.053718377
93	0x3d1dd20d	0.0385304
94	0x3d382bc4	0.044963613
95	0x3c0bf380	0.008541942
96	0x3cd276f3	0.025691485
97	0xbca365be	-0.019945975
98	0x3d4ce886	0.05002644
99	0xbc860fa3	-0.016364878
100	0xbd11fd14	-0.035641745
101	0x3d1adcce	0.037808232
102	0x3b90cf45	0.0044192397
103	0xbc6d451d	-0.01448181
104	0xbd102c0d	-0.03519826
105	0x3d1bd880	0.038048267
106	0x3d938c3e	0.072044834
107	0x3d13944b	0.036030095
108	0xbd88363b	-0.06650969
109	0xbd09d540	-0.033650637
110	0xbc926ecd	-0.0178751
111	0xbce716a8	-0.028209046
112	0x39622529	0.00021566883
113	0x3c397f7e	0.0113219
114	0x3c6475db	0.013944115
115	0xbd09b899	-0.03362331
116	0xbcfa7b3c	-0.03057634
117	0x3c9a47bc	0.018833034
118	0x3d7f6e9d	0.06236135
119	0x3d2462f3	0.040133428
120	0x3d29f804	0.04149629
121	0xbce0a3d5	-0.027421871
122	0xbc0b6f6a	-0.00851045
123	0xbd1b0e70	-0.037855566
124	0xbcde665d	-0.02714842
125	0xbce5ca23	-0.028050488
126	0x3d294629	0.041326676
127	0xbcb854cb	-0.02250137
128	0xbcc2ba6b	-0.023770532
129	0xbcbe7c0a	-0.023252506
130	0xbd601ad6	-0.054713093
131	0xbd019b5f	-0.031642314
132	0xba8aaa9e	-0.0010579412
133	0xbb42ace8	-0.002970511
134	0xbc7895a3	-0.015172395
135	0x3d35eac5	0.044413347
136	0x3d2795fe	0.040914528
137	0xbd0caa0b	-0.034341853
138	0x3d8708c8	0.06593472
139	0xbd5998be	-0.053124182
140	0x3d1a6396	0.03769263
141	0xbd0f7bb6	-0.03503009
142	0x3be18533	0.0068823337
143	0x3c0e5a28	0.008688487
144	0x3d3f9ac2	0.046778448
145	0xbc52bd6c	-0.0128625445
146	0x3bd4e551	0.006497063
147	0x3cd12131	0.025528522
148	0x399f17fc	0.00030344713
149	0x3d7af986	0.06127312
150	0x3d9f64eb	0.077829204
151	0x3d6be3dd	0.057590354
152	0xbcd19ca7	-0.025587393
153	0xbd194e42	-0.037428148
154	0x3d20d24f	0.039263066
155	0x3d3ae868	0.045631796
156	0x3c7447ec	0.014909726
157	0x3c13dc94	0.009024758
158	0xbd234ebc	-0.03987001
159	0x3c7afdcd	0.0153193
160	0x3d3efa42	0.046625383
161	0xbba22988	-0.0049487986
162	0x3c6a5fff	0.014305114
163	0x3d4d55d6	0.050130688
164	0x3d93ce87	0.07217126
165	0xbd756282	-0.059908397
166	0xbd3e1fe6	-0.04641714
167	0xbc2d5c20	-0.010581046
168	0x3cc82967	0.024433805
169	0xbc33bf86	-0.010970956
170	0xbd20ca2a	-0.0392553
171	0xbb187613	-0.0023263737
172	0x3ce67d3f	0.028135894
173	0x3d53280f	0.051551875
174	0xbcded50f	-0.027201204
175	0xbd4a33f0	-0.049365938
176	0x3d666ffa	0.056259133
177	0x3d33649e	0.043797128
178	0x3cc50f24	0.024055071
179	0xbd988030	-0.07446325
180	0x3c8dfbe9	0.017332034
181	0x3d82cd64	0.063868314
182	0x3d43bd02	0.047787674
183	0xbc77d70d	-0.015126956
184	0x3bd39bc8	0.0064577796
185	0xbc83ecb4	-0.01610408
186	0x3d79c391	0.060977522
187	0xbd409470	-0.04701656
188	0x3b2c97b2	0.0026335535
189	0xbd8555f0	-0.06510532
190	0xbd4957ba	-0.04915593
191	0x3d06c452	0.03290207
192	0xbbb2ee2e	-0.005460522
193	0x3c8a9467	0.016916467
194	0x3d70223b	0.058626395
195	0x3d9b91d8	0.07596177
196	0x3d374a9b	0.044748884
197	0xbb869f90	-0.004108377
198	0xbd35271c	-0.04422675
199	0x3cbe97b9	0.023265706
200	0xbd32120e	-0.04347425
201	0x3d28b779	0.0411906
202	0x3ccb58ba	0.024822582
203	0xbbe23cce	-0.006904221
204	0x3d5a0ce7	0.05323496
205	0x3cc6d89c	0.02427321
206	0xbd7dd020	-0.06196606
207	0xbcde55bf	-0.027140496
208	0x3d2897ae	0.041160278
209	0x3d3b580c	0.045738265
210	0x3d9850a4	0.07437256
211	0x3c73fd50	0.014891937
212	0xba982bab	-0.0011609694
213	0xbce55eee	-0.027999368
214	0x3c074a70	0.008257493
215	0x3c67f04c	0.014156412
216	0x3caa9de3	0.02082724
217	0xbc8a6d37	-0.01689778
218	0xbcd5f093	-0.026115691
219	0xbbb8de2e	-0.0056417203
220	0x3d93f5ce	0.07224618
221	0x3d6083be	0.05481314
222	0xbc9df34a	-0.019281048
223	0x3d7db2a4	0.061937943
224	0x3d8d3c73	0.068962954
225	0x3b75abef	0.0037486514
226	0xbd1b5ade	-0.037928455
227	0x3d5beaac	0.053690597
228	0xbc9cc89d	-0.019138629
229	0x3d7afc80	0.06127596
230	0xbd96e8e3	-0.07368638
231	0x3d5d9be0	0.054103732
232	0x3d143210	0.036180556
233	0xbc848516	-0.016176742
234	0x3d78bfc0	0.060729742
235	0x3c14622c	0.009056609
236	0xbd381bf8	-0.044948548
237	0x3ccdb408	0.02511026
238	0xbcd13b84	-0.025541075
239	0x3d05194d	0.03249483
240	0xbcedc19d	-0.029022986
241	0x3c580045	0.013183658
242	0xbcbcefe6	-0.023063611
243	0x3d93d39c	0.07218096
244	0xbca0898f	-0.019596843
245	0xbd1bf462	-0.03807486
246	0xbd397f48	-0.0452874
247	0xbd65c8f8	-0.05609986
248	0xbcfb30c1	-0.030662896
249	0x3d59586c	0.05306284
250	0x3d5ee22e	0.05441492
251	0xbd3e57eb	-0.046470564
252	0x3d17cfda	0.037063457
253	0x3d3ea565	0.04654445
254	0xbd95ff70	-0.073241115
255	0x3ca3a678	0.01997684

network.2.bias f4 [128]
0	0x3d324e25	0.043531556
1	0x3c8a4e57	0.016883058
2	0x3cd9bd99	0.026579665
3	0xbd21ed99	-0.03953323
4	0xbca220b9	-0.019790994
5	0x3d3d8dc0	0.04627776
6	0x3b65e13b	0.0035076875
7	0x3da56758	0.08076352
8	0x3d133d19	0.03594694
9	0x3d032437	0.03201696
10	0xbd0187ff	-0.031623837
11	0xbce03390	-0.027368337
12	0xbd853b7d	-0.06505487
13	0x3c2e8c24	0.010653529
14	0xbd7c4ed7	-0.061598625
15	0xbcf4b282	-0.029870275
16	0x3b6e2f93	0.0036344274
17	0xbd519e2d	-0.05117624
18	0xbc066bd4	-0.008204419
19	0x3c613010	0.013744369
20	0xbd196e8c	-0.03745894
21	0xba16b832	-0.0005749493
22	0x3d7b8bfe	0.061412804
23	0x3cd043ee	0.025423016
24	0x3bd16abf	0.006390899
25	0xbd7178d2	-0.058953114
26	0x3d8e87ce	0.069594964
27	0x3d246181	0.04013205
28	0x3d1b7f76	0.037963353
29	0xbd1263fb	-0.03573988
30	0xbc1a78b9	-0.009428197
31	0x3d5fdf87	0.05465653
32	0x3cd011c6	0.0253991
33	0x3d67b0ad	0.056564976
34	0xbc11cb0c	-0.008898508
35	0xbcfbce2c	-0.030737959
36	0x3d1cf794	0.038322046
37	0x3ccb9d2a	0.024855215
38	0xbcd6ea5e	-0.026234802
39	0x3c60192b	0.0136778755
40	0x3cfa029c	0.030518822
41	0x3bc1ede5	0.005918252
42	0xbb6fc7ee	-0.0036587673
43	0x3d4b3f15	0.049620707
44	0xbc326249	-0.010887691
45	0x3cea4ce4	0.028601117
46	0xbd868732	-0.06568755
47	0xbc6e5891	-0.014547483
48	0x3c47e3b8	0.0122002885
49	0xbd021a44	-0.03176333
50	0x3d9607dd	0.073257186
51	0xbcfc9e22	-0.030837122
52	0xbcff770f	-0.031184701
53	0xbca8b22c	-0.020592771
54	0x3d50f962	0.05101908
55	0xbd19d280	-0.037554264
56	0x3b7cef8d	0.0038594932
57	0xbb8a7be4	-0.0042261947
58	0x3b8bcaf3	0.004266137
59	0xbd3ceff3	-0.04612727
60	0x3d1d5925	0.038415093
61	0x3d2f12af	0.042742427
62	0xbd8cf338	-0.06882328
63	0x3c257f44	0.010101143
64	0xbd03cf86	-0.03218033
65	0xbcec70bd	-0.028862352
66	0xbc311429	-0.010808029
67	0x3ccbbe22	0.024870936
68	0x3c6e153d	0.014531431
69	0x3ca1383c	0.019680135
70	0xbca1b578	-0.019739851
71	0xbd312ac2	-0.043253668
72	0xbc9eab70	-0.019368857
73	0x3d04e098	0.03244075
74	0xbd102583	-0.035192024
75	0xbd086b1f	-0.033305284
76	0xbcd2f02c	-0.025749288
77	0x3bd23161	0.006414578
78	0x3c7af79f	0.0153178265
79	0x3c40c48d	0.011765611
80	0xbd2bf120	-0.041978
81	0xbc1c9488	-0.009556897
82	0x3ca0e4e1	0.019640388
83	0xbb80e8ef	-0.003934018
84	0xbd1257eb	-0.035728376
85	0xbbd1ed2c	-0.006406447
86	0x3baf723a	0.005354193
87	0xba86038b	-0.0010224445
88	0xbd1bebbe	-0.03806662
89	0x3d048015	0.03234871
90	0x3d9c0474	0.07618037
91	0x3cfa502d	0.030555809
92	0xbbd032ce	-0.0063537126
93	0xbb857c08	-0.0040736236
94	0xbd35d7c6	-0.04439523
95	0xbd8ab106	-0.06772046
96	0xbd03ecf3	-0.032208394
97	0x3d361322	0.04445184
98	0xbc3c9097	-0.011509082
99	0xbcf476d1	-0.029841812
100	0x3d0288f8	0.031868905
101	0x39c31d1c	0.00037214987
102	0x3d03d9a4	0.03218998
103	0xbce2b260	-0.027672946
104	0x3d59e6f5	0.053198773
105	0x3c7a29da	0.015268767
106	0x3d74031b	0.059573274
107	0x3c713905	0.014723067
108	0x3c7a3fec	0.015274029
109	0x3c955334	0.01822815
110	0xbd17826e	-0.03698962
111	0x3d2dfeaa	0.042479195
112	0xbca8fa48	-0.020627156
113	0xbd0006f2	-0.031256624
114	0xbd0ad94e	-0.033898644
115	0x3d0a30eb	0.033738058
116	0x3d52e4de	0.051487796
117	0x3d23fd5c	0.040036544
118	0xbd0475ad	-0.032338787
119	0xbd718d03	-0.05897237
120	0xbd2b2be8	-0.04178992
121	0xbc795965	-0.015219067
122	0x3d8a8ea6	0.06765489
123	0x3d655cc5	0.055996675
124	0xbd175ab8	-0.03695175
125	0x3d32e4b1	0.04367513
126	0xbd127e38	-0.035764903
127	0x3d527a93	0.051386427

network.4.weight f4 [64, 128]
0	0x3dd0ad9c	0.10189363
1	0xba79d8f0	-0.00095309224
2	0xbc76b77a	-0.015058393
3	0x3b8e95d5	0.0043513575
4	0x3cad3bd1	0.021146687
5	0xbc0e3a92	-0.008680956
6	0xbc622b48	-0.013804264
7	0x3d88634c	0.066595644
8	0x3c88795c	0.016659431
9	0xbd19fad0	-0.03759271
10	0xbc699f7d	-0.014259216
11	0xbd3e85fc	-0.046514496
12	0xbd91518b	-0.07095631
13	0x3d0846e4	0.03327073
14	0xba7cd7d2	-0.0009645197
15	0xbc1707ab	-0.009218137
16	0xbd6c2a3c	-0.057657465
17	0xbd18ece7	-0.037335303
18	0x3d19a6d6	0.037512623
19	0xbdc2b121	-0.09506441
20	0x3d180b7e	0.037120335
21	0x3d9495b8	0.07255119
22	0xbcdfb225	-0.027306626
23	0x3dc3361e	0.095318064
24	0x3da3dd5a	0.08001204
25	0xbc72f638	-0.014829211
26	0x3d09ff0f	0.03369051
27	0xbda42a42	-0.080158725
28	0x3caa664f	0.020800738
29	0xbd8200b5	-0.06347791
30	0x3d08e472	0.033420987
31	0x3d6972b3	0.05699415
32	0x3d225270	0.0396294
33	0xbd5eb829	-0.054374848
34	0x3d1634ee	0.03667157
35	0x3c97e50c	0.018541835
36	0x3d11a8bc	0.03556131
37	0x3db487d4	0.0881497
38	0x3cf7cf1b	0.030250123
39	0x3d3a970c	0.045554206
40	0x3ce39093	0.0277789
41	0xbd20b975	-0.039239366
42	0xbd206e8a	-0.03916792
43	0x3d91821d	0.07104895
44	0x3b97e97d	0.0046359883
45	0xbd347433	-0.04405613
46	0x3d04f67c	0.03246163
47	0x3db8df19	0.090269275
48	0x3dd98cce	0.106225595
49	0xbcc5fbba	-0.024167884
50	0xbd64c2a4	-0.055849686
51	0x3da0ef71	0.0785817
52	0xbd1d3123	-0.03837694
53	0xbc7c1762	-0.015386434
54	0x3d30e742	0.043189295
55	0xbd947759	-0.07249326
56	0x3d85fd1f	0.0654242
57	0xbd86e48c	-0.065865606
58	0xbdc3496f	-0.09535491
59	0x3d130737	0.035895552
60	0x3ce01b37	0.027356727
61	0x3cf35948	0.029705659
62	0xbd6cd643	-0.057821523
63	0xbd11f4f5	-0.035634
64	0x3c871000	0.016487122
65	0xbd480bdd	-0.04883944
66	0x3cb46222	0.02201945
67	0xbd4c57e9	-0.049888525
68	0xbd402637	-0.046911445
69	0x3c896921	0.016773762
70	0x3d80053c	0.062509984
71	0xbc81b539	-0.015833484
72	0x3ba031d4	0.0048887525
73	0x3d892a26	0.06697492
74	0xbd3bcb22	-0.04584802
75	0x3cd51f81	0.026015999
76	0xbd4504a1	-0.048100118
77	0xbd3e040a	-0.04639057
78	0xbda8a771	-0.08235062
79	0xbdd24810	-0.10267651
80	0x3d8638ce	0.065538034
81	0x3d8b7188	0.06808764
82	0xbc0d27ef	-0.008615478
83	0xbca04f8e	-0.019569185
84	0xbd87dd1b	-0.066339694
85	0x3d1d019a	0.038331605
86	0xbd8d6d7b	-0.06905647
87	0xbc724955	-0.0147879915
88	0x3dbc64e9	0.091989346
89	0xbdb0d8c9	-0.086350985
90	0x3db2f758	0.08738583
91	0x3cc49272	0.023995612
92	0xbcf2f14a	-0.029656071
93	0xbd959fff	-0.073059075
94	0xbd5a2faa	-0.053268112
95	0xbce58df7	-0.028021796
96	0xbd49ed77	-0.04929873
97	0x3d1220f7	0.03567597
98	0xbc59b8f3	-0.013288724
99	0x3cc747ed	0.02432629
100	0xbdb22b62	-0.08699681
101	0x3dd82a89	0.10554988
102	0x3d27b573	0.040944528
103	0x3d8a087f	0.06739902
104	0x3c9ce21a	0.019150782
105	0x3cf99128	0.030464724
106	0x3dc73d77	0.0972852
107	0xbbb3c6c6	-0.005486342
108	0xbd8942f6	-0.06702225
109	0x3dd6d6f8	0.10490221
110	0x3d3a0e9b	0.045424085
111	0x3d6f5a0d	0.05843549
112	0xbc9feb0d	-0.01952126
113	0xbc1c8259	-0.009552562
114	0x3d983774	0.07432452
115	0x3d9faa5c	0.07796165
116	0x3d23a128	0.039948612
117	0xbdc35968	-0.09538537
118	0xbd7fd330	-0.062457263
119	0x3cc233b5	0.023706296
120	0x3c9f08a1	0.019413294
121	0x3da00e24	0.07815197
122	0x3db89b94	0.09014049
123	0x3d7e395a	0.062066413
124	0xbd3cef5f	-0.04612672
125	0x3dcc9674	0.09989634
126	0xbd9cb08a	-0.0765086
127	0xbd3fe561	-0.046849612
128	0x3cb24c2f	0.021764843
129	0xbcdbadbf	-0.026816247
130	0xbcff9ab8	-0.031201705
131	0x3d0d9723	0.034567963
132	0x3db2b731	0.08726347
133	0x3c6fdf66	0.014640665
134	0xbd331fe5	-0.04373159
135	0x3aefb2ec	0.0018287576
136	0x3d1ec9a2	0.03876651
137	0x3d3849d0	0.044992268
138	0x3dbdcbdd	0.092673995
139	0x3c758d0f	0.014987244
140	0xbd369f4f	-0.044585522
141	0x3db34848	0.08754021
142	0xbd4ff2ed	-0.05076878
143	0x3da935f1	0.08262242
144	0x3d175b4b	0.036952298
145	0x3b42af63	0.002970659
146	0xbbb98165	-0.005661177
147	0xbd740365	-0.05957355
148	0xbd8a325c	-0.067478865
149	0x3d2a7786	0.041617893
150	0x3d570e8a	0.0525041
151	0xbd8db203	-0.06918719
152	0x3d7af967	0.061273005
153	0x3d46cf4e	0.048537545
154	0x3d8d611b	0.06903287
155	0x3d1967d5	0.037452538
156	0x3da2069b	0.07911416
157	0xbd264574	-0.04059358
158	0x3d81fc16	0.0634691
159	0x3ca8e75d	0.020618135
160	0xbd949260	-0.07254481
161	0x3d824aac	0.06361899
162	0x3d390673	0.045172166
163	0x3d9b2465	0.07575301
164	0xbd31fdc6	-0.043454908
165	0xbd9b2d8c	-0.07577047
166	0xbcdd0278	-0.026978716
167	0xbd20850e	-0.03918939
168	0xbdbf859b	-0.09351655
169	0x3c749946	0.014929121
170	0x3d1ef4ad	0.03880756
171	0x3d25a57f	0.040441032
172	0xbd3b47cc	-0.045722768
173	0xbd2c837f	-0.042117592
174	0xbdafe81a	-0.08589192
175	0x3ce72656	0.028216522
176	0x3d7f0d00	0.062268257
177	0x3bbd46ee	0.0057762777
178	0xbd2486a1	-0.040167455
179	0xbd689ee4	-0.056792155
180	0x3d7cc0fa	0.061707474
181	0xbd765c0e	-0.060146384
182	0xbd57ef5c	-0.052718505
183	0xbc9a19ab	-0.018811068
184	0x3cecbb1d	0.028897816
185	0xbd352fdd	-0.0442351
186	0x3d8ae5fa	0.06782146
187	0xbd3779a6	-0.044793747
188	0x3c38358c	0.011243235
189	0xbc5ff688	-0.0136696175
190	0xbdb4d0aa	-0.08828862
191	0xbc80063b	-0.01562797
192	0x3d21fffa	0.03955076
193	0xbd439a16	-0.04775437
194	0xbd6e61f4	-0.058198884
195	0xbb1338be	-0.002246424
196	0x3d818602	0.06324388
197	0x3d502490	0.05081612
198	0xbd53d90a	-0.051720656
199	0xbc6874f6	-0.014188042
200	0x3d668705	0.05628111
201	0xbd66c160	-0.05633676
202	0x3db3cb3e	0.08779
203	0x3c78e589	0.015191444
204	0x3bb8be64	0.0056379307
205	0xbcd331e4	-0.025780626
206	0x3d732cf7	0.059369054
207	0x3dcf4d50	0.10122168
208	0xbc7b0246	-0.015320366
209	0xbc988923	-0.01862008
210	0x3c93fdaa	0.018065292
211	0xbd5d024b	-0.053957265
212	0x3cd42241	0.02589524
213	0x3d6530f2	0.05595488
214	0xbd3e5b14	-0.046473578
215	0xbd21c19a	-0.039491273
216	0xbdd0ac2e	-0.10189091
217	0xbcd1640a	-0.025560398
218	0xbdcf960d	-0.10136042
219	0xbd99c1c7	-0.07507663
220	0xbca1b36a	-0.019738872
221	0xbd184643	-0.03717638
222	0xbc3bca72	-0.011461841
223	0x3c6ce684	0.014459256
224	0xbd155a82	-0.036463268
225	0xbd5eb44f	-0.054371174
226	0xbd28c962	-0.04120768
227	0xbdb41656	-0.08793323
228	0x3d825814	0.06364456
229	0xbd926dc5	-0.07149843
230	0x3ce6ec97	0.028188987
231	0x3cf0731b	0.029351762
232	0xbd078b48	-0.033091813
233	0x3cda1da4	0.026625462
234	0xbd5903ad	-0.05298202
235	0x3d51908f	0.051163252
236	0x3d24dabb	0.04024766
237	0x3ceb9229	0.028756218
238	0x3d2ca2c4	0.042147413
239	0xbdb99273	-0.09061136
240	0xbd8654c9	-0.0655914
241	0x3cd311aa	0.025765259
242	0xbce323dc	-0.02772706
243	0xbd2bfde5	-0.04199018
244	0x3b960da9	0.004579265
245	0x3db0b75c	0.08628723
246	0x3c04b5a0	0.008099943
247	0xbc54d013	-0.012989062
248	0xbd466bd2	-0.04844267
249	0x3b87f6cc	0.0041492935
250	0x3d572537	0.052525725
251	0xbc938f88	-0.018012777
252	0xbd981b9d	-0.07427142
253	0xbdcd0c85	-0.100121535
254	0x3d7f29f5	0.062295873
255	0xbd78ab06	-0.060709976

network.4.bias f4 [64]
0	0x3d021047	0.031753805
1	0x3d768423	0.06018461
2	0x3cbb2120	0.022842944
3	0xbd2166b4	-0.039404586
4	0xbd581e70	-0.052763402
5	0xbd836ebc	-0.06417605
6	0xbcc322dd	-0.023820335
7	0x3d23e34e	0.040011697
8	0x3d95a23b	0.07306334
9	0xbd8a88d6	-0.06764381
10	0x3d7a8616	0.06116303
11	0x3d6f4a42	0.058420427
12	0xbd7a32c4	-0.06108357
13	0x3d652c5f	0.05595052
14	0xbcd09552	-0.025461826
15	0x3d419f13	0.047270846
16	0x3d9a4168	0.075320065
17	0x3d111733	0.035422515
18	0x3d6c74da	0.057728626
19	0xbd156c2b	-0.03648011
20	0x3ce64e67	0.028113557
21	0xbbafd9d3	-0.005366543
22	0xbd40ad95	-0.04704054
23	0x3db4a1ae	0.088199005
24	0x3d664606	0.056219123
25	0xbdb249c5	-0.08705477
26	0xbc7b2434	-0.015328456
27	0x3b9d9e3c	0.004810123
28	0x3c06c06a	0.008224586
29	0xbdbe1108	-0.09280592
30	0xbbe8f6fc	-0.007109521
31	0xbd8d1e96	-0.068905994
32	0xbd9f8af9	-0.07790179
33	0x3d87b713	0.066267155
34	0xbc48df4b	-0.012260268
35	0x3b021bf6	0.0019853092
36	0xbc4c188f	-0.012457027
37	0xbc5608ea	-0.013063649
38	0x3d949b74	0.07256213
39	0xbd6b782b	-0.057487648
40	0xbbf3155a	-0.007418317
41	0xbd88688f	-0.06660568
42	0x3c8bf745	0.01708568
43	0x3d23eaf1	0.04001898
44	0xbdb30f56	-0.087431595
45	0x3d91b085	0.071137466
46	0xbc7b5f95	-0.015342613
47	0xbba87a98	-0.0051415674
48	0xbd42ce32	-0.047559924
49	0xbce2c83b	-0.027683368
50	0xbda1e0d5	-0.079042114
51	0x3dae11b1	0.08499468
52	0x3d23f3cd	0.04002743
53	0x3c936d16	0.017996352
54	0xbd3598a0	-0.044335008
55	0x3bd501e4	0.0065004695
56	0xbcfd095b	-0.03088825
57	0x3d85e8ff	0.06538581
58	0xbda25d36	-0.07927935
59	0x3dbaf37f	0.091284744
60	0xbdb320bb	-0.08746477
61	0x3d7ffb80	0.06249571
62	0xbc5eb5b2	-0.013593124
63	0xbd2368df	-0.039894935

actor.weight f4 [4, 64]
0	0x3b9d9f0b	0.004810219
1	0xbd50cdfd	-0.050977696
2	0x3cd78229	0.026307182
3	0x3db2190e	0.08696185
4	0x3d0e0d8b	0.034680884
5	0xbd86a81f	-0.06575035
6	0xbde232e4	-0.11044863
7	0xbd55c96c	-0.052194044
8	0xbd33f4ae	-0.043934517
9	0xbd87659a	-0.06611176
10	0xbd8972e5	-0.067113675
11	0xbcd9857d	-0.02655291
12	0x3ccd319b	0.025048068
13	0x3d67cf64	0.056594267
14	0x3d7ae34c	0.061251923
15	0x3e0ce53a	0.13759318
16	0x3dab44f8	0.08362764
17	0xbcf09b5b	-0.029370954
18	0x3da65171	0.081210025
19	0xbd27e447	-0.040989187
20	0x3d7c881f	0.061653253
21	0x3d2171be	0.039415114
22	0x39b28a00	0.00034053624
23	0xbd1a1c58	-0.037624687
24	0xbdb70d91	-0.089381345
25	0xbdf570fa	-0.11984439
26	0xbdda82f0	-0.106695056
27	0xbd40b70b	-0.047049563
28	0x3ca2cb06	0.0198722
29	0x3d65bf0f	0.05609041
30	0xbdab32b1	-0.08359278
31	0x3d00ec3d	0.031475294
32	0x3d403123	0.04692186
33	0x3d41da1d	0.04732715
34	0xbdcaf8db	-0.09910747
35	0xbd21de86	-0.039518856
36	0xbd8080b3	-0.062745474
37	0xbdad231d	-0.08453963
38	0x3daf8741	0.085707195
39	0xbd325804	-0.04354097
40	0xbc551141	-0.013004602
41	0xbde4ea61	-0.11177517
42	0x3d62c8b0	0.05536717
43	0xbde102d1	-0.10986865
44	0x3cdad7e5	0.026714275
45	0xbdab2bfd	-0.083579995
46	0x3ddd5e04	0.10808948
47	0xbd299aba	-0.041407324
48	0x3deb8796	0.1150047
49	0x3dc7ebcb	0.09761771
50	0xbd27b540	-0.040944338
51	0xbd067a40	-0.03283143
52	0xbd925a80	-0.07146168
53	0xbbfa018f	-0.0076295803
54	0x3dde0f84	0.10842803
55	0xbda266ec	-0.07929787
56	0xbd692974	-0.0569243
57	0xbd428f18	-0.047499746
58	0xbcc4e64b	-0.024035593
59	0x3dd1b253	0.10239091
60	0xbcd0c9cd	-0.025486851
61	0xbc8f04bb	-0.01745831
62	0xbcdfc5f5	-0.027316073
63	0x3d992cfd	0.07479284
64	0x3d077176	0.03306719
65	0x3db4b3bf	0.08823346
66	0x3cd7ee1f	0.026358662
67	0x3dc8c463	0.09803083
68	0x3d83e4c6	0.064401194
69	0x3d044c2c	0.032299206
70	0x3d1cc6e8	0.03827563
71	0xbe0a8913	-0.13528852
72	0x3dbbf68f	0.09177887
73	0x3d234d0f	0.03986841
74	0xbdf03f12	-0.1173078
75	0xbe131708	-0.14364254
76	0xbda959a6	-0.08269052
77	0x3dccabb1	0.09993685
78	0xbd659155	-0.056046803
79	0xbcae2f85	-0.021262893
80	0xbe117f8b	-0.1420881
81	0xbca76b8e	-0.020437028
82	0xbd5032a0	-0.05082953
83	0x3dab2708	0.08357054
84	0xbdc05e3d	-0.093929745
85	0xbdaa75c0	-0.0832324
86	0x3da098b4	0.07841626
87	0xbcd64f19	-0.026160764
88	0xbdd81743	-0.10551312
89	0x3d7c2cbc	0.0615661
90	0xbdb3632a	-0.087591484
91	0x3b91e806	0.004452708
92	0xba3ec743	-0.0007277617
93	0xbcfcd1cf	-0.030861763
94	0xbb162035	-0.002290738
95	0x3caf0a75	0.021367291
96	0xbd6fb918	-0.05852613
97	0x3d9537e8	0.07286054
98	0xbd0936ee	-0.03349965
99	0xb911c225	-0.00013900602
100	0x3d694970	0.0569548
101	0xb9d9edcd	-0.0004156664
102	0xbc170093	-0.0092164455
103	0xbcc89748	-0.024486199
104	0xbdc2e88f	-0.09517013
105	0xbd83ada9	-0.064296074
106	0x3d2a6adb	0.04160581
107	0x3e01c77d	0.12673755
108	0xbd0a3a07	-0.033746745
109	0x3d012ced	0.031536985
110	0xbd3b6e82	-0.045759685
111	0x3d6dd537	0.058064666
112	0xbdd68f17	-0.10476511
113	0xbda18f14	-0.07888618
114	0x3d6962f8	0.05697915
115	0x3df0ad9f	0.117518656
116	0xbd1ceb78	-0.038310498
117	0xbc06faa6	-0.00823847
118	0xbdf7dee0	-0.12103057
119	0x3cc28677	0.023745758
120	0xbd1ddad4	-0.03853877
121	0x3dcd3df0	0.10021579
122	0x3de98abd	0.11403415
123	0xbd0315f8	-0.032003373
124	0xbdd8ebed	-0.10591874
125	0x3d8efbfc	0.06981656
126	0x3da90ef7	0.082548074
127	0x3d3f70e9	0.04673854
128	0xbd7bb4c2	-0.06145168
129	0xbc9c1776	-0.019054156
130	0xbd7691b7	-0.06019756
131	0x3d83e384	0.064398795
132	0x3dc73411	0.09726728
133	0xbd9465ba	-0.07245965
134	0xbc9c0322	-0.019044463
135	0x3dbf1017	0.09329241
136	0x3cb84afc	0.022496693
137	0xbd77afbb	-0.060470324
138	0xbda63193	-0.08114924
139	0xbd31ed91	-0.04343945
140	0x3dae892c	0.08522257
141	0xbae576e1	-0.0017506742
142	0xbd712f7d	-0.05888318
143	0x3bbedaa1	0.0058244024
144	0x3d18197e	0.037133686
145	0xbd519e7a	-0.051176526
146	0x3d6737e3	0.056449782
147	0xbdf5c2c8	-0.12000042
148	0xbd97ff5f	-0.07421755
149	0x3d3a7df0	0.04553026
150	0xbdae7640	-0.08518648
151	0xbdd30c10	-0.10305035
152	0x3dc5d3fa	0.09659572
153	0xbdad94dd	-0.08475659
154	0xbde484f1	-0.11158169
155	0x3d830c58	0.06398839
156	0xbdfeb3c4	-0.12436631
157	0x3de6b9bc	0.11265895
158	0xbde6bbee	-0.112663135
159	0xbdd6f883	-0.104966186
160	0x3ddb234b	0.10700091
161	0xbd56a5b1	-0.05240411
162	0xbcf587c0	-0.029971957
163	0x3c174604	0.009233002
164	0xbd148461	-0.03625906
165	0xbcb91c67	-0.022596551
166	0x3da84be9	0.08217604
167	0x3dc5eb9e	0.09664081
168	0xbd9e34e3	-0.07724931
169	0xbd8bc9c9	-0.06825597
170	0xbdfda6c1	-0.123853214
171	0x3d57a0f9	0.05264375
172	0xbc71f2ab	-0.014767329
173	0xbdbcc928	-0.09218055
174	0xbd975363	-0.07388952
175	0xbc079b25	-0.008276735
176	0x3d8fb92c	0.070177406
177	0x3df92c0c	0.121666044
178	0xbc06d770	-0.008230075
179	0x3dd34f46	0.103178546
180	0x3da35797	0.07975691
181	0xbd351137	-0.04420587
182	0x3d9a3912	0.075304165
183	0x3d93b3f8	0.07212061
184	0x3dbce6b4	0.09223691
185	0xbd9a0984	-0.07521346
186	0xbcc56747	-0.024097098
187	0x3d0829d0	0.033243
188	0x3de01049	0.10940606
189	0xbd99bd6d	-0.07506833
190	0x3d772033	0.060333442
191	0xbd6f2f6e	-0.05839484
192	0x3ca7da98	0.020489976
193	0xbd88a291	-0.06671632
194	0xbe060daa	-0.1309115
195	0x3db0fc4e	0.08641873
196	0xbd176bb4	-0.036967948
197	0xbde092fa	-0.109655336
198	0xbdd6bc5e	-0.10485147
199	0xbd7ab7e2	-0.06121052
200	0xbd971c1c	-0.07378408
201	0xbdda72d5	-0.10666434
202	0x3dbf0d22	0.09328677
203	0x3d290aad	0.041269947
204	0x3d774117	0.06036481
205	0xbc273cb7	-0.010207347
206	0x3dbdf808	0.09275824
207	0x3de7162c	0.11283526
208	0x3dc30147	0.09521728
209	0x3d327b8e	0.043574862
210	0x3dda2b9b	0.10652848
211	0x3dc38d9d	0.09548495
212	0x3da7264d	0.08161602
213	0xbd127bd1	-0.03576261
214	0xbdb1f938	-0.08690113
215	0xbd2b2afb	-0.041789036
216	0x3da4f77b	0.08055016
217	0xbc0882b7	-0.008331946
218	0xbd9c4374	-0.07630053
219	0x3d8f1c82	0.06987859
220	0xbd4c7133	-0.049912643
221	0xbbb27b05	-0.005446794
222	0xbcac5e44	-0.021041043
223	0xbd3543d2	-0.04425413
224	0x3d359f04	0.044341102
225	0xbdbd61fd	-0.092472054
226	0x3df5f5ad	0.120097496
227	0x3da4f635	0.08054773
228	0x3cf85b2d	0.030316914
229	0xbd331a09	-0.043726
230	0x3d2646a8	0.040594727
231	0xbc84bd40	-0.016203523
232	0xbde13f87	-0.10998445
233	0x3dec8984	0.115496665
234	0xbbd7f2c6	-0.00659022
235	0xbcaeb1ec	-0.021325074
236	0xbd5234ad	-0.051319767
237	0xbda5b88f	-0.080918424
238	0x3bb38767	0.0054787877
239	0x3df5ce38	0.12002224
240	0x3dce8f3f	0.10085916
241	0xbdd49bd3	-0.103812836
242	0x3cb48a20	0.02203852
243	0x3ca0f16d	0.01964637
244	0x3da22e66	0.07919006
245	0xbd14b038	-0.036300868
246	0x3d0301e8	0.03198424
247	0xbc4611d2	-0.01208921
248	0x3d48f35a	0.049060203
249	0xbb632a9a	-0.0034662844
250	0x3df2ea1d	0.1186106
251	0xbe008057	-0.12548958
252	0xbd787f71	-0.060668413
253	0xbcf154d4	-0.029459395
254	0x3da9a0de	0.08282636
255	0x3d9a766f	0.07542121

actor.bias f4 [4]
0	0x3d2f149f	0.042744275
1	0xbda2b2e7	-0.07944279
2	0x3cfafd9a	0.030638505
3	0xbc79610c	-0.015220892

critic.weight f4 [1, 64]
0	0xbde65d84	-0.112483054
1	0x3dceeaa6	0.101033494
2	0xbd1749aa	-0.036935486
3	0x3d0ba369	0.034091387
4	0xbcbdf80c	-0.023189567
5	0xbc227fda	-0.0099181775
6	0xbda5414b	-0.08069094
7	0x3df8b558	0.121439636
8	0x3c68ed79	0.014216774
9	0x3ddfcec3	0.109281085
10	0xbd20c14f	-0.039246853
11	0x3cbd4865	0.02310581
12	0x3ddf0704	0.1089001
13	0x3d5996fd	0.05312251
14	0xbd637687	-0.05553296
15	0x3d8c9e63	0.06866147
16	0x3d9dfec3	0.077146076
17	0xbdcff19e	-0.10153507
18	0xbd3ddcd9	-0.046353195
19	0xbada0bc2	-0.0016635584
20	0xbc0099a3	-0.00784913
21	0x3cd34376	0.025789004
22	0x3da80734	0.08204499
23	0xbd9885e6	-0.07447414
24	0xbd9bfba4	-0.07616356
25	0x3d85312f	0.06503522
26	0x3d8c86c2	0.068616405
27	0x3ccdbc90	0.025114328
28	0x3da08fa5	0.07839898
29	0xbbb8be84	-0.0056379456
30	0xbb65fa15	-0.0035091687
31	0x3d59725e	0.053087585
32	0x3d3973b1	0.045276348
33	0x3e044d57	0.12920128
34	0xbd93c9ba	-0.07216211
35	0x3d23ca18	0.039987653
36	0xbd3c7456	-0.046009384
37	0x3d499277	0.049211945
38	0x3e02e990	0.1278441
39	0xbdc371cc	-0.095431894
40	0x3be420ba	0.006961909
41	0xbdb2170d	-0.08695803
42	0x3da6f2e7	0.08151799
43	0xbe07f50b	-0.1327707
44	0x3dd29f8f	0.1028434
45	0xbd5e57c5	-0.054282922
46	0xbdebaadc	-0.11507198
47	0x3dba472f	0.090956084
48	0x3db58c4a	0.08864649
49	0xbdffdd2f	-0.12493359
50	0xbda5d98c	-0.080981344
51	0xbc092b89	-0.008372196
52	0x3de9ebc1	0.114219196
53	0xbdce82a6	-0.10083513
54	0x3d058dc0	0.032605886
55	0x3ce57afd	0.028012747
56	0x3cf995e0	0.030466974
57	0x3dd2295c	0.10261795
58	0x3de6526f	0.11246192
59	0xbdfb313c	-0.1226525
60	0x3d0437f3	0.03227992
61	0xbdfc98e0	-0.12333846
62	0xbdd59a4c	-0.104298204
63	0x3d502db9	0.050824855
