archived/ppo_2048_2000.pth (torch, 449893 bytes, 9 tensors)

network.0.weight f4 [256, 272]
0	0x3d42fe41	0.047605757
1	0x3c846f61	0.01616639
2	0x3d44cd19	0.04804716
3	0x3bb22a41	0.005437166
4	0x3d333d67	0.04375973
5	0x3d5a24a4	0.0532576
6	0x3cdd9bc6	0.027051818
7	0xbc4841c7	-0.012222714
8	0x3d5a38e2	0.053276904
9	0xbcec1073	-0.028816437
10	0x3d51fb45	0.05126502
11	0x3cd0341d	0.025415475
12	0x3d1377f7	0.03600308
13	0x3d46ffba	0.048583724
14	0x3cfcc92c	0.030857645
15	0xbbbc8d51	-0.005754151
16	0xbd527529	-0.051381264
17	0x3c939bd8	0.018018648
18	0x3d6c8aa2	0.057749398
19	0xbd01cb90	-0.031688273
20	0x3ce9a9cf	0.028523354
21	0x3d48fd4f	0.0490697
22	0xbaa1521d	-0.0012307797
23	0xbd1265bf	-0.035741564
24	0xbcf012ed	-0.0293059
25	0x3d3c547b	0.045979004
26	0xbc7f69b2	-0.015589165
27	0x3cf541be	0.029938575
28	0x3cb63277	0.02224086
29	0x3ceb769b	0.028743079
30	0x3c7ce98d	0.015436542
31	0x3d6b89a7	0.057504322
32	0x3ce72792	0.02821711
33	0xbc2a19b9	-0.010382109
34	0xbd5d4574	-0.054021314
35	0x3ce80ce6	0.028326463
36	0xbb93697d	-0.004498659
37	0xb833325e	-4.2723834e-05
38	0xbcc1de24	-0.023665495
39	0x3d4805a6	0.04883351
40	0x3b5ee226	0.0034009307
41	0xbbf0a536	-0.0073439134
42	0x3d8505c2	0.06495239
43	0x3d6babf5	0.057537038
44	0xbb0a4ba7	-0.0021102221
45	0x3cd0df6f	0.025497166
46	0xbd1c7232	-0.038194843
47	0xbd497131	-0.049180213
48	0x3d38ba3d	0.045099486
49	0x3d13f1d9	0.036119316
50	0xbd268cf2	-0.04066176
51	0xbd865dc8	-0.06560856
52	0x3d50c371	0.050967637
53	0xbbdfdf64	-0.00683205
54	0x3a90a7b3	0.0011036306
55	0x3cf5c19f	0.029999552
56	0x3d4e8c26	0.050426625
57	0x3d379df8	0.044828385
58	0xbad96026	-0.0016584441
59	0x3d467217	0.04844865
60	0x3b3be95d	0.002867303
61	0x3c931999	0.017956542
62	0x3ce41741	0.02784312
63	0x3c777908	0.01510454
64	0x3d44577c	0.047934994
65	0x3d608fdb	0.05482469
66	0x3cee93d2	0.02912322
67	0x3d5d54d1	0.054035965
68	0xbd1efe50	-0.03881675
69	0xbce4accf	-0.027914433
70	0xbd2492fb	-0.040179234
71	0xbc88f7e1	-0.01671976
72	0xbb8169fc	-0.003949402
73	0xbc9403fd	-0.018068308
74	0xbcc8a032	-0.02449045
75	0x3bde9ea1	0.0067938124
76	0x3d4dbde1	0.05022991
77	0x3d435cee	0.047696047
78	0x3d11b8c8	0.03557661
79	0xbc7bf3be	-0.015377937
80	0x3d1fd987	0.03902581
81	0xbd146b69	-0.036235247
82	0xbd02ff0f	-0.031981524
83	0x3ce6978c	0.028148435
84	0xbcd139fa	-0.02554034
85	0x3c7266bf	0.014795004
86	0x3c04ac05	0.008097653
87	0x3d61fe82	0.05517436
88	0xbc5496b4	-0.012975384
89	0xbd756686	-0.059912227
90	0x3c792dff	0.01520872
91	0xbb6f8a56	-0.003655096
92	0x3cf1d65b	0.029521158
93	0x3d365b65	0.044520754
94	0x3d4b390f	0.049614962
95	0x3d13d406	0.036090873
96	0xbd4c929a	-0.049944498
97	0x3cf57b6b	0.029966077
98	0x3c5a3943	0.013319316
99	0xbd3a5fce	-0.045501523
100	0x3d18ae5e	0.037275665
101	0x3cd478e3	0.02593655
102	0xbd886d9e	-0.06661533
103	0xbc071b19	-0.008246207
104	0xbd17e15d	-0.037080158
105	0x3d41acf5	0.047284085
106	0xbd350494	-0.04419382
107	0x3c6decc2	0.0145217795
108	0x3be25da0	0.0069081336
109	0x3d2fc8a3	0.04291595
110	0xbb988699	-0.004654717
111	0x3d3bb92d	0.045830894
112	0x3c0898e0	0.0083372295
113	0xbd5084b0	-0.05090779
114	0xbd636585	-0.05551674
115	0x3c5681a4	0.013092432
116	0x3cecb7e4	0.02889628
117	0x3cdce97c	0.026966803
118	0x3d4a7315	0.049426157
119	0x39ed419c	0.00045253045
120	0xbc0701de	-0.008240191
121	0xbcb9836b	-0.022645673
122	0x3d2c60cc	0.0420845
123	0xbd3ddb4a	-0.04635171
124	0xbd1ad785	-0.03780319
125	0x3da1677c	0.07881066
126	0x3bdd8143	0.006759794
127	0x3da538c0	0.08067465
128	0xbd440f96	-0.047866426
129	0x3d36722f	0.044542488
130	0x3d35ad01	0.044354443
131	0x3c5c9062	0.013462158
132	0x3d3787f6	0.044807397
133	0xbc05c6c2	-0.008165063
134	0x3d22607e	0.039642803
135	0xbca23635	-0.019801239
136	0xbd5bb3a5	-0.05363812
137	0xbd0db987	-0.03460076
138	0xbd61a60b	-0.05508999
139	0xbc7c51ea	-0.015400389
140	0x3d816cb2	0.0631956
141	0x3c9303c8	0.017946139
142	0x3bff85c8	0.0077979304
143	0x3cdef317	0.027215524
144	0x3d617a8c	0.05504851
145	0x3b36db8f	0.0027901863
146	0x39d9aeed	0.00041519795
147	0x3d30a240	0.043123484
148	0x3cc2c179	0.023773896
149	0x3d48f2fb	0.04905985
150	0xbd4f6bcf	-0.050639924
151	0x3d49af4d	0.049239445
152	0xbd290dc1	-0.041272882
153	0xbbc2bcec	-0.0059429314
154	0xbcf99832	-0.03046808
155	0xbbc86481	-0.0061154966
156	0x3d2c60c8	0.042084485
157	0xbb5fe6b3	-0.0034164607
158	0x3d8d7a58	0.06908101
159	0x3c4c68b3	0.012476134
160	0xbc4fc480	-0.012681127
161	0x3dd53d28	0.10412055
162	0x3d4d42b5	0.050112445
163	0xbcdbddcd	-0.026839161
164	0xbce262cc	-0.027635
165	0xbd763187	-0.060105827
166	0xbc06a4eb	-0.00821803
167	0x3c9f805f	0.019470392
168	0x3d6d1536	0.057881556
169	0x3ca770d2	0.02043954
170	0xbd53030c	-0.051516578
171	0x3cb38155	0.021912256
172	0xbd3c2839	-0.045936797
173	0x3d2f0554	0.04272969
174	0x3c9702b9	0.018433915
175	0xbc4691c7	-0.012119717
176	0x3c85c905	0.016331205
177	0x3cdba1a0	0.026810467
178	0xbcbbb125	-0.022911618
179	0xbca5dd13	-0.020247018
180	0x3d497c97	0.049191084
181	0x3d5df4c6	0.054188512
182	0x3d208ee6	0.03919878
183	0x3d10c81f	0.0353471
184	0xbcd07a16	-0.02544884
185	0x3d250da0	0.040296197
186	0xbd501a24	-0.05080618
187	0xbcd3c4bd	-0.025850648
188	0xbc5e0f20	-0.013553411
189	0x3ca4dc58	0.0201246
190	0x3b88ebd7	0.004178505
191	0x3b9c7f83	0.004775943
192	0x3c19cd75	0.009387364
193	0x3cfb7232	0.030694101
194	0x3d808590	0.06275475
195	0x3d964587	0.0733748
196	0xbd72c2df	-0.059267875
197	0x3cabee3a	0.020987619
198	0xbd6ed6c3	-0.05831028
199	0xbca0a415	-0.01960949
200	0xbd252dfb	-0.040327054
201	0x3d482642	0.04886461
202	0x3d778f1a	0.060439207
203	0xbd6c0c40	-0.05762887
204	0xbc96665d	-0.018359357
205	0xbd24d371	-0.04024071
206	0xbc16d45e	-0.009205906
207	0x3d81587d	0.06315706
208	0x3d659732	0.056052394
209	0xbb484bfe	-0.0030562873
210	0x3d839ef4	0.06426802
211	0x3ca4de00	0.02012539
212	0x3ccc7cea	0.024961907
213	0x3cad7965	0.02117605
214	0x3d46a5f2	0.0484981
215	0x3d381693	0.044943403
216	0xbd56b73a	-0.052420832
217	0x3d1b9471	0.03798336
218	0x3ca65a12	0.02030662
219	0x3c88ec76	0.016714316
220	0xbc3ac032	-0.011398362
221	0xbd024726	-0.031806134
222	0x3c881d35	0.01661549
223	0x3bd1534d	0.006388104
224	0xbc9c0659	-0.019045996
225	0x39a7ace8	0.00031981547
226	0xbd010d51	-0.03150684
227	0x3d65f9d3	0.056146454
228	0x3d2ed6ea	0.042685427
229	0x3d9ffda3	0.07812049
230	0x3c4bd2a1	0.012440355
231	0xbd2437e4	-0.040092364
232	0x3d72128b	0.059099715
233	0x3d7775e7	0.060415175
234	0xbc4606f2	-0.012086617
235	0xbbc1eebd	-0.0059183524
236	0xbcc092c3	-0.023507481
237	0xbd165c79	-0.036709283
238	0xbb4b4557	-0.0031016672
239	0x3d12c315	0.035830576
240	0xbcb5edab	-0.022208055
241	0x3c091f4f	0.008369281
242	0xbd44d944	-0.048058763
243	0xbb1e7efc	-0.0024184575
244	0x3bf7b43f	0.007559329
245	0x3c0a3290	0.008434907
246	0x3c430885	0.011903887
247	0xbd1b2753	-0.0378793
248	0xbd42ed34	-0.047589496
249	0x3c0fe011	0.008781449
250	0xbce3cfb1	-0.027808996
251	0x3c5b80ce	0.013397409
252	0xbd32ad2a	-0.043622173
253	0xbd382368	-0.04495564
254	0x3cd70289	0.026246326
255	0x3a2c89fe	0.0006581842

network.0.bias f4 [256]
0	0x3d8bf1eb	0.068332516
1	0xbb1f478c	-0.002430412
2	0x3d99a428	0.075020134
3	0xbb70eb67	-0.0036761404
4	0x3d835d76	0.06414311
5	0x3c95c0c4	0.018280394
6	0xbd470d92	-0.048596926
7	0x3d24a05a	0.040191986
8	0xbc0df91e	-0.008665351
9	0xbcb6407f	-0.022247551
10	0x3d3c9694	0.04604204
11	0xbd53bedc	-0.05169569
12	0x3c86b685	0.016444454
13	0xbabebd48	-0.001455226
14	0x3d7e3d26	0.062070034
15	0x3d39c51b	0.04535399
16	0x3ac90ecc	0.0015339493
17	0xbb827fea	-0.0039825337
18	0xbd40a96e	-0.04703658
19	0x3d1c9aae	0.03823345
20	0x3d0433c6	0.032275937
21	0xbc18b53f	-0.009320556
22	0x3d5d06d2	0.053961582
23	0x3d24dce2	0.040249713
24	0xbc93e6e2	-0.01805443
25	0x3c910d84	0.01770664
26	0x3c1c3802	0.009534838
27	0x3d06104e	0.032730393
28	0x3cce8e6d	0.025214398
29	0x3d0370d2	0.032090016
30	0x3c95ed7e	0.018301722
31	0x3d801c01	0.06255341
32	0x3c4d5a02	0.012533667
33	0xbcd58a6d	-0.026066983
34	0xbc938e08	-0.018012062
35	0x3c2fe02a	0.010734597
36	0x3acd5228	0.0015664743
37	0x3ced41d3	0.028962051
38	0xbd426bb2	-0.047465988
39	0xbd394998	-0.0452362
40	0xbc8076a1	-0.015681567
41	0x38f62c0e	0.000117384
42	0x3d5f0e59	0.054457042
43	0x3d72e40b	0.05929951
44	0x3cc995c5	0.024607548
45	0x3d8deb5e	0.06929658
46	0xbc4e7f8b	-0.012603651
47	0x3ce139de	0.027493414
48	0x3c8e947a	0.017404784
49	0x3c13df3c	0.009025391
50	0x3d856851	0.065140374
51	0x3d561de3	0.052274596
52	0xbcef0d44	-0.02918113
53	0x3cfd17df	0.030895172
54	0x3d2c56b3	0.04207487
55	0x3d4c83f2	0.04993052
56	0xbd3fad1e	-0.046795957
57	0x3d0fd974	0.03511949
58	0xbcbab53b	-0.022791496
59	0xbd2fe9b4	-0.042947486
60	0x3d0c2526	0.034215115
61	0x3d8af598	0.067851245
62	0x3c9e53e5	0.019327113
63	0xbd32d244	-0.043657556
64	0x3d2d015b	0.04223762
65	0xbc912c6e	-0.017721381
66	0x3d6b4daf	0.05744713
67	0x3aaa330f	0.0012985187
68	0xbd5f34f9	-0.054493878
69	0x3d273baa	0.040828384
70	0xbcd1707d	-0.025566334
71	0x3cd0da6c	0.025494777
72	0x3d315c7b	0.043301087
73	0x3c73b8dc	0.014875617
74	0x3d03ab31	0.032145683
75	0x3c5bacca	0.013407895
76	0x398a6b7d	0.00026401496
77	0x3d3b5f45	0.045745153
78	0x3bb0d7bf	0.0053968127
79	0x3ca65cd4	0.020307936
80	0xbcdd4ec1	-0.027015092
81	0xbc5b9de9	-0.013404348
82	0x3c9c8477	0.019106133
83	0x3cfecd5f	0.031103788
84	0x3bb61bdb	0.00555752
85	0xbc799335	-0.015232851
86	0xbd19e93e	-0.037575953
87	0xbd15542a	-0.03645722
88	0x3d56eafc	0.052470192
89	0x3d355767	0.044272806
90	0x3b238f60	0.0024957284
91	0xbc7c795e	-0.015409796
92	0x3d5c1ead	0.053740192
93	0x3c1f41f4	0.009720314
94	0xbaaefedf	-0.0013351104
95	0xbd3c0bf5	-0.04590984
96	0x3d243ad6	0.040095173
97	0xbd40ac29	-0.047039185
98	0x3d8127a2	0.063063875
99	0x3d18afc7	0.03727701
100	0xbd1843ff	-0.03717422
101	0x3bfc50d3	0.0077000647
102	0x3c4f0602	0.01263571
103	0x3afb2364	0.0019160328
104	0x3d002160	0.03128183
105	0x3cb5ed8b	0.022207996
106	0x3c32a480	0.010903478
107	0x3c5c1dd9	0.013434851
108	0xbd274449	-0.040836606
109	0x3d8537ba	0.065047696
110	0x3d961229	0.073276825
111	0x3cc3a6a2	0.023883168
112	0x3c437916	0.011930725
113	0x3d6a719c	0.057237253
114	0x3d035ede	0.032072894
115	0x3c73931d	0.0148666175
116	0x3cb900c1	0.022583367
117	0x3a020775	0.00049602176
118	0xbd10a0a5	-0.035309453
119	0xbd20c02b	-0.039245766
120	0x3cc2e7bb	0.023792138
121	0xbd7dac7d	-0.061932076
122	0x3c904e95	0.017615596
123	0x3cca2fec	0.024681054
124	0x3c847093	0.01616696
125	0x3cec2523	0.028826302
126	0x3cb0ebdb	0.02159684
127	0x3d14c3ab	0.036319416
128	0x3d62d8db	0.05538259
129	0xbc7cc06e	-0.015426738
130	0x3d714afd	0.058909405
131	0xbc5e016f	-0.0135501465
132	0x3d43a5f2	0.04776568
133	0xbca1ff16	-0.019774955
134	0xbd0137eb	-0.03154747
135	0x3d6e08df	0.05811393
136	0x3cdb5faf	0.026779024
137	0x3d5f7fff	0.054565426
138	0xbc38c6ef	-0.011277898
139	0xbd080baf	-0.033214267
140	0x3bbfa09e	0.0058480045
141	0x3c2a5657	0.010396562
142	0x3cc26961	0.02373189
143	0x3d52a278	0.051424474
144	0x3d0d209d	0.03445493
145	0x3d4ade2e	0.049528293
146	0x3c9b57a2	0.018962685
147	0x390db1c5	0.00013513032
148	0x3d54fe3d	0.052000273
149	0x3d29986c	0.041405126
150	0x3c41d10c	0.011829626
151	0x3cd54dff	0.026038168
152	0x3b9ed719	0.004847419
153	0x3b1fb669	0.00243702
154	0xbcfc8a15	-0.030827561
155	0xbd69c19b	-0.057069402
156	0xbd267daf	-0.040647205
157	0xbca82a61	-0.02052802
158	0x3d875443	0.066078685
159	0x3d43ee6d	0.047834802
160	0x3d4ac1a6	0.049501084
161	0xbcd2d2a5	-0.025735209
162	0xbcee91b4	-0.029122211
163	0xbd18520a	-0.037187614
164	0x3c701f5c	0.014655914
165	0xbcc7f7c3	-0.024410134
166	0xbd6c202e	-0.057647876
167	0xbd00c454	-0.031437233
168	0x3c94e9d7	0.01817791
169	0xbd4097ad	-0.04701965
170	0xbc4a5ab7	-0.01235073
171	0xbcb5a0a0	-0.022171319
172	0x3a317ce7	0.0006770626
173	0x3cb219fc	0.021740906
174	0xbd1eea15	-0.038797457
175	0xbd1578a9	-0.036492024
176	0x3cb31b6c	0.021863662
177	0xbcca3956	-0.024685543
178	0x3d03d4dc	0.03218542
179	0xbd529f4e	-0.051421456
180	0xbb207e47	-0.002448933
181	0x3d6328cc	0.05545883
182	0x3d418ca1	0.047253255
183	0xbcbe25cb	-0.02321138
184	0x3d9070de	0.07052778
185	0x3cf51775	0.029918412
186	0x3d09aed5	0.033614
187	0x3cd695b4	0.02619443
188	0x3d36c1a9	0.044618282
189	0xbd1ed2f0	-0.038775384
190	0xbaedc7d7	-0.0018141222
191	0x3d3bd45d	0.045856822
192	0x3cca579b	0.024699977
193	0x3ce68de7	0.028143836
194	0x3cbc43dd	0.022981578
195	0x3d7306af	0.059332546
196	0xbd109294	-0.035296038
197	0x3cbfa8fc	0.023396008
198	0x3d4ec7c7	0.05048349
199	0x3cd05ffc	0.025436394
200	0x3d10d0f5	0.035355527
201	0x3d7a133d	0.061053503
202	0x3c4c18ab	0.012457053
203	0xbd054549	-0.03253678
204	0x3d5fe0bc	0.054657683
205	0x3cfd7f89	0.030944603
206	0x3cf7da56	0.030255478
207	0xbd3688fd	-0.044564236
208	0x3d50bf1e	0.050963514
209	0xbb2fcc95	-0.0026824821
210	0xbcdfcbd9	-0.027318882
211	0x3b2066c3	0.0024475313
212	0x3d6ea9b1	0.0582673
213	0x3d246bf7	0.040142026
214	0xbcb2667a	-0.02177738
215	0x3c8f5638	0.017497167
216	0xbd03954c	-0.032124802
217	0x3d27f728	0.04100719
218	0x3d2b90bb	0.041886073
219	0x3c72b637	0.014813951
220	0xbb2c12bd	-0.0026256286
221	0x3d1ce14b	0.038300794
222	0x3a382552	0.0007024604
223	0x3ccd96fb	0.025096407
224	0xbd14f36c	-0.036364958
225	0x3be9d02b	0.0071354113
226	0x3c45081a	0.012025857
227	0xbcce2364	-0.02516336
228	0x3d860345	0.06543592
229	0x3d60d499	0.05489025
230	0xbc9df664	-0.019282527
231	0x3d6f7590	0.058461726
232	0xbc43aeb9	-0.011943513
233	0xbd2d84b9	-0.042362902
234	0xbcac98a9	-0.021068888
235	0x3bdd8845	0.0067606294
236	0xbc92a4a1	-0.017900767
237	0x3c4a410c	0.01234461
238	0x3c5ba423	0.013405832
239	0x3c8d99ef	0.017285315
240	0xbd3b6021	-0.045745973
241	0xba6002d4	-0.00085453433
242	0x3d9332ef	0.07187449
243	0x3d212cfc	0.03934954
244	0x3c85e18e	0.016342904
245	0x3c755d0a	0.0149757955
246	0x3ce1cd23	0.027563637
247	0x3cdba50e	0.026812103
248	0xbd046216	-0.032320105
249	0x3ccd4f6e	0.02506229
250	0xbd3ee0d6	-0.04660114
251	0xbcbb9d3a	-0.02290212
252	0x3d1b8a20	0.037973523
253	0x3b98cd66	0.0046631573
254	0xb9950a36	-0.00028427102
255	0xbc3b83bf	-0.011444985

network.2.weight f4 [128, 256]
0	0x3d369ea7	0.044584896
1	0xbc8aa53e	-0.016924497
2	0xbd0e805c	-0.03479038
3	0xbc8410ef	-0.016121356
4	0x3d74e518	0.059788793
5	0xbd9864d5	-0.07441107
6	0x3d4dfc60	0.05028951
7	0x3c7006d3	0.0146500645
8	0x3d18a117	0.037263002
9	0x3d956769	0.072951145
10	0xbd2b7588	-0.041860133
11	0xbd4b700b	-0.0496674
12	0xbd141363	-0.0361513
13	0x3cb3827c	0.021912806
14	0xbcc440e5	-0.023956725
15	0x3d65ef55	0.056136448
16	0x3d213647	0.039358404
17	0xbc8537f2	-0.016262028
18	0x3c50ec54	0.0127516575
19	0x3d918f0d	0.07107363
20	0x3d722094	0.0591131
21	0x3cacf7df	0.021114288
22	0xbcbf355f	-0.023340879
23	0xbd01becf	-0.03167611
24	0xbd01e12f	-0.031708892
25	0xbd78a911	-0.06070811
26	0x3d6252ee	0.05525487
27	0x3bb17bed	0.0054163844
28	0x3c96c89c	0.018406205
29	0x3d4cc57e	0.04999303
30	0xbc1fa586	-0.009744054
31	0x3c15e786	0.009149438
32	0xbc884cc5	-0.016638169
33	0x3b9df2db	0.0048202104
34	0xbc048d51	-0.008090333
35	0x3d0445b4	0.032293037
36	0x3d4601ce	0.048341565
37	0xbd63c48d	-0.055607367
38	0x3b54543a	0.0032398836
39	0x3d1e0997	0.038583364
40	0xbd1a9ce2	-0.03774727
41	0x3d100686	0.03516247
42	0x3d726cfb	0.059185963
43	0x3d20b0f9	0.039231274
44	0x3d3173d8	0.043323368
45	0xbd38f379	-0.04515407
46	0x3d2fa411	0.042881075
47	0x3d815c01	0.063163765
48	0x3d5d9850	0.054100335
49	0xbd253093	-0.040329527
50	0x3ca2f88a	0.019893903
51	0x3d74265d	0.0596069
52	0xbc78e8be	-0.015192209
53	0x3d3a6356	0.04550489
54	0x3d51c4dd	0.051213134
55	0xbd809914	-0.06279197
56	0x3d896a46	0.06709723
57	0x3d2ab965	0.041680712
58	0xbd13c86f	-0.03607982
59	0xbc64c163	-0.013962123
60	0x3cf00750	0.029300362
61	0xbd2e6be7	-0.042583372
62	0x3bf10a04	0.0073559303
63	0x3cb4e7b5	0.022083143
64	0xbd39276c	-0.04520361
65	0x3cf19167	0.029488279
66	0xbbf05b41	-0.007335097
67	0xbc2487f6	-0.010042181
68	0x3d0382f0	0.032107294
69	0x3d74446c	0.059635565
70	0x3d54b917	0.051934328
71	0x3d30ac3d	0.04313301
72	0x3c831a95	0.016003886
73	0x3d3ac914	0.04560192
74	0x3ca7620f	0.0204325
75	0xbd2e3849	-0.042534146
76	0xbce3110b	-0.027718088
77	0xbd2958a3	-0.041344296
78	0x3c080293	0.008301395
79	0xbcdf2cae	-0.027242985
80	0x3cb22947	0.021748198
81	0xbcccd69b	-0.025004676
82	0x3c7177be	0.014738021
83	0x3d10430d	0.035220195
84	0x3d4a6f4c	0.049422547
85	0x3d15e07a	0.03659103
86	0x3c178fce	0.009250594
87	0x3d12c2d3	0.03583033
88	0x3d2d375e	0.04228913
89	0xbd1a7331	-0.03770751
90	0x3d3b48e5	0.045723815
91	0x3d7aa2a9	0.06119028
92	0x3d4fcd63	0.05073298
93	0x3d1d7fcc	0.038451955
94	0x3d4a4d86	0.04939034
95	0x3c01faff	0.007933377
96	0x3ce23824	0.02761466
97	0xbc7c401f	-0.015396147
98	0x3d510bc2	0.051036604
99	0xbc7caca0	-0.015422016
100	0xbcfd771d	-0.030940587
101	0x3d242161	0.040070895
102	0x3bf0a248	0.007343564
103	0xbc4f24ef	-0.012643083
104	0xbd06f6a2	-0.03295005
105	0x3d235fe4	0.03988637
106	0x3d96e7fd	0.07368467
107	0x3d18a69e	0.037268274
108	0xbd8594fb	-0.065225564
109	0xbd0efefb	-0.034911137
110	0xbc865fbd	-0.016403073
111	0xbcdd1a0f	-0.026989965
112	0x3b3aaa43	0.0028482832
113	0x3c57165f	0.013127892
114	0x3c6877b1	0.014188693
115	0xbd085004	-0.033279434
116	0xbceac6fa	-0.028659333
117	0x3cb09d22	0.021559302
118	0x3d82d09f	0.063874476
119	0x3d25e889	0.040504966
120	0x3d3107a6	0.043220185
121	0xbcffb6bd	-0.031215066
122	0xbbda7eb8	-0.006667938
123	0xbd11cde2	-0.035596736
124	0xbce47f9f	-0.027892886
125	0xbce9ad85	-0.028525123
126	0x3d2a00be	0.041504614
127	0xbca66bc7	-0.020315064
128	0xbcbaf82d	-0.022823418
129	0xbcbcb3f0	-0.02303502
130	0xbd5418ba	-0.051781394
131	0xbcf2e4ec	-0.029650174
132	0xbb6ee027	-0.0036449523
133	0xbb4fc7b4	-0.0031704726
134	0xbc40c098	-0.011764668
135	0x3d37cb47	0.044871595
136	0x3d37197b	0.044702034
137	0xbd091b6b	-0.033473413
138	0x3d8aa889	0.06770427
139	0xbd4d4edc	-0.050124034
140	0x3d222bf7	0.03959271
141	0xbd133c1e	-0.035946004
142	0x3c01f346	0.007931536
143	0x3c251531	0.010075853
144	0x3d46f7ac	0.048576042
145	0xbc33aed1	-0.010966972
146	0x3c166ac4	0.009180728
147	0x3cf00a95	0.02930192
148	0x3b230b56	0.0024878583
149	0x3d8140e5	0.06311206
150	0x3d9d9a11	0.076954015
151	0x3d8252d3	0.06363454
152	0xbcb5cc09	-0.022192018
153	0xbd0b704a	-0.034042634
154	0x3d277550	0.040883362
155	0x3d36aed2	0.044600315
156	0x3c96c99c	0.018406682
157	0x3c61f731	0.013791845
158	0xbd283c23	-0.041072976
159	0x3c90ea10	0.017689735
160	0x3d464de0	0.04841411
161	0xbbab52a2	-0.0052283565
162	0x3ca3ca41	0.019993903
163	0x3d59f75e	0.053214423
164	0x3d987daa	0.074458435
165	0xbd5e9f94	-0.054351404
166	0xbd2dd39b	-0.04243813
167	0xbc0cb169	-0.00858722
168	0x3caf6aab	0.021413168
169	0xbbf9eea3	-0.0076273247
170	0xbd1dc35d	-0.03851639
171	0x396563d2	0.00021876328
172	0x3d02a578	0.031896085
173	0x3d65b715	0.056082804
174	0xbcd23524	-0.025660105
175	0xbd49e51e	-0.04929077
176	0x3d690ac3	0.05689503
177	0x3d2a42d3	0.041567635
178	0x3cd5a266	0.026078414
179	0xbd9482a3	-0.072514795
180	0x3c9f55d9	0.019450115
181	0x3d80ac29	0.06282837
182	0x3d476f18	0.04868993
183	0xbc848e39	-0.016181098
184	0x3bea3fac	0.0071487036
185	0xbc6cee3b	-0.014461095
186	0x3d870269	0.065922566
187	0xbd43a6bd	-0.047766436
188	0x3b837db6	0.0040127886
189	0xbd747199	-0.059678648
190	0xbd4ad55e	-0.04951989
191	0x3d0d6dc2	0.0345285
192	0xbb92c096	-0.0044785244
193	0x3ca185ee	0.019717183
194	0x3d7f99e1	0.06240261
195	0x3d9d932b	0.07694086
196	0x3d439ab2	0.04775495
197	0xbba05f61	-0.0048941826
198	0xbd371c50	-0.044704735
199	0x3ce10310	0.02746728
200	0xbd29d7ba	-0.0414655
201	0x3d274e7f	0.040846344
202	0x3cd56175	0.026047448
203	0xbb4b2869	-0.0030999428
204	0x3d621d25	0.055203576
205	0x3cc9c40b	0.024629613
206	0xbd70f5c8	-0.058828145
207	0xbcd7bd1f	-0.026335297
208	0x3d2cf481	0.042225365
209	0x3d511a7c	0.051050648
210	0x3d9a4dda	0.0753438
211	0x3c5a5baa	0.0133275185
212	0x3a947e43	0.0011329133
213	0xbce2ad30	-0.027670473
214	0x3c105db6	0.008811405
215	0x3c76999a	0.01505127
216	0x3cb51794	0.02210597
217	0xbc98035b	-0.018556288
218	0xbcb25932	-0.021771047
219	0xbbed4d92	-0.007241913
220	0x3d9aa3c5	0.07550768
221	0x3d67db76	0.05660578
222	0xbc65911e	-0.014011649
223	0x3d76fbec	0.060298845
224	0x3d8ae586	0.06782059
225	0x3bada255	0.0052988925
226	0xbd1a397c	-0.037652478
227	0x3d583d5a	0.052792884
228	0xbc8e1d1a	-0.017347861
229	0x3d816038	0.063171804
230	0xbd913fa5	-0.07092217
231	0x3d6209ab	0.055185
232	0x3d18e57f	0.03732824
233	0xbc760899	-0.015016698
234	0x3d7c3cb9	0.061581347
235	0x3c13120a	0.008976469
236	0xbd2c1526	-0.042012356
237	0x3cd11dbf	0.02552688
238	0xbcb7c549	-0.02243294
239	0x3d04392c	0.032281086
240	0xbcf2f7b3	-0.029659128
241	0x3c88cff4	0.016700722
242	0xbcb42ec9	-0.021994965
243	0x3d95dc4e	0.073174104
244	0xbcb280ac	-0.021789871
245	0xbd18a6ba	-0.037268378
246	0xbd364bca	-0.04450587
247	0xbd632ddb	-0.055463653
248	0xbce60e16	-0.028082889
249	0x3d599985	0.053124923
250	0x3d6bca2c	0.057565853
251	0xbd4e31d0	-0.050340474
252	0x3d255a70	0.04036945
253	0x3d49aa61	0.04923475
254	0xbd93a882	-0.07209875
255	0x3cc68727	0.024234368

network.2.bias f4 [128]
0	0x3d37528d	0.04475646
1	0x3c820742	0.015872601
2	0x3ce2f22a	0.027703363
3	0xbd220f1d	-0.039565194
4	0xbc9f7990	-0.019467145
5	0x3d3cb0c4	0.046067014
6	0x3b9f4b9d	0.0048613087
7	0x3da5fc08	0.08104712
8	0x3d161cbb	0.036648493
9	0x3d0f0415	0.034916002
10	0xbcf057ab	-0.029338678
11	0xbcdb7b2e	-0.026792135
12	0xbd853b7d	-0.06505487
13	0x3c54e2da	0.012993539
14	0xbd7badad	-0.061444927
15	0xbcf0621b	-0.029343655
16	0x3b9aedf6	0.004728074
17	0xbd590c5f	-0.052990314
18	0xbbceaa2b	-0.0063069067
19	0x3c74a397	0.014931581
20	0xbd197247	-0.0374625
21	0x3a882676	0.0010387439
22	0x3d83c5d9	0.06434221
23	0x3ce6df26	0.028182577
24	0x3bfada91	0.0076554497
25	0xbd6d263c	-0.05789779
26	0x3d8e7d61	0.06957508
27	0x3d311758	0.043235153
28	0x3d20a6c2	0.039221533
29	0xbd12b4de	-0.03581702
30	0xbc02e820	-0.007989913
31	0x3d792e78	0.06083533
32	0x3cd06052	0.025436554
33	0x3d6de872	0.058083005
34	0xbc00cd56	-0.007861456
35	0xbcface3d	-0.03061592
36	0x3d1e8b5e	0.03870713
37	0x3cc4bcdb	0.024015835
38	0xbcd5fedc	-0.026122503
39	0x3c8d2a7a	0.017232168
40	0x3cfede6d	0.03111192
41	0x3bf731bc	0.0075437706
42	0xbb66c7b2	-0.0035214243
43	0x3d4d9094	0.05018671
44	0xbc1f69c5	-0.009729807
45	0x3cedbcbb	0.029020658
46	0xbd868732	-0.06568755
47	0xbc6f055e	-0.014588682
48	0x3c422543	0.011849704
49	0xbcf91ef6	-0.030410271
50	0x3d95b055	0.07309023
51	0xbcfb7425	-0.03069503
52	0xbcfe175f	-0.031017004
53	0xbc9e715d	-0.019341165
54	0x3d4f9d24	0.05068697
55	0xbd109595	-0.035298903
56	0x3b8c258e	0.004276938
57	0xbb581650	-0.0032972284
58	0x3ba929cd	0.0051624537
59	0xbd379633	-0.044820976
60	0x3d1ef6a0	0.03880942
61	0x3d3dbfc9	0.04632548
62	0xbd8cd226	-0.0687602
63	0x3c38ff39	0.011291319
64	0xbcff6b45	-0.03117908
65	0xbcf2e1b7	-0.029648645
66	0xbc46c458	-0.012131773
67	0x3ce46b3d	0.027883166
68	0x3c7048cc	0.014665794
69	0x3ca1e683	0.019763237
70	0xbcaa909a	-0.020820905
71	0xbd2f7374	-0.042834714
72	0xbc86baaf	-0.01644644
73	0x3d016662	0.03159178
74	0xbd0cd9da	-0.034387447
75	0xbd093388	-0.03349641
76	0xbcc77ff8	-0.024353012
77	0x3b8e49a7	0.004342276
78	0x3c7562bc	0.014977153
79	0x3c643c5d	0.013930407
80	0xbd3104e1	-0.043217544
81	0xbc1a0217	-0.009399912
82	0x3ca51a37	0.020154102
83	0xbb6cd3a2	-0.0036136885
84	0xbd1193a9	-0.03554121
85	0xbbafbd62	-0.0053631524
86	0x3bb68608	0.005570177
87	0x3ab8a2a0	0.0014086552
88	0xbd1ae247	-0.03781345
89	0x3d11628a	0.035494365
90	0x3d9dd031	0.07705725
91	0x3d027ef3	0.03185935
92	0xbbc87e7c	-0.0061185937
93	0xbb3276a2	-0.0027231355
94	0xbd327376	-0.043567143
95	0xbd7f8577	-0.06238314
96	0xbcfe034f	-0.031007437
97	0x3d39de41	0.045377973
98	0xbc393dec	-0.011306267
99	0xbcedd51e	-0.029032286
100	0x3d0978b4	0.033562377
101	0x3aeb2db2	0.0017942695
102	0x3d053d81	0.032529358
103	0xbce5cc7b	-0.028051605
104	0x3d5adbf1	0.05343241
105	0x3c7bdfe2	0.015373202
106	0x3d823fd7	0.06359833
107	0x3c833249	0.016015189
108	0x3c798b03	0.015230897
109	0x3ca3b26c	0.01998254
110	0xbd167208	-0.036729842
111	0x3d3225e4	0.043493167
112	0xbc87a652	-0.0165588
113	0xbcf07da0	-0.029356778
114	0xbd0bbab1	-0.03411359
115	0x3d0a948f	0.033833083
116	0x3d587457	0.052845325
117	0x3d2856f3	0.041098546
118	0xbcea84f6	-0.028627854
119	0xbd6f40ae	-0.058411293
120	0xbd393f7e	-0.045226566
121	0xbc7bf31a	-0.015377784
122	0x3d8b9869	0.06816179
123	0x3d64ddce	0.055875592
124	0xbd144be9	-0.036205206
125	0x3d323046	0.04350307
126	0xbd127e38	-0.035764903
127	0x3d4db52b	0.050221603

network.4.weight f4 [64, 128]
0	0x3dd52cce	0.104089364
1	0xbb27328e	-0.002551231
2	0xbc8093da	-0.015695501
3	0x3b92a531	0.0044752588
4	0x3cac9ae8	0.021069959
5	0xbbd5ff60	-0.006530687
6	0xbc86e408	-0.016466156
7	0x3d8c3b91	0.06847299
8	0x3c865f72	0.016402934
9	0xbd12306e	-0.035690717
10	0xbc596827	-0.013269461
11	0xbd37812e	-0.04480093
12	0xbd91518b	-0.07095631
13	0x3cf35fe6	0.029708814
14	0xba668944	-0.0008794258
15	0xbc1d1e2a	-0.009589711
16	0xbd7888f5	-0.060677487
17	0xbd13b3a2	-0.036059983
18	0x3d21e58e	0.03952556
19	0xbdc50369	-0.09619791
20	0x3d180f4b	0.03712396
21	0x3d90fbdc	0.07079288
22	0xbcd14dfe	-0.025549885
23	0x3dc2da61	0.09514309
24	0x3da7d65e	0.08195184
25	0xbc4deecb	-0.01256914
26	0x3d140e41	0.036146406
27	0xbda04d11	-0.07827199
28	0x3ca762b5	0.02043281
29	0xbd81233e	-0.0630555
30	0x3d08fefc	0.033446297
31	0x3d6c9f38	0.05776903
32	0x3d2ed8b9	0.04268715
33	0xbd5ec006	-0.054382347
34	0x3d180cb2	0.037121482
35	0x3c97d74b	0.018535277
36	0x3d14e74d	0.036353398
37	0x3db80837	0.08985942
38	0x3cea09f1	0.028569194
39	0x3d499c9f	0.04922163
40	0x3cf7b4be	0.030237552
41	0xbd2912c6	-0.04127767
42	0xbd23e8cf	-0.040016945
43	0x3d967cb9	0.07348008
44	0x3ba1696c	0.0049258973
45	0xbd3ce761	-0.046119098
46	0x3d04f67c	0.03246163
47	0x3dbd9e79	0.09258742
48	0x3ddfdac5	0.10930399
49	0xbcb4cab5	-0.022069314
50	0xbd5d2fe1	-0.05400074
51	0x3da44b16	0.08022134
52	0xbd1f16d7	-0.03884014
53	0xbc6b7f98	-0.014373682
54	0x3d393045	0.04521205
55	0xbd96a70d	-0.07356081
56	0x3d89b476	0.06723873
57	0xbd7b1124	-0.061295643
58	0xbdc4f39b	-0.096167766
59	0x3d0b78c1	0.034050707
60	0x3cdbd6cb	0.02683582
61	0x3cf29536	0.029612165
62	0xbd6e7ca7	-0.058224346
63	0xbd0a58f2	-0.03377623
64	0x3c85bd3f	0.016325591
65	0xbd4a1d45	-0.04934432
66	0x3cc71e3d	0.02430641
67	0xbd5179e4	-0.051141635
68	0xbd40233b	-0.0469086
69	0x3c952d59	0.0182101
70	0x3d80a6de	0.062818274
71	0xbc7d6247	-0.015465326
72	0x3b325dc9	0.0027216545
73	0x3d8d6b14	0.06905189
74	0xbd4487ad	-0.047980953
75	0x3cd58579	0.026064621
76	0xbd4523ab	-0.04812972
77	0xbd44b4e8	-0.04802409
78	0xbda8518a	-0.08218677
79	0xbdd2bf79	-0.10290427
80	0x3d87a9ca	0.066241816
81	0x3d8d7050	0.069061875
82	0xbc1b6805	-0.009485249
83	0xbc89cb20	-0.01682049
84	0xbd8763cd	-0.06610832
85	0x3d194076	0.03741499
86	0xbd8f3649	-0.06992776
87	0xbc5a8092	-0.013336318
88	0x3dc41a52	0.09575333
89	0xbdb58eff	-0.08865165
90	0x3db601f5	0.08887092
91	0x3cc37663	0.023860162
92	0xbcf31003	-0.02967072
93	0xbd94693f	-0.072466366
94	0xbd520a84	-0.05127956
95	0xbcbc330e	-0.022973564
96	0xbd3d42f1	-0.04620642
97	0x3d1b3245	0.037889738
98	0xbc587887	-0.01321233
99	0x3cd5797a	0.026058901
100	0xbdb55ec5	-0.088559665
101	0x3ddeafc3	0.10873368
102	0x3d321b5d	0.043483127
103	0x3d915c6d	0.07097707
104	0x3cad7f42	0.021178845
105	0x3cf8bcff	0.030363558
106	0x3dc9ecf8	0.09859651
107	0xbb592498	-0.0033133384
108	0xbd893046	-0.066986606
109	0x3dd9b1e6	0.106296346
110	0x3d3c6ddc	0.046003208
111	0x3d793d31	0.060849372
112	0xbcb9c720	-0.022677958
113	0xbc17d996	-0.009268185
114	0x3da0c652	0.078503266
115	0x3da31f0e	0.079649076
116	0x3d210005	0.03930666
117	0xbdc3d56f	-0.095621936
118	0xbd742f61	-0.059615497
119	0x3cc29ede	0.023757394
120	0x3cd1789d	0.025570208
121	0x3da0a16a	0.07843287
122	0x3dbb696f	0.09150969
123	0x3d83fad6	0.064443275
124	0xbd3f3758	-0.04668364
125	0x3dd1df1b	0.10247632
126	0xbd9cb08a	-0.0765086
127	0xbd389ed2	-0.045073338
128	0x3cbfc7a4	0.023410626
129	0xbccda21d	-0.025101716
130	0xbd00a58a	-0.03140787
131	0x3d0da581	0.034581665
132	0x3db2ea3f	0.08736085
133	0x3c8f429f	0.017487822
134	0xbd2fd695	-0.04292925
135	0x3b9a8514	0.004715571
136	0x3d25c1af	0.040467914
137	0x3d3cf093	0.046127867
138	0x3da3e714	0.08003059
139	0x3c57ef7f	0.013179659
140	0xbd369f4f	-0.044585522
141	0x3db78d5c	0.08962509
142	0xbd5016b8	-0.050802916
143	0x3da8badc	0.082387656
144	0x3d20ea75	0.039286096
145	0x3b40604f	0.002935428
146	0xbb7b219b	-0.003831959
147	0xbd715476	-0.05891844
148	0xbd8a325c	-0.067478865
149	0x3d2fcccc	0.04291992
150	0x3d600390	0.054690897
151	0xbd8e389d	-0.06944392
152	0x3d81c337	0.063360624
153	0x3d43f8cc	0.047844693
154	0x3d917d8c	0.07104024
155	0x3d1ede43	0.038786184
156	0x3da5225f	0.080631964
157	0xbd261ae8	-0.040553004
158	0x3d811782	0.06303312
159	0x3cafd36f	0.021463124
160	0xbd9046b5	-0.07044736
161	0x3d8262f3	0.06366529
162	0x3d3ebe5b	0.046568256
163	0x3d9b29d8	0.075763404
164	0xbd34678a	-0.044044055
165	0xbd942260	-0.07233119
166	0xbcd83797	-0.026393695
167	0xbd1df737	-0.03856584
168	0xbdba742b	-0.091041885
169	0x3c7ebf02	0.0155484695
170	0x3d1f6d39	0.038922522
171	0x3d329a03	0.04360391
172	0xbd3d8ac0	-0.0462749
173	0xbd20edd8	-0.039289325
174	0xbdafe81a	-0.08589192
175	0x3cf94a38	0.030430898
176	0x3d83ada8	0.06429607
177	0x3beff37d	0.0073227272
178	0xbd1b780f	-0.037956294
179	0xbd58406e	-0.05279582
180	0x3d7e0709	0.062018428
181	0xbd784eaf	-0.060621914
182	0xbd4f5515	-0.05061825
183	0xbc998adb	-0.01874297
184	0x3d027542	0.031850107
185	0xbd383849	-0.044975553
186	0x3d8b1a2b	0.067921005
187	0xbd31cada	-0.043406345
188	0x3c3aaeb9	0.011394196
189	0xbc44efd5	-0.012020071
190	0xbdb48d99	-0.0881607
191	0xbc57d3e1	-0.013173074
192	0x3d21fffa	0.03955076
193	0xbd415f8f	-0.047210272
194	0xbd6098a2	-0.054833062
195	0xbad022d1	-0.0015879517
196	0x3d81a635	0.063305296
197	0x3d5c461e	0.053777806
198	0xbd547435	-0.051868636
199	0xbc6aacc1	-0.014323414
200	0x3d6977e9	0.05699912
201	0xbd58574e	-0.052817635
202	0x3db7d1c3	0.08975556
203	0x3c787911	0.015165583
204	0x3ba4fa4a	0.0050347196
205	0xbcc07fae	-0.023498382
206	0x3d737f5c	0.05944763
207	0x3dd006cb	0.10157546
208	0xbc7bf73d	-0.01537877
209	0xbc9a915f	-0.018868146
210	0x3c9d7236	0.0192195
211	0xbd526f7e	-0.05137586
212	0x3cd21d50	0.025648743
213	0x3d686afa	0.056742646
214	0xbd3b8175	-0.045777757
215	0xbd1a0a54	-0.037607506
216	0xbdcee9e1	-0.101032026
217	0xbccb55ea	-0.02482124
218	0xbdca686f	-0.098832004
219	0xbd99f9a8	-0.07518321
220	0xbca2104f	-0.019783167
221	0xbd176043	-0.036957037
222	0xbc2053c7	-0.009785599
223	0x3c0e242f	0.008675619
224	0xbd0eba78	-0.0348458
225	0xbd59d58d	-0.053182174
226	0xbd282fc3	-0.041061174
227	0xbdaecf77	-0.085356645
228	0x3d85d767	0.06535225
229	0xbd9089b1	-0.070575126
230	0x3cf4cfde	0.029884275
231	0x3cf6de0d	0.030135179
232	0xbd0261e7	-0.03183165
233	0x3cd7f850	0.026363522
234	0xbd531262	-0.051531203
235	0x3d582e1f	0.05277836
236	0x3d253c02	0.04034043
237	0x3cf9781a	0.030452777
238	0x3d2f3adc	0.042780742
239	0xbdb42f90	-0.08798134
240	0xbd7f092c	-0.062264606
241	0x3ccf28c7	0.025287999
242	0xbcd277c7	-0.02569188
243	0xbd25d5e9	-0.040487204
244	0x3ba2c03b	0.0049667633
245	0x3db0e686	0.08637719
246	0x3bc0b42d	0.0058808536
247	0xbc55e4fa	-0.013055081
248	0xbd419114	-0.047257498
249	0x3bde3046	0.006780657
250	0x3d620e46	0.055189393
251	0xbc809df8	-0.015700325
252	0xbd9783f6	-0.073982164
253	0xbdc62ddf	-0.09676718
254	0x3d7f29f5	0.062295873
255	0xbd7410b9	-0.05958626

network.4.bias f4 [64]
0	0x3d02ba39	0.031915877
1	0x3d7ccf40	0.061721087
2	0x3cb00d0e	0.0214906
3	0xbd1e3897	-0.038628187
4	0xbd3e3f63	-0.04644717
5	0xbd8a977b	-0.06767174
6	0xbccb3e8e	-0.024810102
7	0x3d25c3e4	0.04047002
8	0x3d90c50a	0.07068832
9	0xbd8f4e8e	-0.06997405
10	0x3d87635e	0.0661075
11	0x3d74af3a	0.05973742
12	0xbd7a32c4	-0.06108357
13	0x3d5eccb6	0.054394446
14	0xbca88501	-0.020571234
15	0x3d399da7	0.045316365
16	0x3d972960	0.073809385
17	0x3d13dc95	0.036099035
18	0x3d734d3c	0.05939983
19	0xbd156c2b	-0.03648011
20	0x3d02ba2e	0.031915836
21	0xbbe3ce9f	-0.0069521214
22	0xbd40ad95	-0.04704054
23	0x3db6f752	0.08933891
24	0x3d703401	0.058643345
25	0xbdb2498d	-0.08705435
26	0xbc7b2434	-0.015328456
27	0x3c116603	0.008874419
28	0x3bfcda2c	0.007716438
29	0xbdb1a800	-0.086746216
30	0xbbb209ca	-0.005433296
31	0xbd8d14e9	-0.06888754
32	0xbda05aa4	-0.07829788
33	0x3d8654d1	0.06559146
34	0xbc00c624	-0.00785974
35	0x3b17fe11	0.0023192207
36	0xbc3b2df3	-0.011424529
37	0xbc3ed4ef	-0.011647447
38	0x3d93422e	0.07190357
39	0xbd6b782b	-0.057487648
40	0xbbe94f81	-0.0071200733
41	0xbd88688f	-0.06660568
42	0x3c8c8b8e	0.017156389
43	0x3d211336	0.03932496
44	0xbdb30f56	-0.087431595
45	0x3d8ef8c4	0.06981042
46	0xbc741d4a	-0.014899561
47	0xbba86988	-0.0051395334
48	0xbd42ce32	-0.047559924
49	0xbce6c500	-0.028170109
50	0xbda1e0d5	-0.079042114
51	0x3dadef3a	0.084928945
52	0x3d2b7762	0.0418619
53	0x3c9380f7	0.018005831
54	0xbd3598a0	-0.044335008
55	0x3c00c2f4	0.00785898
56	0xbcfd07aa	-0.030887444
57	0x3d886265	0.06659392
58	0xbda25d36	-0.07927935
59	0x3dba2b50	0.090902925
60	0xbdb320bb	-0.08746477
61	0x3d8087ad	0.06275878
62	0xbc5eb5b2	-0.013593124
63	0xbd234e66	-0.03986969

actor.weight f4 [4, 64]
0	0x3be2e0ef	0.006923787
1	0xbd76ce41	-0.060255293
2	0x3cfaec0f	0.03063014
3	0x3d9e7c8a	0.07738598
4	0x3d049b6e	0.03237479
5	0xbd52a371	-0.0514254
6	0xbddac545	-0.106821574
7	0xbd7c06bf	-0.06152987
8	0xbd33e998	-0.043923944
9	0xbd9b03a1	-0.075690515
10	0xbd9255cc	-0.07145271
11	0xbd17907a	-0.037003018
12	0x3ccd319b	0.025048068
13	0x3d37b9ce	0.04485493
14	0x3d68ee93	0.056868147
15	0x3e05113f	0.1299486
16	0x3d95c8dd	0.07313702
17	0xbcdc5df0	-0.026900262
18	0x3dae8a53	0.08522477
19	0xbd27e447	-0.040989187
20	0x3d5fb35d	0.054614414
21	0x3d055b9d	0.032558072
22	0x39b28a00	0.00034053624
23	0xbd126b2d	-0.035746742
24	0xbdaaea25	-0.08345441
25	0xbdf57103	-0.11984446
26	0xbdda82f0	-0.106695056
27	0xbd637115	-0.055527765
28	0x3c2cdb2a	0.0105503
29	0x3d660b7f	0.056163307
30	0xbdaa6274	-0.0831956
31	0x3d00ec3d	0.031475294
32	0x3d1c7f58	0.038207382
33	0x3d1e3b26	0.038630627
34	0xbdcb1ac7	-0.09917217
35	0xbd22074f	-0.03955775
36	0xbd6f597a	-0.05843494
37	0xbdc0f848	-0.09422356
38	0x3d9bb00b	0.07601937
39	0xbd325804	-0.04354097
40	0xbc5441b5	-0.012955119
41	0xbde4ea61	-0.11177517
42	0x3d3a578a	0.04549364
43	0xbdd92431	-0.10602606
44	0x3cdad7e5	0.026714275
45	0xbda57f33	-0.08080902
46	0x3de1e573	0.11030092
47	0xbd298b0d	-0.041392375
48	0x3deb8796	0.1150047
49	0x3dd1607b	0.1022348
50	0xbd27b540	-0.040944338
51	0xbd087421	-0.033313874
52	0xbda555fe	-0.08073042
53	0xbbab43b2	-0.005226576
54	0x3dde0f84	0.10842803
55	0xbdb28097	-0.08715933
56	0xbd692a4d	-0.056925107
57	0xbd6de568	-0.058080107
58	0xbcc4e64b	-0.024035593
59	0x3dd5f84e	0.10447751
60	0xbcd0c9cd	-0.025486851
61	0xbc698f8e	-0.0142554175
62	0xbcdfc5f5	-0.027316073
63	0x3d98e022	0.07464625
64	0x3cc78178	0.024353728
65	0x3dc343f6	0.09534447
66	0x3c740d88	0.014895804
67	0x3dd6b86b	0.10484394
68	0x3d7951ff	0.060869213
69	0x3ca32ec2	0.019919757
70	0x3cf44df8	0.029822335
71	0xbe03b02f	-0.12860177
72	0x3dbacdb2	0.091212645
73	0x3d3b3d60	0.04571283
74	0xbdf64905	-0.12025646
75	0xbe0c95ca	-0.13729015
76	0xbda959a6	-0.08269052
77	0x3dde6c57	0.10860508
78	0xbd882d5b	-0.06649276
79	0xbc84fe8c	-0.016234659
80	0xbe09ab64	-0.13444287
81	0xbceef013	-0.02916721
82	0xbd73287f	-0.059364792
83	0x3dab2708	0.08357054
84	0xbdc4905e	-0.09597848
85	0xbd9b13a8	-0.075721085
86	0x3da098b4	0.07841626
87	0xbd0ca567	-0.034337427
88	0xbde8bcf4	-0.11364165
89	0x3d7c2cd0	0.061566174
90	0xbdb3632a	-0.087591484
91	0x3c330096	0.010925433
92	0x3be32c95	0.006932805
93	0xbd0c56b6	-0.03426238
94	0xbb0808aa	-0.0020757117
95	0x3caf3aa6	0.02139027
96	0xbd537fc0	-0.051635504
97	0x3da2c214	0.07947174
98	0xbd22ce70	-0.039747655
99	0xb93ff126	-0.00018305014
100	0x3d43b05c	0.04777561
101	0x3b9ffb7e	0.004882275
102	0xbb0bc3fd	-0.0021326535
103	0xbcc89748	-0.024486199
104	0xbdc2eac4	-0.09517434
105	0xbd83ada9	-0.064296074
106	0x3d486ffe	0.04893493
107	0x3def522c	0.11685595
108	0xbd0a3a07	-0.033746745
109	0x3caa2bfb	0.020772925
110	0xbd5e4723	-0.05426706
111	0x3d6dcc89	0.058056388
112	0xbdd68f17	-0.10476511
113	0xbdb395f1	-0.087688334
114	0x3d6962f8	0.05697915
115	0x3df112d0	0.11771166
116	0xbd02be00	-0.03191948
117	0xbc91af47	-0.017783774
118	0xbdf7dee0	-0.12103057
119	0x3ced6201	0.028977396
120	0xbd1ddb3b	-0.038539153
121	0x3ddc9c06	0.107719466
122	0x3de98abd	0.11403415
123	0xbd293ced	-0.04131787
124	0xbdd8ebed	-0.10591874
125	0x3d769520	0.06020081
126	0x3da90ef7	0.082548074
127	0x3d413291	0.047167365
128	0xbd822d78	-0.06356329
129	0xbc9310de	-0.017952379
130	0xbd82374b	-0.063582025
131	0x3d845be3	0.064628385
132	0x3dd2f4cf	0.103006
133	0xbda79e32	-0.0818447
134	0xbcbaecf0	-0.022818059
135	0x3dbfba4c	0.09361705
136	0x3cab8866	0.020939063
137	0xbd79f61f	-0.061025735
138	0xbda80a86	-0.08205132
139	0xbd33357c	-0.04375218
140	0x3dae892c	0.08522257
141	0xbb140927	-0.0022588463
142	0xbd619171	-0.055070344
143	0x3b193336	0.0023376471
144	0x3d134f22	0.03596414
145	0xbd5c4cfb	-0.05378435
146	0x3d5d1510	0.053975165
147	0xbdf5c2c8	-0.12000042
148	0xbd9a51e7	-0.07535153
149	0x3d3762a3	0.0447718
150	0xbdae7640	-0.08518648
151	0xbdd7edd5	-0.1054341
152	0x3dc08d7f	0.09401988
153	0xbdad94e6	-0.08475666
154	0xbde484f1	-0.11158169
155	0x3d84e5b1	0.06489123
156	0xbe00000f	-0.12500022
157	0x3de5519a	0.11197205
158	0xbde77948	-0.113024294
159	0xbdd6f883	-0.104966186
160	0x3ddd109c	0.107941836
161	0xbd593c3b	-0.053035956
162	0xbcfb8d9c	-0.030707173
163	0x3c192c6f	0.009348973
164	0xbd1a591d	-0.03768264
165	0xbcab0c75	-0.020879963
166	0x3da768ca	0.08174284
167	0x3dc5eb9e	0.09664081
168	0xbd9e42ee	-0.077276096
169	0xbd8bc9c9	-0.06825597
170	0xbdfd9dd6	-0.123836204
171	0x3d49b47c	0.04924439
172	0xbc71f2ab	-0.014767329
173	0xbdc299e0	-0.095020056
174	0xbd9c8f1c	-0.076444834
175	0xbc07b0f7	-0.008281938
176	0x3d8fb92c	0.070177406
177	0x3df2db8f	0.11858284
178	0xbc06d770	-0.008230075
179	0x3dd328ff	0.10310554
180	0x3da631ba	0.08114953
181	0xbd3d4d4b	-0.04621629
182	0x3d9a3912	0.075304165
183	0x3d971d02	0.0737858
184	0x3dbce707	0.092237525
185	0xbd99aa70	-0.075032115
186	0xbcc56747	-0.024097098
187	0x3cfc21ef	0.0307779
188	0x3de01049	0.10940606
189	0xbd9f872d	-0.077894546
190	0x3d772033	0.060333442
191	0xbd6f7845	-0.058464307
192	0x3cf7dba6	0.030256104
193	0xbd871a7f	-0.065968506
194	0xbdf14ef7	-0.117826395
195	0x3db5eda3	0.08883216
196	0xbd29675f	-0.041358348
197	0xbdc8296e	-0.09773527
198	0xbdc225da	-0.09479876
199	0xbd71d24d	-0.05903845
200	0xbd92cc96	-0.07167928
201	0xbdd124d9	-0.10212106
202	0x3dced07a	0.100983575
203	0x3d3cf90e	0.046135955
204	0x3d774117	0.06036481
205	0xbbebb6ba	-0.0071934136
206	0x3dd82967	0.10554772
207	0x3df41646	0.11918311
208	0x3dcc4535	0.09974138
209	0x3d5a733b	0.05333255
210	0x3deaa191	0.114565976
211	0x3dc38d9d	0.09548495
212	0x3dbc162f	0.09183919
213	0xbd11b8b7	-0.03557655
214	0xbdb1f938	-0.08690113
215	0xbd04a6fa	-0.032385804
216	0x3db19b6c	0.086722225
217	0xbc088219	-0.008331799
218	0xbd9c4374	-0.07630053
219	0x3d912c8b	0.07088574
220	0xbd4122eb	-0.04715244
221	0xbada37ed	-0.0016648747
222	0xbcad72d7	-0.021172924
223	0xbd35551b	-0.044270616
224	0x3d37bf38	0.044860095
225	0xbdb7b30a	-0.08969696
226	0x3e0260ac	0.1273219
227	0x3da4f315	0.08054177
228	0x3d1b26b4	0.037878707
229	0xbd2a92cf	-0.041643914
230	0x3d330618	0.043706983
231	0xbc84bd40	-0.016203523
232	0xbde147e9	-0.11000044
233	0x3dec8984	0.115496665
234	0xbb7b89bb	-0.0038381654
235	0xbc2b3349	-0.010449239
236	0xbd5234ad	-0.051319767
237	0xbd8c4cdf	-0.068505995
238	0x3c796ad9	0.015223228
239	0x3df5cad6	0.120015785
240	0x3dce8f3f	0.10085916
241	0xbdc2abfc	-0.0950546
242	0x3cb48a20	0.02203852
243	0x3ca266ee	0.019824471
244	0x3da42147	0.0801416
245	0xbcd40bbb	-0.0258845
246	0x3d0301e8	0.03198424
247	0xbc42c5b3	-0.0118879555
248	0x3d48f407	0.049060848
249	0xba0e5e43	-0.0005430916
250	0x3df2ea1d	0.1186106
251	0xbdeae9d5	-0.11470381
252	0xbd787f71	-0.060668413
253	0xbc9ba2d8	-0.018998548
254	0x3da9a0de	0.08282636
255	0x3d9a249e	0.075265154

actor.bias f4 [4]
0	0x3d159902	0.036522873
1	0xbda2f729	-0.07957298
2	0x3cf11553	0.029429113
3	0xbc0b3d2f	-0.008498474

critic.weight f4 [1, 64]
0	0xbdebd8d1	-0.11515964
1	0x3dceb0df	0.10092329
2	0xbd2a8484	-0.041630283
3	0x3d09c361	0.033633593
4	0xbcf073c2	-0.029352073
5	0xbc8f68b0	-0.017505974
6	0xbdad4508	-0.08460432
7	0x3df7ddee	0.121028766
8	0x3c78cdd7	0.015185795
9	0x3ddf0fbc	0.10891673
10	0xbd2d88b4	-0.0423667
11	0x3cb4d570	0.022074431
12	0x3ddf0704	0.1089001
13	0x3d5819a4	0.052758828
14	0xbd7e51a2	-0.06208957
15	0x3d9205d4	0.07130018
16	0x3d9d5af7	0.07683366
17	0xbdd58923	-0.104265474
18	0xbd49873a	-0.049201228
19	0xbada0bc2	-0.0016635584
20	0xbc421b27	-0.011847294
21	0x3cd92998	0.026509091
22	0x3da80734	0.08204499
23	0xbd9d8902	-0.07692148
24	0xbda267b8	-0.07929939
25	0x3d853138	0.06503528
26	0x3d8c86c2	0.068616405
27	0x3cca583f	0.024700282
28	0x3da036cb	0.07822951
29	0xbc09598f	-0.008383169
30	0xbb7de13a	-0.0038738982
31	0x3d5976e2	0.05309189
32	0x3d3b527f	0.04573297
33	0x3e04d9bb	0.12973683
34	0xbd9a59f8	-0.075366914
35	0x3d2401e8	0.04004088
36	0xbd4b26e4	-0.049597636
37	0x3d4a0983	0.049325477
38	0x3e026723	0.12734656
39	0xbdc371cc	-0.095431894
40	0x3be467a4	0.0069703627
41	0xbdb2170d	-0.08695803
42	0x3da5cbe2	0.08095528
43	0xbe0b3dd0	-0.13597798
44	0x3dd29f8f	0.1028434
45	0xbd6da370	-0.058017194
46	0xbdf12bff	-0.1177597
47	0x3dba47b4	0.090957075
48	0x3db58c4a	0.08864649
49	0xbe037081	-0.12835886
50	0xbda5d98c	-0.080981344
51	0xbc095b11	-0.008383528
52	0x3de9703e	0.113983616
53	0xbdd46f1d	-0.10372756
54	0x3d058dc0	0.032605886
55	0x3ceb1320	0.028695643
56	0x3cf997c4	0.030467875
57	0x3dd2cacd	0.102925874
58	0x3de6526f	0.11246192
59	0xbe00317e	-0.1251888
60	0x3d0437f3	0.03227992
61	0xbe013eb1	-0.12621571
62	0xbdd59a4c	-0.104298204
63	0x3d504947	0.050851133
