archived/ppo_2048_1500.pth (torch, 449893 bytes, 9 tensors)

network.0.weight f4 [256, 272]
000000 32 05 46 3d 07 1a 6b 3c 95 88 3c 3d 50 8e 59 3c
       0.0483448 0.014349467 0.046028692 0.013278559
000010 dc 97 2d 3d 48 54 3f 3d c3 a4 b7 3c 98 32 5a bc
       0.042381153 0.046711236 0.022417432 -0.013317727
000020 75 1b 47 3d 73 10 ec bc 45 fb 51 3d 1d 34 d0 3c
       0.04861017 -0.028816437 0.05126502 0.025415475
000030 f7 77 13 3d ba ff 46 3d 2c c9 fc 3c 51 8d bc bb
       0.03600308 0.048583724 0.030857645 -0.005754151
000040 29 75 52 bd 7a 31 a2 3c 2c 4d 7a 3d f1 68 0e bd
       -0.051381264 0.019798983 0.061108753 -0.03476805
000050 e3 0b e7 3c b8 bd 3a 3d 5d ec 44 ba b9 e1 26 bd
       0.02820391 0.045591086 -0.00075120275 -0.04074261
000060 7a d6 ce bc 2f 71 16 3d b2 69 7f bc be 41 f5 3c
       -0.025248755 0.036729034 -0.015589165 0.029938575
000070 77 32 b6 3c 9b 76 eb 3c 8d e9 7c 3c a7 89 6b 3d
       0.02224086 0.028743079 0.015436542 0.057504322
000080 92 27 e7 3c b9 19 2a bc 34 e7 59 bd a4 b0 d7 3c
       0.02821711 -0.010382109 -0.053199008 0.026329346
000090 78 93 a5 bb e6 e1 6a bb c2 cd a5 bc ae 47 4f 3d
       -0.00505298 -0.0035840212 -0.020239715 0.05060547
0000a0 38 8e cb 39 91 b5 9f bb fe a0 81 3d f5 ab 6b 3d
       0.00038825138 -0.0048739393 0.06329535 0.057537038
0000b0 a7 4b 0a bb 6f df d0 3c 32 72 1c bd 31 71 49 bd
       -0.0021102221 0.025497166 -0.038194843 -0.049180213
0000c0 3d ba 38 3d d9 f1 13 3d f2 8c 26 bd e9 cc 79 bd
       0.045099486 0.036119316 -0.04066176 -0.060986433
0000d0 6e 0d 5a 3d 5d 55 a1 bb 68 5d ab bb a4 fa bd 3c
       0.053235464 -0.004923506 -0.0052296408 0.023190804
0000e0 63 c5 48 3d de eb 1c 3d c8 3d 86 bb 6d 95 25 3d
       0.049016368 0.038310878 -0.0040967204 0.040425707
0000f0 5d e9 3b 3b 99 19 93 3c 41 17 e4 3c 08 79 77 3c
       0.002867303 0.017956542 0.02784312 0.01510454
000100 7c 57 44 3d db 8f 60 3d d2 93 ee 3c d1 54 5d 3d
       0.047934994 0.05482469 0.02912322 0.054035965
000110 57 35 21 bd a0 db da bc ee a1 39 bd df ad 4a bc
       -0.03935751 -0.026716053 -0.045320444 -0.012370556
000120 d6 8f 85 bb 12 74 5e bc 01 51 e6 bc ed d6 0a 3b
       -0.0040759845 -0.013577478 -0.028114798 0.0021185235
000130 99 b4 3c 3d ee 5c 43 3d c8 b8 11 3d be f3 7b bc
       0.04607067 0.047696047 0.03557661 -0.015377937
000140 87 d9 1f 3d 69 6b 14 bd 0f ff 02 bd 8c 97 e6 3c
       0.03902581 -0.036235247 -0.031981524 0.028148435
000150 fa 39 d1 bc bd 9f 61 3c fb 86 2e 3c f5 74 60 3d
       -0.02554034 0.013770995 0.010652299 0.05479904
000160 2c 9a 51 bc 53 19 80 bd 2b d7 6a 3c b1 95 10 bb
       -0.012793105 -0.0625483 0.014333527 -0.002206188
000170 49 cf 00 3d a1 7c 05 3d 0f 39 4b 3d 06 d4 13 3d
       0.031447683 0.03258956 0.049614962 0.036090873
000180 9a 92 4c bd 6b 7b f5 3c 43 39 5a 3c ce 5f 3a bd
       -0.049944498 0.029966077 0.013319316 -0.045501523
000190 5e ae 18 3d e3 78 d4 3c 3d a5 85 bd 9b 59 48 bc
       0.037275665 0.02593655 -0.06525657 -0.012228395
0001a0 ec 27 13 bd 86 df 54 3d 35 21 40 bd 0c 66 51 3c
       -0.035926744 0.05197098 -0.04690667 0.0127806775
0001b0 97 1f 05 3c fd f6 2b 3d 4d f9 55 bc 2d b9 3b 3d
       0.008125207 0.041983593 -0.013059926 0.045830894
0001c0 e0 98 08 3c b0 84 50 bd 85 65 63 bd a4 81 56 3c
       0.0083372295 -0.05090779 -0.05551674 0.013092432
0001d0 e4 b7 ec 3c 7c e9 dc 3c 15 73 4a 3d 18 72 96 3b
       0.02889628 0.026966803 0.049426157 0.0045912378
0001e0 01 63 1c bc 4b ad b7 bc 06 df 29 3d ee d1 3b bd
       -0.009545089 -0.0224215 0.041472457 -0.0458545
0001f0 3b 45 21 bd 47 0a 9a 3d eb 14 6b 3b 99 16 a4 3d
       -0.039372664 0.075214915 0.0035870622 0.08012123
000200 96 0f 44 bd 2f 72 36 3d 01 ad 35 3d 62 90 5c 3c
       -0.047866426 0.044542488 0.044354443 0.013462158
000210 f6 87 37 3d c2 c6 05 bc 7e 60 22 3d 35 36 a2 bc
       0.044807397 -0.008165063 0.039642803 -0.019801239
000220 0d af 6c bd ab a0 10 bd 4f 8d 4a bd 2c 6f 60 bc
       -0.05778413 -0.035309475 -0.04945117 -0.01369838
000230 a2 cf 84 3d 8c e7 84 3c 08 6e b4 3b ed 51 cd 3c
       0.06484915 0.016223691 0.005506281 0.02506348
000240 75 dc 4b 3d 8f db 36 3b ed ae d9 39 40 a2 30 3d
       0.04977079 0.0027901863 0.00041519795 0.043123484
000250 79 c1 c2 3c fb f2 48 3d cf 6b 4f bd 4d af 49 3d
       0.023773896 0.04905985 -0.050639924 0.049239445
000260 c1 0d 29 bd d3 73 8c bb b3 48 04 bd ae 3f 80 bb
       -0.041272882 -0.0042862683 -0.032295894 -0.003913841
000270 51 de 2b 3d 20 5f ae 3a 97 20 88 3d 4c 19 47 3c
       0.041960064 0.0013303496 0.06646841 0.012152027
000280 75 08 83 bc 8d cf c7 3d b5 42 4d 3d cd dd db bc
       -0.015995244 0.09756384 0.050112445 -0.026839161
000290 cc 62 e2 bc 87 31 76 bd eb a4 06 bc 5f 80 9f 3c
       -0.027635 -0.060105827 -0.00821803 0.019470392
0002a0 36 15 6d 3d d2 70 a7 3c 6d 13 4e bd 3e bb b8 3c
       0.057881556 0.02043954 -0.050311495 0.022550222
0002b0 7b af 34 bd cc a2 32 3d 51 f7 85 3c fa 63 40 bc
       -0.044112664 0.043612286 0.016353281 -0.011742586
0002c0 0d 15 83 3c f6 65 cd 3c b0 b2 d6 bc 13 dd a5 bc
       0.016001249 0.025073033 -0.026208252 -0.020247018
0002d0 97 7c 49 3d c6 f4 5d 3d e6 8e 20 3d 1f c8 10 3d
       0.049191084 0.054188512 0.03919878 0.0353471
0002e0 16 7a d0 bc a0 0d 25 3d 24 1a 50 bd 4f 72 b2 bc
       -0.02544884 0.040296197 -0.05080618 -0.021783022
0002f0 2f 58 64 bc df 75 9a 3c 3f 43 a0 3b 40 76 17 3c
       -0.01393704 0.018855033 0.004890829 0.009244502
000300 83 37 df 3b 84 83 e0 3c 39 88 53 3d da 50 93 3d
       0.0068120374 0.027406462 0.051643584 0.071931556
000310 df c2 72 bd 3a ee ab 3c c3 d6 6e bd 15 a4 a0 bc
       -0.059267875 0.020987619 -0.05831028 -0.01960949
000320 fb 2d 25 bd 42 26 48 3d 1a 8f 77 3d 40 0c 6c bd
       -0.040327054 0.04886461 0.060439207 -0.05762887
000330 82 2a ad bc fb a6 29 bd d6 33 45 bc 9c 49 86 3d
       -0.021138433 -0.04141901 -0.012036284 0.065570086
000340 0a 53 7a 3d 3e ce 21 bb ba 7c 80 3d 0b 14 ae 3c
       0.06111435 -0.002468958 0.0627379 0.021249792
000350 ae 9c ce 3c 65 79 ad 3c f2 a5 46 3d 93 16 38 3d
       0.025221195 0.02117605 0.0484981 0.044943403
000360 3a b7 56 bd 71 94 1b 3d 12 5a a6 3c 76 ec 88 3c
       -0.052420832 0.03798336 0.02030662 0.016714316
000370 32 c0 3a bc e6 4f 03 bd e4 89 88 3c aa f2 de 3b
       -0.011398362 -0.03205862 0.016667314 0.00680383
000380 6b b6 7d bc ae df d5 ba bc 27 09 bd 40 3a 50 3d
       -0.015485386 -0.0016317272 -0.03348516 0.0508368
000390 0e b3 34 3d 0b 1d 9b 3d a1 d2 4b 3c e4 37 24 bd
       0.044116072 0.07573899 0.012440355 -0.040092364
0003a0 8b 12 72 3d e7 75 77 3d f2 06 46 bc bd ee c1 bb
       0.059099715 0.060415175 -0.012086617 -0.0059183524
0003b0 c3 92 c0 bc 79 5c 16 bd ab 0e 84 bb c5 51 0f 3d
       -0.023507481 -0.036709283 -0.004030069 0.03499009
0003c0 00 5d c0 bc f3 c8 12 3c 02 24 44 bd b6 43 21 bb
       -0.023481846 0.008959043 -0.047885902 -0.002460701
0003d0 a0 ab 21 3c f3 03 17 3c 2a a6 11 3c 53 27 1b bd
       0.009867579 0.00921725 0.008889714 -0.0378793
0003e0 34 ed 42 bd 11 e0 0f 3c b1 cf e3 bc ce 80 5b 3c
       -0.047589496 0.008781449 -0.027808996 0.013397409
0003f0 2a ad 32 bd 68 23 38 bd 89 02 d7 3c a7 db 1a 3b
       -0.043622173 -0.04495564 0.026246326 0.0023629458

network.0.bias f4 [256]
000000 63 f5 8a 3d fe 88 5b ba ce 8a 97 3d 05 ef 8d bb
       0.06785085 -0.00083746004 0.07399522 -0.004331472
000010 38 a5 86 3d 7a f9 9d 3c bc 82 40 bd d0 19 22 3d
       0.06574482 0.019283999 -0.046999678 0.039575398
000020 66 d8 ec bb 31 c6 d6 bc 20 02 40 3d cb 84 56 bd
       -0.007227945 -0.026217552 0.046877027 -0.052372735
000030 fc e9 6d 3c b7 0f a6 b9 1c 89 7d 3d 52 c6 3d 3d
       0.014521118 -0.00031673696 0.061898336 0.04633171
000040 fa 82 22 3b 6f 19 b1 bb 5e 96 34 bd 58 ac 20 3d
       0.0024797306 -0.0054046432 -0.044088714 0.03922686
000050 14 b9 09 3d 12 68 16 bc 3c 66 5f 3d ba 1a 26 3d
       0.03362377 -0.009180086 0.054540858 0.040552832
000060 e9 a7 93 bc 72 b1 92 3c 95 50 21 3c 7d 62 fd 3c
       -0.018024402 0.017906878 0.009845872 0.030930752
000070 7c ec c7 3c 8b 17 ed 3c 40 44 8c 3c 9f f2 79 3d
       0.024404757 0.02894189 0.017122388 0.061022397
000080 83 6a 02 3c 8d 27 ee bc 4d e4 9f bc 13 f6 3f 3c
       0.007959965 -0.029071594 -0.019518042 0.0117163835
000090 86 e6 1d 3b c0 25 f5 3c 81 c1 3a bd aa 28 34 bd
       0.0024093702 0.029925227 -0.045594696 -0.043984093
0000a0 dc 1e 81 bc e3 08 48 bb e2 e8 54 3d 97 71 6b 3d
       -0.015761785 -0.0030522875 0.051979907 0.057481375
0000b0 3b 9b b5 3c 04 90 8e 3d ef be 2f bc e0 6c c9 3c
       0.022168746 0.069610626 -0.010726674 0.024588048
0000c0 ab 71 93 3c f9 7c d9 3b 4b b8 86 3d 13 bc 50 3d
       0.017998537 0.0066372124 0.0657812 0.05096061
0000d0 7a 74 dd bc ca 4e fd 3c 1f 9c 33 3d e4 bf 4f 3d
       -0.02703308 0.030921359 0.04385006 0.05072011
0000e0 a7 a1 3a bd e8 36 0f 3d af 9f c4 bc 7c f9 28 bd
       -0.04556432 0.034964472 -0.024001924 -0.04125355
0000f0 1c a8 0a 3d 93 e5 88 3d 7f d1 8f 3c 1f 0c 36 bd
       0.033851728 0.06684413 0.01755595 -0.044445153
000100 e0 cc 31 3d 50 07 8d bc 2c 50 6a 3d 8f b9 01 ba
       0.043408275 -0.017215401 0.057205364 -0.000494861
000110 37 53 56 bd 73 fc 20 3d 36 ca d1 bc ba 58 de 3c
       -0.052325454 0.039303254 -0.025609117 0.027141917
000120 cb 6d 30 3d f1 3e 60 3c 6e 71 03 3d c7 fe 62 3c
       0.043073457 0.013686881 0.032090597 0.013854689
000130 37 70 b8 ba 99 c8 34 3d bd de d4 3a 14 36 b9 3c
       -0.0014071529 0.044136617 0.0016240698 0.022608794
000140 e3 86 ec bc 05 75 82 bc dd 02 a0 3c 75 b7 ef 3c
       -0.028872913 -0.01592494 0.019532615 0.029262284
000150 b0 f8 45 3b f4 ed 71 bc a5 18 1b bd c7 8f 15 bd
       0.0030208044 -0.014766205 -0.0378653 -0.03651407
000160 9e 83 54 3d 1b 48 28 3d 68 14 38 3b 3b 28 80 bc
       0.051883332 0.04108439 0.0028088335 -0.015644183
000170 95 97 57 3d 40 31 27 3c b0 05 f7 bb 19 1f 37 bd
       0.052634794 0.010204613 -0.00753852 -0.04470739
000180 53 2a 24 3d ae b3 47 bd bc 39 81 3d 0d 8d 1b 3d
       0.040079426 -0.04875534 0.0630984 0.037976313
000190 51 b0 33 bd 24 3f bd 3b a5 ee 2f 3c db ce ba 38
       -0.04386932 0.005775349 0.01073805 8.907701e-05
0001a0 a6 95 f0 3c 9d 34 99 3c c5 dd 17 3c 54 61 41 3c
       0.029368233 0.018701846 0.009269183 0.01180299
0001b0 13 ed 24 bd 54 6d 85 3d 8d 65 92 3d e6 90 a0 3c
       -0.040265154 0.06514993 0.071482755 0.019600343
0001c0 f4 d3 5e 3c f7 f7 65 3d 57 e4 f2 3c 70 96 70 3c
       0.013600338 0.05614468 0.029649897 0.014684305
0001d0 46 b2 c6 3c c3 b7 5b ba 0c 6b 18 bd 7a b6 10 bd
       0.02425493 -0.00083815696 -0.037211463 -0.035330273
0001e0 c0 8a d0 3c ab ca 7b bd de 79 91 3c f1 7f c0 3c
       0.025456786 -0.061472576 0.017758306 0.023498507
0001f0 02 85 8c 3c 05 28 d9 3c a8 29 ac 3c 5c 06 1a 3d
       0.017153267 0.02650834 0.021015957 0.03760372
000200 73 f4 5a 3d 3e 8a 83 bc 3f 3e 70 3d f2 33 71 bc
       0.05345578 -0.01605713 0.058653113 -0.014721857
000210 10 64 42 3d 96 51 a9 bc 66 e9 f5 bc f2 09 6c 3d
       0.04745871 -0.020668786 -0.03001852 0.057626672
000220 49 4e b1 3c 5d c0 5d 3d 22 37 41 bc 16 47 ff bc
       0.021643775 0.05413853 -0.01179293 -0.031161826
000230 d2 35 a7 3b 5c ea 12 3c 39 df a8 3c 19 23 58 3d
       0.0051028514 0.008967008 0.020614253 0.052767847
000240 69 ce 08 3d 71 9a 4c 3d c0 a1 94 3c ef 65 ef ba
       0.033399973 0.049951974 0.018143535 -0.0018264632
000250 39 2f 4d 3d b0 96 27 3d 2f 3f 23 3c 92 6d be 3c
       0.050093863 0.04091519 0.009963795 0.023245607
000260 1e 7b 8e 3b 4a a1 34 3a 51 0d 05 bd 21 77 64 bd
       0.004348173 0.0006890489 -0.032483403 -0.055777673
000270 0b 3b 2e bd 5d c1 97 bc 19 03 87 3d 29 44 3e 3d
       -0.042536777 -0.01852482 0.06592388 0.04645172
000280 ca 56 47 3d ea 89 ce bc da b8 d3 bc 1d 69 2e bd
       0.048666753 -0.025212247 -0.02584498 -0.042580713
000290 6b e8 5d 3c 76 0f de bc 9f ee 64 bd 10 89 05 bd
       0.013544182 -0.027106982 -0.05589163 -0.032601416
0002a0 d4 9d 80 3c 2e 69 3b bd 1d de 45 bc b2 71 b4 bc
       0.015700258 -0.045754604 -0.012076882 -0.02202687
0002b0 ab 1d bd 3a 39 ec b4 3c 99 03 1e bd d3 dd 17 bd
       0.0014428397 0.022085296 -0.03857765 -0.037076782
0002c0 e6 49 a8 3c 1a 4d cc bc c4 88 04 3d d3 0e 4e bd
       0.02054305 -0.024939109 0.032356992 -0.050307106
0002d0 88 3f b7 ba d3 58 4e 3d ea 57 43 3d 2b f2 ba bc
       -0.0013980726 0.050377678 0.047691263 -0.022820553
0002e0 ed ec 90 3d c8 46 fe 3c b4 5d 03 3d 28 bf c2 3c
       0.0707644 0.03103961 0.032071784 0.023772791
0002f0 7b 27 31 3d 24 4d 1c bd b7 ec 24 bb 7c d7 3c 3d
       0.043250542 -0.038159505 -0.0025165507 0.04610394
000300 b1 0a c0 3c b3 ae fb 3c 46 e0 9f 3c 5c 8e 71 3d
       0.023442598 0.030722952 0.019516122 0.058973655
000310 7e 3b 12 bd 5f 1d c8 3c 3d a7 52 3d 5a e7 c9 3c
       -0.035701267 0.024428068 0.051429022 0.02464645
000320 53 c4 08 3d 7f 67 7a 3d 6c 9a 69 3c 3a 0e 08 bd
       0.033390354 0.061133858 0.014258008 -0.033216693
000330 f2 d9 5a 3d da db f3 3c 5d db ff 3c dd 48 3a bd
       0.053430505 0.02976792 0.03123253 -0.045479644
000340 ae 03 48 3d c6 06 80 bb 85 26 dc bc bf 2f 87 3b
       0.048831634 -0.0039070575 -0.026873836 0.004125565
000350 6d 77 72 3d 3e 74 23 3d fb 52 a1 bc 7e 9e 80 3c
       0.059195925 0.03990578 -0.019692888 0.015700575
000360 15 c6 06 bd 87 97 31 3d 28 f3 24 3d b7 97 80 3c
       -0.03290375 0.0433574 0.040270954 0.015697343
000370 d0 fd ad bb 65 ed 1a 3d 53 39 f5 38 34 01 c1 3c
       -0.005309798 0.037824053 0.00011693188 0.023560144
000380 2c a3 07 bd 5a 8c cb 3b db 5d 5e 3c c1 ef bb bc
       -0.033114597 0.0062117996 0.013572182 -0.022941472
000390 61 db 86 3d 92 84 5d 3d 67 72 94 bc 36 d7 72 3d
       0.06584812 0.054081507 -0.018120958 0.059287272
0003a0 5e 73 69 bc 88 ab 26 bd bd 55 b3 bc 63 2e 24 3c
       -0.014248697 -0.04069093 -0.02189147 0.010020825
0003b0 69 93 8e bc 64 57 26 3c cb 3e 5b 3c 8d 2e a8 3c
       -0.017404275 0.0101526715 0.01338167 0.02053001
0003c0 bd b2 34 bd a4 aa fe ba c3 92 92 3d c9 7b 1a 3d
       -0.04411577 -0.0019429517 0.07156899 0.037715707
0003d0 f8 6b 81 3c cf c2 83 3c 2b 7c eb 3c 7e 49 e5 3c
       0.015798554 0.016084103 0.028745731 0.027989145
0003e0 5d c1 01 bd aa 7a c3 3c b4 93 2d bd 6c d4 bd bc
       -0.031678546 0.023862202 -0.04237719 -0.02317258
0003f0 8d fe 29 3d 92 89 01 3b e0 91 3e ba f6 cc 45 bc
       0.041502524 0.0019765836 -0.0007269662 -0.012072792

network.2.weight f4 [128, 256]
000000 19 bc 34 3d 4f fa 96 bc ab 6f 15 bd 01 14 83 bc
       0.044124696 -0.018429903 -0.036483448 -0.01600075
000010 43 1b 7d 3d 5a 9b 97 bd 6c f9 4b 3d 99 7c 7b 3c
       0.061793577 -0.07402678 0.049798414 0.015349531
000020 2a 83 1b 3d 35 ce 8d 3d dd fe 25 bd 5e ac 3f bd
       0.037966885 0.069240965 -0.04052626 -0.04679524
000030 6c 91 1a bd d6 03 af 3c 72 be b8 bc 5e d3 64 3d
       -0.03773634 0.021364134 -0.022551749 0.055865638
000040 c9 7b 28 3d 92 30 93 bc 9a 62 52 3c d0 3a 92 3d
       0.041133676 -0.017967496 0.012840891 0.07140124
000050 64 b4 78 3d bc 35 af 3c 90 2d d8 bc f8 95 03 bd
       0.06071891 0.021387927 -0.026388913 -0.032125443
000060 06 72 00 bd ef d3 78 bd b1 37 67 3d 73 9e a6 3b
       -0.03135874 -0.06074899 0.056449596 0.0050848066
000070 ea fc 8f 3c 12 1f 47 3d 7a 9f 4b bc 63 a9 ee 3b
       0.017576654 0.048613615 -0.012428159 0.007283376
000080 31 36 ab bc fb 1f ab 3a 8a c1 20 bc e9 ba 08 3d
       -0.020899864 0.0013055796 -0.009811768 0.033381376
000090 28 c5 40 3d ef 3c 62 bd ac 0f a5 3b d3 de 1c 3d
       0.047063023 -0.055233892 0.0050372686 0.03829844
0000a0 f2 4f 16 bd b0 57 f5 3c d6 41 6d 3d 68 9e 17 3d
       -0.036697336 0.02994904 0.057924114 0.037016302
0000b0 83 18 2c 3d 08 6a 36 bd 58 b7 28 3d 10 cc 79 3d
       0.042015564 -0.044534713 0.041190475 0.060985625
0000c0 ca f3 4b 3d a6 c2 2c bd a0 7b b1 3c 32 0b 66 3d
       0.049793042 -0.04217782 0.021665394 0.05616302
0000d0 93 0c 5b bc 8e 06 38 3d c9 bc 4e 3d 14 0e 81 bd
       -0.013369697 0.044928126 0.05047301 -0.06301513
0000e0 b0 e4 8b 3d 45 ca 2d 3d 3f 7f 18 bd c8 54 6e bc
       0.06830728 0.042429227 -0.037230726 -0.014546581
0000f0 15 a2 ed 3c 0e 65 2f bd 9d 6b bc 3b 09 fa ae 3c
       0.02900795 -0.042820983 0.005750133 0.02135946
000100 db 8d 3e bd bf f0 f9 3c d5 13 ea bb c2 02 28 bc
       -0.046522003 0.030510304 -0.0071434774 -0.010254564
000110 71 d1 06 3d 57 00 68 3d 6d d7 57 3d 37 70 2c 3d
       0.032914583 0.05664095 0.05269568 0.042099204
000120 51 d3 57 3c 61 23 34 3d 74 c5 a2 3c 22 a0 29 bd
       0.01317294 0.043979052 0.019869544 -0.04141248
000130 f0 32 e9 bc 6a 4c 33 bd 0b 35 c1 3b 6e 47 ee bc
       -0.028466672 -0.043774046 0.005896216 -0.029086795
000140 15 18 b0 3c 42 ff dd bc b0 33 6c 3c f6 d7 07 3d
       0.021495858 -0.027099255 0.01441662 0.03316494
000150 6c a0 43 3d 4f d3 12 3d b7 23 04 3c c0 fe 19 3d
       0.047760412 0.03584605 0.008065156 0.037596464
000160 a0 16 23 3d 50 c6 24 bd 45 e8 38 3d e3 47 7a 3d
       0.0398165 -0.040228188 0.045143384 0.061103713
000170 78 90 48 3d 76 c6 23 3d 7f 87 30 3d a0 fa 06 3c
       0.0489659 0.03998419 0.04309797 0.008238465
000180 61 ae ed 3c 5f 3e 90 bc b2 13 53 3d 63 fd 76 bc
       0.029013814 -0.017607866 0.051532455 -0.015075061
000190 78 4a 0d bd a2 9f 1d 3d aa 5d cb 3b 15 08 78 bc
       -0.034494847 0.038482316 0.006206234 -0.015138646
0001a0 c7 5a 0b bd aa 76 1d 3d 6d d5 92 3d 47 a8 11 3d
       -0.03402212 0.038443245 0.07169614 0.035560872
0001b0 d9 c6 85 bd 8a f2 0c bd 23 a3 92 bc 4f 2d ec bc
       -0.06532068 -0.03441099 -0.017900055 -0.028830199
0001c0 c4 dd 2b 3b 20 d6 57 3c 2a 94 39 3c 67 96 01 bd
       0.0026224712 0.01317361 0.011326829 -0.031637575
0001d0 cd 9b fb bc 1a 6d b0 3c 7f 15 7d 3d a5 50 2e 3d
       -0.03071394 0.021536399 0.06178808 0.042557377
0001e0 6b dc 2b 3d aa 21 e5 bc e2 a0 9c bb d7 06 16 bd
       0.041958254 -0.027970154 -0.004779921 -0.036627617
0001f0 ba 29 f0 bc 90 34 e9 bc 06 b1 2d 3d 5c 3b c6 bc
       -0.029316772 -0.028467447 0.04240515 -0.024198227
000200 57 4b c1 bc ab c7 c4 bc 53 c8 52 bd 1d 6e 07 bd
       -0.023595495 -0.02402099 -0.051460575 -0.033063997
000210 5a 0b 9b bb d8 ca 49 bb b3 20 44 bc db a6 36 3d
       -0.004731578 -0.003079107 -0.011970687 0.04459272
000220 18 07 2b 3d d6 1b 05 bd 3b 72 88 3d c2 2b 57 bd
       0.041754812 -0.03249725 0.06662413 -0.052531965
000230 95 a1 1e 3d 48 98 1f bd 67 5b bb 3b 10 e4 17 3c
       0.038728315 -0.038963586 0.005717683 0.009270683
000240 bf aa 41 3d 7c 25 31 bc 50 cd e5 3b 3d c1 c7 3c
       0.047281977 -0.01081216 0.0070130005 0.024384135
000250 64 18 22 3b 62 ee 7f 3d 0a 42 96 3d 77 fa 72 3d
       0.0024733776 0.0624832 0.07336815 0.059320893
000260 3b 8e b9 bc b2 84 17 bd b8 92 23 3d 7c 20 3d 3d
       -0.022650829 -0.036991782 0.039934844 0.046173558
000270 d6 e3 81 3c c1 e8 4c 3c 02 56 2b bd 1a 82 8a 3c
       0.015855711 0.012506665 -0.04183007 0.01690774
000280 5b 0f 44 3d c2 d1 8e bb 46 6d 89 3c 10 c9 33 3d
       0.047866207 -0.004358501 0.016775738 0.04389292
000290 80 fe 93 3d b0 82 51 bd 0d 93 25 bd eb 29 14 bc
       0.072262764 -0.051150024 -0.04042344 -0.009043197
0002a0 15 1b ca 3c c3 f8 fa bb 51 e7 20 bd 19 b4 00 3a
       0.024671117 -0.0076590492 -0.0392831 0.0004909649
0002b0 c7 7a 0b 3d 0d cd 60 3d fd 2d da bc 4b e7 3e bd
       0.034052636 0.05488305 -0.026633257 -0.046607297
0002c0 c9 cc 67 3d 5f dc 2e 3d ce 37 db 3c 63 fa 92 bd
       0.056591783 0.04269063 0.026760008 -0.07176664
0002d0 0b 1a 97 3c c6 73 75 3d 1e 01 48 3d cb 66 85 bc
       0.018445035 0.059924863 0.04882919 -0.016284367
0002e0 2d 56 aa 3b c7 bd 80 bc ae 5c 86 3d 35 ea 35 bd
       0.0051982612 -0.015715493 0.06560646 -0.04441281
0002f0 90 da e0 3a 53 1c 77 bd 31 92 42 bd e3 cf 0b 3d
       0.001715498 -0.060329746 -0.0475027 0.034133803
000300 57 6c 02 bc 1c dc 8b 3c 5e 31 76 3d 0a 5b 9f 3d
       -0.007960401 0.01707273 0.060105674 0.07781036
000310 c6 e0 3e 3d 39 05 72 bb 24 b5 3a bd 58 40 d2 3c
       0.04660108 -0.0036929382 -0.045582905 0.025665447
000320 97 36 30 bd 51 9a 21 3d 58 49 ce 3c 1a 55 72 bb
       -0.04302081 0.03945381 0.025181457 -0.0036976994
000330 f4 dd 5a 3d 31 5e cd 3c 61 70 78 bd c9 89 d5 bc
       0.053434327 0.025069328 -0.060654048 -0.026066678
000340 3d c9 1c 3d 2b b1 4e 3d b2 ba 99 3d ea 83 54 3c
       0.038277853 0.05046193 0.075063124 0.012970904
000350 68 b0 0b ba f5 ae d3 bc c7 f7 0b 3c 4c 33 40 3c
       -0.0005328716 -0.025840262 0.008542961 0.01173098
000360 ae 97 b2 3c 2c f4 63 bc 88 bf b5 bc 44 a2 9e bb
       0.021800842 -0.013913196 -0.022186056 -0.004841121
000370 7c fe 8f 3d 2c 54 60 3d 76 1f 75 bc 7f 64 71 3d
       0.07030961 0.054767773 -0.014961114 0.05893373
000380 5c 0f 86 3d 4e 20 92 3b fb f1 17 bd 5d 31 62 3d
       0.06545898 0.0044594174 -0.037096005 0.055222858
000390 13 3a 94 bc 05 05 7e 3d 42 5d 95 bd 1e 2a 58 3d
       -0.018094098 0.062016506 -0.07293178 0.05277454
0003a0 70 d0 0d 3d f4 56 84 bc 97 53 75 3d 91 50 44 3c
       0.03462261 -0.016154744 0.05989417 0.011982099
0003b0 6f 62 2e bd 8b 24 c8 3c a0 33 c4 bc cd 18 ef 3c
       -0.042574342 0.024431488 -0.023950398 0.02918663
0003c0 c5 41 de bc 98 fd 7e 3c ac c4 b7 bc e8 3b 94 3d
       -0.02713097 0.015563391 -0.022432648 0.07237989
0003d0 ab 3d 9d bc de f3 17 bd 3a 9a 39 bd f7 70 5e bd
       -0.019194445 -0.037097804 -0.045313098 -0.05430695
0003e0 16 f1 f6 bc a4 0f 55 3d ad 24 6c 3d 87 fe 4b bd
       -0.030144256 0.05201687 0.057652164 -0.049803283
0003f0 7f 5c 17 3d 9a ee 40 3d 83 fb 8e bd c9 99 b5 3c
       0.036953446 0.04710255 -0.06981566 0.022168057

network.2.bias f4 [128]
000000 d0 09 32 3d ee 91 89 3c a9 c3 e8 3c d0 fe 1e bd
       0.04346639 0.016793218 0.02841361 -0.038817227
000010 81 0e 9f bc 7d e1 36 3d 73 d3 d8 3b c8 76 a3 3d
       -0.019416096 0.044648636 0.0066170036 0.0798164
000020 2d 1d 17 3d 6c 33 07 3d 0c 54 f3 bc 8a 23 d1 bc
       0.03689306 0.033008024 -0.029703163 -0.025529642
000030 7d 3b 85 bd c0 13 65 3c 82 d8 7a bd eb 06 ea bc
       -0.06505487 0.01398176 -0.061241634 -0.028567752
000040 c3 58 b8 3b ec a4 5a bd 49 e6 02 bc 45 d0 7d 3c
       0.0056258156 -0.053379938 -0.007989475 0.01549155
000050 cd 74 19 bd f1 6d 23 3b f6 6a 80 3d 0a 3a eb 3c
       -0.037464906 0.0024937356 0.06270401 0.028714199
000060 8b f1 ce 3b b2 d3 69 bd 29 d7 89 3d 0d d3 36 3d
       0.0063154153 -0.057086654 0.06730492 0.044634867
000070 93 9f 25 3d 70 79 11 bd df 18 c9 bb 9f be 75 3d
       0.040435385 -0.035516202 -0.006136998 0.059996244
000080 1c 85 ce 3c f9 16 70 3d 0d ee fb bb f3 dc f9 bc
       0.025209956 0.05861566 -0.00768829 -0.030500865
000090 0f 31 27 3d ef 1d b9 3c ab 46 cc bc 21 db 7d 3c
       0.04081827 0.022597281 -0.02493604 0.015494139
0000a0 36 d1 00 3d a2 cf 0d 3c a7 3e 0d bb eb c6 46 3d
       0.03144952 0.008655461 -0.0021552236 0.048529547
0000b0 c0 1f 26 bc e7 19 eb 3c 32 87 86 bd db 89 81 bc
       -0.010139406 0.028698875 -0.06568755 -0.015812805
0000c0 c1 ac 33 3c 44 9b 01 bd b1 3f 94 3d c2 8c 01 bd
       0.010966481 -0.031642213 0.07238711 -0.031628378
0000d0 f6 d1 fd bc 5f 1f a2 bc 32 d3 4b 3d aa ca 09 bd
       -0.030983906 -0.01979035 0.04976196 -0.03364054
0000e0 d4 63 31 3b d0 6d 79 bb ec be c5 3b 94 39 33 bd
       0.002706756 -0.0038059838 0.0060347226 -0.043756083
0000f0 34 50 22 3d 66 0c 40 3d b2 bf 8c bd 71 af 1c 3c
       0.03962727 0.046886824 -0.068725005 0.009563313
000100 f6 92 fd bc 7b 06 e6 bc 92 95 4a bc f3 c2 f4 3c
       -0.030953865 -0.028079262 -0.012364762 0.029878115
000110 a6 50 70 3c b9 e2 91 3c f6 bd a5 bc 97 f5 2e bd
       0.014667666 0.017808305 -0.020232182 -0.04271468
000120 54 a6 7d bc 5e 03 f8 3c 5f 24 07 bd e6 50 07 bd
       -0.01548155 0.030275043 -0.03299367 -0.033036135
000130 c1 f9 bd bc 93 9b ad 3b 9d cd 81 3c 22 9c 82 3c
       -0.023190381 0.005298087 0.015845114 0.01594359
000140 77 7a 2e bd da 7f ce bb 31 84 aa 3c 31 bc 78 bb
       -0.04259726 -0.006301862 0.020814987 -0.0037953968
000150 d9 95 11 bd 1c 50 91 bb 2a 31 cc 3b 78 6d 4a 37
       -0.035543296 -0.0044345986 0.0062314468 1.2065626e-05
000160 09 15 22 bd 09 77 15 3d 8b 75 9b 3d f3 66 0a 3d
       -0.039570842 0.036490474 0.07590779 0.033789586
000170 ad ba c5 bb a0 2d be ba 6f b2 35 bd b5 3e 85 bd
       -0.0060342164 -0.0014509447 -0.04435962 -0.06506101
000180 45 84 00 bd cc f7 34 3d 37 65 45 bc f9 6b fc bc
       -0.031376142 0.04418163 -0.012048057 -0.030813204
000190 49 88 0b 3d 86 53 17 3a 0e 1a 00 3d 1b 03 f7 bc
       0.03406552 0.0005772639 0.031274848 -0.030152848
0001a0 7e a2 52 3d 5b 2b 7c 3c 97 9d 78 3d 05 52 77 3c
       0.051424496 0.015391196 0.060697164 0.015095239
0001b0 88 8c 82 3c 56 98 95 3c 4f 80 12 bd 6b ea 2a 3d
       0.015936151 0.018261116 -0.035766896 0.041727465
0001c0 a0 f3 93 bc ef 88 ea bc 16 ef 12 bd e0 7e 00 3d
       -0.018060505 -0.028629748 -0.03587254 0.031370997
0001d0 f7 a5 5d 3d b0 02 31 3d 8b cd fb bc 63 51 6f bd
       0.054113355 0.043215454 -0.030737659 -0.058427226
0001e0 5e 0f 35 bd 75 01 84 bc d0 21 88 3d 09 39 5e 3d
       -0.04420411 -0.016113976 0.06647074 0.05425361
0001f0 d7 7f 15 bd 88 2d 29 3d 38 7e 12 bd b1 b9 44 3d
       -0.03649887 0.041303188 -0.035764903 0.04802865

network.4.weight f4 [64, 128]
000000 8d e2 d0 3d ac 3a 8e bb 8c 37 8c bc 05 f7 86 3b
       0.10199461 -0.0043404903 -0.01711633 0.0041188025
000010 4a b5 ac 3c 7e fd 0b bc 23 43 97 bc ba 9e 87 3d
       0.02108254 -0.008544324 -0.01846463 0.066220716
000020 b5 fc 76 3c 07 b7 19 bd 48 d8 4b bc 78 b4 3c bd
       0.0150748985 -0.037528064 -0.012441702 -0.046070546
000030 8b 51 91 bd 69 c5 f8 3c 03 ab 83 ba 72 fa 30 bc
       -0.07095631 0.03036757 -0.0010045472 -0.010801898
000040 7d 79 83 bd ed 69 14 bd 00 3b 1d 3d c6 a7 c8 bd
       -0.064196564 -0.03623383 0.038386345 -0.09797625
000050 de 11 18 3d 4b 5a 8b 3d 74 7f dc bc 8b 8f be 3d
       0.037126414 0.068043314 -0.026916243 0.093047224
000060 29 a3 a5 3d b2 f1 52 bc e7 b3 0b 3d 08 46 a4 bd
       0.08087761 -0.012875007 0.034107115 -0.0802117
000070 4f 71 9f 3c 78 70 81 bd 55 fb 03 3d 70 b1 65 3d
       0.01946321 -0.0632028 0.03222211 0.05607742
000080 e7 39 27 3d 7c 5f 63 bd bd ce 12 3d 31 a9 96 3c
       0.040826704 -0.055510983 0.035841692 0.018391224
000090 ff d2 14 3d 84 2c b3 3d 10 96 e4 3c fa d4 43 3d
       0.036334034 0.08748725 0.027903587 0.047810532
0000a0 bd 1d f0 3c 91 c6 26 bd 20 c5 26 bd 0b 22 92 3d
       0.029311055 -0.04071671 -0.040715337 0.071353994
0000b0 e5 85 9a 3b fe 60 44 bd 7c f6 04 3d f2 9d b9 3d
       0.0047156685 -0.04794406 0.03246163 0.09063329
0000c0 a0 c4 da 3d 5e 55 be bc 5f c8 62 bd 27 b2 a2 3d
       0.106820345 -0.023234066 -0.05536687 0.07944136
0000d0 b3 3b 1f bd cb 7e 85 bc 67 80 30 3d 62 16 98 bd
       -0.038875293 -0.016295811 0.043091204 -0.07426144
0000e0 c9 bb 86 3d 38 47 80 bd 67 71 c5 bd 01 31 0c 3d
       0.06578786 -0.06263584 -0.096407704 0.03422642
0000f0 aa 48 cc 3c 2c dc e3 3c 7f 46 6f bd 01 dc 0f bd
       0.024936993 0.027814947 -0.05841684 -0.03512192
000100 cc 28 85 3c a2 43 4d bd 29 c4 b3 3c c0 8e 5d bd
       0.016254805 -0.050113328 0.021944122 -0.054091215
000110 84 25 40 bd 3e 57 86 3c 2c 71 80 3d d0 7a 7a bc
       -0.046910778 0.016399022 0.06271586 -0.01528807
000120 31 ac 65 3b 5f 8e 89 3d a9 b2 43 bd 6f d0 d4 3c
       0.003504526 0.06716608 -0.047777805 0.025978295
000130 19 cc 45 bd ce 24 49 bd 3a cb ab bd 0d b3 d2 bd
       -0.048290346 -0.049107365 -0.08388372 -0.102880575
000140 59 16 88 3d d8 9e 8f 3d 07 65 22 bc 84 0e 94 bc
       0.066448875 0.07012719 -0.009911782 -0.018073328
000150 ab 45 87 bd ca 86 12 3d a8 cb 90 bd 81 45 73 bc
       -0.06605085 0.035773076 -0.07070094 -0.014848114
000160 bd 33 c2 3d 72 79 b7 bd 1f fa b1 3d 11 84 b4 3c
       0.094825245 -0.08958711 0.08690285 0.02203563
000170 5f ba f1 bc c7 07 9b bd 46 ab 58 bd b5 d9 c8 bc
       -0.029507814 -0.07569843 -0.052897714 -0.024517873
000180 16 98 46 bd 3a 56 12 3d 3b 4e 5d bc e8 eb ca 3c
       -0.048484884 0.035726763 -0.013507421 0.024770692
000190 75 4e b7 bd 1a 30 da 3d f2 1b 28 3d 6b 0f 8c 3d
       -0.08950511 0.10653706 0.041042276 0.06838878
0001a0 8a 5f 9d 3c a1 f9 f8 3c e3 3f c6 3d 43 cf 9d bb
       0.019210596 0.03039247 0.09680154 -0.0048159673
0001b0 65 b5 89 bd ce 9a d6 3d cd c0 34 3d c1 93 71 3d
       -0.067240514 0.104787454 0.04412918 0.0589788
0001c0 67 f5 b0 bc 03 d0 19 bc 27 f3 99 3d 38 e8 9f 3d
       -0.021601392 -0.009387973 0.07517081 0.07807964
0001d0 ae 64 1c 3d e8 e3 c6 bd b8 4e 79 bd 14 f2 c2 3c
       0.038181953 -0.097114384 -0.060866088 0.023797072
0001e0 07 07 c7 3c 58 19 9d 3d ff 9e b7 3d fa 23 80 3d
       0.024295343 0.076708496 0.08965873 0.06256862
0001f0 f4 b5 3f bd 2f 67 ce 3d 8a b0 9c bd ed 61 3e bd
       -0.046804383 0.100782745 -0.0765086 -0.046480108
000200 ec 7d cc 3c cf 64 cf bc 39 e1 01 bd e8 75 0e 3d
       0.024962388 -0.025316624 -0.03170893 0.034780413
000210 ac ff b2 3d ff d5 9d 3c 7a 22 30 bd bd c8 dd 3b
       0.08740172 0.01926708 -0.04300163 0.0067683146
000220 1e 27 25 3d b1 46 40 3d 49 eb a2 3d 5e ab 55 3c
       0.04032051 0.046942417 0.07955033 0.013041345
000230 4f 9f 36 bd 44 90 b5 3d 11 fb 4f bd ac 14 a8 3d
       -0.044585522 0.08865407 -0.050776545 0.08207068
000240 8e e8 21 3d af 9f 63 3b df 6d 70 bb 02 34 70 bd
       0.039528422 0.003473263 -0.0036686582 -0.05864335
000250 5c 32 8a bd d1 ed 33 3d ad 42 61 3d 5c ab 8c bd
       -0.067478865 0.04392797 0.054995228 -0.06868622
000260 38 34 82 3d eb 51 45 3d 89 2b 95 3d 7b 90 20 3d
       0.06357616 0.048173826 0.07283694 0.039200287
000270 70 e6 a3 3d aa db 25 bd 08 2f 7f 3d 21 9d ae 3c
       0.08002937 -0.04049269 0.062300712 0.02131516
000280 cf 78 8c bd 20 b7 81 3d 32 91 3e 3d e0 42 9b 3d
       -0.0685898 0.063337564 0.046525188 0.07581115
000290 96 96 39 bd d2 ae 8f bd a0 96 dc bc 2c 3b 19 bd
       -0.045309626 -0.07015766 -0.026927292 -0.037409946
0002a0 a0 7d b7 bd ac ae 66 3c 05 b4 1b 3d 11 e8 3b 3d
       -0.08959508 0.014079731 0.038013477 0.045875613
0002b0 be 06 3d bd 12 95 20 bd 1a e8 af bd d5 7c 05 3d
       -0.046149008 -0.039204665 -0.08589192 0.032589752
0002c0 c7 15 8a 3d 40 ed fb 3b 84 7f 15 bd 80 63 57 bd
       0.06742435 0.0076881945 -0.03649856 -0.052585125
0002d0 aa 0b 7e 3d 87 3a 75 bd 11 98 44 bd 2d 9f a4 bc
       0.062022842 -0.05987027 -0.047996584 -0.020095432
0002e0 7d 95 07 3d 2b 1f 35 bd 09 09 89 3d 65 39 34 bd
       0.033101548 -0.044219177 0.066911764 -0.04400005
0002f0 6a 8f 2c 3c b1 d3 42 bc f3 0f b4 bd 1f d3 3c bc
       0.010532239 -0.0118912915 -0.087921046 -0.011524945
000300 fa ff 21 3d 5c 92 44 bd 2a 4f 5b bd da 7f 13 3a
       0.03955076 -0.04799114 -0.053542294 0.00056266563
000310 11 a8 81 3d 9e c5 60 3d 04 1f 54 bd 30 33 71 bc
       0.06330884 0.054875962 -0.05178739 -0.014721677
000320 65 99 62 3d 1a 56 50 bd f8 3d b5 3d b3 2e 79 3c
       0.05532207 -0.050863363 0.0884971 0.015208888
000330 cb c2 80 3b c6 d3 bf bc 43 3d 72 3d a3 c2 cd 3d
       0.003929471 -0.023416411 0.059140455 0.1004689
000340 29 27 7f bc e0 57 98 bc d2 ad 97 3c 20 4c 4d bd
       -0.015573301 -0.01859659 0.018515501 -0.050121427
000350 65 f6 d1 3c 47 fa 65 3d 9c 97 3e bd 8b 64 19 bd
       0.025630185 0.056146886 -0.046531305 -0.0374494
000360 12 b8 cd bd 09 9f d2 bc 22 cd c6 bd 7e ad 9b bd
       -0.10044874 -0.0257106 -0.09707095 -0.076014504
000370 c4 3a a2 bc f9 5f 15 bd 27 d5 09 bc ac 5a 1c 3c
       -0.019803412 -0.03646848 -0.008412636 0.009543102
000380 ed 08 04 bd 5d 01 51 bd 85 29 27 bd 18 95 ab bd
       -0.032235075 -0.05102669 -0.04081108 -0.08378047
000390 bb e1 84 3d 26 99 8b bd b5 80 03 3d 5f 49 05 3d
       0.06488367 -0.0681632 0.032105166 0.032540675
0003a0 82 ed fc bc b7 c5 d7 3c 3b fe 51 bd 16 93 5a 3d
       -0.030874971 0.026339395 -0.051267844 0.05336293
0003b0 8a 17 25 3d f0 f9 fc 3c 82 e3 30 3d e5 6a b0 bd
       0.04030565 0.030880898 0.04318572 -0.086141385
0003c0 90 2b 82 bd 7a 86 ce 3c da 3c b4 bc 24 36 22 bd
       -0.06355965 0.025210608 -0.022001673 -0.039602414
0003d0 a6 c9 9b 3b 45 4a af 3d c9 8f dd 3b 1d 49 56 bc
       0.004754263 0.08559088 0.0067615253 -0.013078955
0003e0 8b b8 3e bd 63 e2 e4 3b 26 95 69 3d a7 bd 5f bc
       -0.046562713 0.006984995 0.057027005 -0.0136560565
0003f0 a9 e8 96 bd 35 9c c2 bd f5 29 7f 3d e6 cb 73 bd
       -0.07368595 -0.095024504 0.062295873 -0.059520625

network.4.bias f4 [64]
000000 b5 0d f6 3c 32 c1 7d 3d 93 cd 9c 3c 2d d7 1e bd
       0.030035833 0.061951824 0.019140994 -0.038779426
000010 bd ce 42 bd f0 cd 8c bd eb 71 d2 bc 4c 37 27 3d
       -0.047560442 -0.06875217 -0.025689086 0.04082422
000020 2b 82 90 3d 77 63 8e bd 8f fc 85 3d b1 23 76 3d
       0.070560776 -0.06952565 0.06542312 0.06009263
000030 c4 32 7a bd 9a bd 58 3d cc 9b c3 bc 4a bf 38 3d
       -0.06108357 0.052915193 -0.023878 0.045104302
000040 ed da 97 3d 28 67 0d 3d d0 2a 6c 3d 16 6c 15 bd
       0.07414804 0.034522206 0.057658017 -0.036480032
000050 6d e6 f3 3c f5 41 d7 bb 95 ad 40 bd 38 97 b3 3d
       0.029772962 -0.006569142 -0.04704054 0.08769077
000060 42 a9 6f 3d 48 01 b2 bd 34 24 7b bc 10 32 31 3c
       0.058511026 -0.08691651 -0.015328456 0.0108151585
000070 a4 11 d6 3b 49 0c af bd 79 e0 ac bb e9 14 8d bd
       0.0065328646 -0.08547265 -0.0052757827 -0.06888754
000080 51 e1 9c bd 13 cd 85 3d 7d 19 05 bc 9d 79 17 3b
       -0.07660163 0.065332554 -0.008123753 0.0023113259
000090 4d 7d 51 bc 93 c3 3a bc 51 82 93 3d 2b 78 6b bd
       -0.012786222 -0.011399168 0.0720259 -0.057487648
0000a0 d4 bb c5 bb 82 68 88 bd ca 07 87 3c 58 4a 1e 3d
       -0.0060343537 -0.06660558 0.016483206 0.03864512
0000b0 34 0f b3 bd f6 ba 8b 3d ef 98 8a bc 88 69 a8 bb
       -0.08743134 0.06822769 -0.016918628 -0.0051395334
0000c0 32 ce 42 bd 2f d2 ec bc d5 e0 a1 bd 2b 6e af 3d
       -0.047559924 -0.028908817 -0.079042114 0.08565935
0000d0 77 c8 2d 3d 6b 06 85 3c a0 98 35 bd 97 df 08 3c
       0.042427506 0.016238412 -0.044335008 0.008354089
0000e0 56 ee fa bc 0c 61 88 3d 36 5d a2 bd ff b1 b5 3d
       -0.030631226 0.06659135 -0.07927935 0.08871841
0000f0 f2 1f b3 bd 99 4d 79 3d b2 b5 5e bc 66 4e 23 bd
       -0.087463275 0.06086502 -0.013593124 -0.03986969

actor.weight f4 [4, 64]
000000 c8 79 21 bb 90 89 72 bd 44 f6 a3 3c b6 a1 9e 3d
       -0.0024639238 -0.05921322 0.02001489 0.07745688
000010 a4 1a ee 3c 1c c4 71 bd 73 60 f0 bd d5 9b 7a bd
       0.029065438 -0.059024915 -0.11737146 -0.06118377
000020 35 03 34 bd 73 13 9d bd 4c 2c 9f bd 5d bb 1c bd
       -0.04394837 -0.07669725 -0.07772121 -0.03826462
000030 9b 31 cd 3c 5a 33 3d 3d 9d 75 31 3d 2e 4e f3 3d
       0.025048068 0.04619155 0.043325055 0.11880146
000040 53 5a 96 3d e8 6a 13 bd de f8 9b 3d 47 e4 27 bd
       0.07341447 -0.035990626 0.07615827 -0.040989187
000050 7f 90 3e 3d d6 6d 0b 3d 00 8a b2 39 40 e0 33 bd
       0.04652452 0.034040295 0.00034053624 -0.043915033
000060 04 9e b9 bd 84 80 f5 bd f0 82 da bd 09 97 65 bd
       -0.09063342 -0.11987403 -0.106695056 -0.05605224
000070 00 40 3e 3c 7c b1 50 3d 30 5f aa bd 3d ec 00 3d
       0.0116119385 0.050950512 -0.08318937 0.031475294
000080 20 93 1a 3d 0d 55 21 3d c0 89 dc bd e2 00 22 bd
       0.037737966 0.03938775 -0.10768461 -0.039551623
000090 e7 b1 88 bd 26 72 c1 bd 72 77 9b 3d 04 58 32 bd
       -0.06674557 -0.094456 0.07591142 -0.04354097
0000a0 02 8e 4a bc 5b ea e4 bd d3 33 3e 3d 52 1e ed bd
       -0.012362959 -0.11177512 0.046436142 -0.11578049
0000b0 3d d7 da 3c 0b a9 b9 bd 16 da cf 3d 0d 8b 29 bd
       0.026713962 -0.090654455 0.101490185 -0.041392375
0000c0 96 87 eb 3d 9d 6d c0 3d 40 b5 27 bd dc 70 0a bd
       0.1150047 0.09395907 -0.040944338 -0.033799037
0000d0 e6 a6 a5 bd 36 fe 70 bc 84 0f de 3d b4 72 b2 bd
       -0.08088474 -0.014709046 0.10842803 -0.08713284
0000e0 4b 39 6a bd 12 92 6b bd 4b e6 c4 bc 7d 23 c4 3d
       -0.057183545 -0.05751235 -0.024035593 0.09577081
0000f0 10 c5 d0 bc c2 9a bd bc f5 c5 df bc 22 e0 98 3d
       -0.025484592 -0.023145083 -0.027316073 0.07464625
000100 52 01 d9 3c 18 23 c1 3d aa cf 9b 3c fc 9e d5 3d
       0.026489887 0.09430522 0.01901992 0.104307145
000110 40 be 7d 3d d8 a8 c8 3c 8b 06 06 3d a1 79 04 be
       0.061949015 0.024494573 0.032721084 -0.12937023
000120 64 ca ba 3d 28 cd 3a 3d 9d 30 f3 bd 3b e1 0c be
       0.09120634 0.04560581 -0.118745066 -0.13757794
000130 a6 59 a9 bd 34 50 dc 3d c3 8f 7a bd 3a 97 6f bc
       -0.08269052 0.10757485 -0.061172258 -0.014623458
000140 54 d8 0a be eb 2a df bc 90 44 6c bd 08 27 ab 3d
       -0.13559085 -0.027242145 -0.057682574 0.08357054
000150 b5 74 c1 bd 40 f0 9d bd b4 98 a0 3d 69 0d 05 bd
       -0.09446088 -0.0771184 0.07841626 -0.032483492
000160 a7 32 e4 bd f1 49 7c 3d 2a 63 b3 bd b5 aa 1f 3c
       -0.11142474 0.061593954 -0.087591484 0.00974529
000170 3e 1a dc 3b 46 5f 09 bd ba 8e 07 bb a6 3a af 3c
       0.0067169955 -0.033538125 -0.0020684437 0.02139027
000180 43 a0 51 bd b3 a9 a2 3d be c7 1a bd fe 8c 3a b9
       -0.051178228 0.07942524 -0.037788145 -0.00017790866
000190 ff a7 4c 3d 08 e4 89 3b 99 73 27 bb 48 97 c8 bc
       0.0499649 0.0042080916 -0.002555108 -0.024486199
0001a0 b9 59 c3 bd b1 ad 83 bd 8d 0c 48 3d d8 0f f4 3d
       -0.095385976 -0.064296134 0.048840094 0.119170845
0001b0 d1 39 0a bd 02 a6 c1 3c a6 ef 55 bd 89 cc 6d 3d
       -0.033746544 0.023638729 -0.0522305 0.058056388
0001c0 17 8f d6 bd 86 36 af bd f8 62 69 3d b4 a8 f2 3d
       -0.10476511 -0.085553214 0.05697915 0.11848584
0001d0 2a 43 04 bd 40 11 80 bc e0 de f7 bd 2f 75 f4 3c
       -0.032290615 -0.015633225 -0.12103057 0.029841034
0001e0 28 5f 1e bd c7 27 db 3d bd 8a e9 3d 1d 18 20 bd
       -0.038664967 0.10700946 0.11403415 -0.039085496
0001f0 1f eb d8 bd b3 62 7f 3d f7 0e a9 3d 91 32 41 3d
       -0.10591721 0.062349986 0.082548074 0.047167365
000200 9d f0 74 bd 70 46 85 bc 04 72 74 bd ae 24 88 3d
       -0.05979978 -0.016268939 -0.059679046 0.06647621
000210 e9 a5 d9 3d 39 69 a6 bd c8 08 9c bc a9 55 c3 3d
       0.10627348 -0.081255384 -0.019047156 0.09537823
000220 70 b4 ab 3c 64 3a 70 bd 01 bb 9f bd 19 8a 28 bd
       0.020960063 -0.058649436 -0.0779934 -0.041147325
000230 2c 89 ae 3d fe d3 60 b9 77 19 41 bd 51 0d df 3b
       0.08522257 -0.00021441278 -0.047143426 0.0068070074
000240 fb 52 1c 3d 30 5e 4e bd 14 48 6c 3d c9 c2 f5 bd
       0.038165074 -0.050382793 0.057685927 -0.12000043
000250 b8 2d 8f bd 55 6e 39 3d 40 76 ae bd e4 1b d1 bd
       -0.06991142 0.045271236 -0.08518648 -0.10210398
000260 be 32 c6 3d b0 a4 ad bd f1 84 e4 bd 36 88 89 3d
       0.09677647 -0.08478677 -0.11158169 0.06715433
000270 ae 75 fd bd 85 b5 eb 3d 8f 93 e7 bd 83 f8 d6 bd
       -0.12375961 0.115092315 -0.113074414 -0.104966186
000280 76 1e df 3d d7 64 54 bd 98 1d db bc f8 2b 19 3c
       0.10894482 -0.05185398 -0.02674751 0.009348862
000290 00 ea 09 bd 41 6a 9a bc d3 29 ab 3d 9e eb c5 3d
       -0.033670425 -0.018849494 0.08357587 0.09664081
0002a0 2e 84 9e bd d6 c9 8b bd eb 84 fa bd f4 55 59 3d
       -0.07740055 -0.068256065 -0.12232383 0.053060487
0002b0 b8 f2 71 bc 31 58 bb bd ad 75 95 bd f7 b0 07 bc
       -0.014767341 -0.091476806 -0.072978355 -0.008281938
0002c0 2c b9 8f 3d 46 a2 f7 3d 70 d7 06 bc 27 38 d1 3d
       0.070177406 0.12091498 -0.008230075 0.10215788
0002d0 71 5f aa 3d fe e1 2d bd 12 39 9a 3d 01 45 99 3d
       0.08318985 -0.04245185 0.075304165 0.074838646
0002e0 71 50 bd 3d 96 d8 96 bd 47 67 c5 bc 8a 05 0d 3d
       0.092438586 -0.07365529 -0.024097098 0.03442911
0002f0 1b 11 e0 3d 4b 15 98 bd 33 20 77 3d 45 78 6f bd
       0.109407626 -0.07425936 0.060333442 -0.058464307
000300 8b df fc 3c 1b 56 8b bd e6 b5 f1 bd 0d 28 b2 3d
       0.030868312 -0.06803533 -0.118022725 0.08699045
000310 cc 27 31 bd 26 63 c7 bd 0c e9 c0 bd fc 38 79 bd
       -0.043250844 -0.09735708 -0.0941945 -0.06084536
000320 26 ca 92 bd ff 21 d5 bd 2a bc cc 3d 10 fd 35 3d
       -0.07167463 -0.10406875 0.09996827 0.044430792
000330 17 41 77 3d 6d 7b 22 bc ce a7 cc 3d 28 78 f7 3d
       0.06036481 -0.009917122 0.09992944 0.12083465
000340 24 48 c8 3d 59 c1 5d 3d 6a bf ec 3d a6 8d c3 3d
       0.09779385 0.05413947 0.11559947 0.09548502
000350 0a 70 b9 3d 91 a3 14 bd 38 f9 b1 bd 83 ab 02 bd
       0.09054573 -0.0362888 -0.08690113 -0.031901848
000360 c0 5e b1 3d 71 ba 07 bc 74 43 9c bd b9 d6 8e 3d
       0.0866065 -0.008284197 -0.07630053 0.06974549
000370 89 f7 4b bd 12 c7 00 bb ce 11 ad bc 1b 55 35 bd
       -0.049796615 -0.0019649905 -0.021126654 -0.044270616
000380 01 80 32 3d 9f 0f bc bd 3c 47 02 3e 53 ed a4 3d
       0.043579105 -0.09182667 0.12722486 0.080530785
000390 2b 43 1a 3d c2 44 31 bd eb c7 2b 3d 40 bd 84 bc
       0.037661713 -0.043278463 0.041938704 -0.016203523
0003a0 2b d8 e1 bd 92 89 ec 3d 16 56 dd bb 67 b5 1d bc
       -0.11027559 0.11549677 -0.006754647 -0.009625769
0003b0 68 34 52 bd b8 e1 8a bd 32 80 80 3c d6 ca f5 3d
       -0.05131951 -0.06781334 0.015686128 0.120015785
0003c0 3f 8f ce 3d 56 d1 bf bd 20 8a b4 3c a4 85 a6 3c
       0.10085916 -0.093660995 0.02203852 0.020327397
0003d0 54 0f a0 3d b6 11 ce bc e8 01 03 3d a4 22 63 bc
       0.078154236 -0.02515493 0.03198424 -0.013863239
0003e0 5a cc 49 3d f9 c6 08 bb 1d ea f2 3d 37 9d ea bd
       0.04926715 -0.002087055 0.1186106 -0.114557676
0003f0 f9 82 78 bd b0 c9 97 bc de a0 a9 3d 9e 24 9a 3d
       -0.06067178 -0.01852879 0.08282636 0.075265154

actor.bias f4 [4]
000000 01 92 08 3d de 61 a3 bd ab e3 05 3d 24 f3 14 bc
       0.033342365 -0.07977651 0.032687824 -0.009091172

critic.weight f4 [1, 64]
000000 6f 01 e8 bd e6 8e cc 3d 98 13 22 bd 76 2c 06 3d
       -0.113283984 0.09988193 -0.039569467 0.032757245
000010 24 54 dd bc 20 a8 90 bc 04 b6 a9 bd 97 b3 f5 3d
       -0.02701766 -0.017658293 -0.0828667 0.11997145
000020 d4 1c 79 3c 19 71 de 3d 21 c7 2a bd c3 c0 ad 3c
       0.015204627 0.108614154 -0.04169381 0.02121008
000030 04 07 df 3d 83 02 56 3d 55 ce 80 bd 3f cd 94 3d
       0.1089001 0.05224849 -0.06289355 0.0726571
000040 02 99 9b 3d 9c e6 d1 bd 0c 16 42 bd 6b 09 da ba
       0.07597543 -0.102490634 -0.047384307 -0.0016634887
000050 83 05 32 bc 81 6b cc 3c 34 07 a8 3d cc 04 9a bd
       -0.010865572 0.024953606 0.08204499 -0.07520446
000060 c5 a9 9e bd 18 40 85 3d c2 86 8c 3d 01 d1 c0 3c
       -0.07747225 0.065063655 0.068616405 0.02353716
000070 ef 0b 9e 3d 47 15 03 bc c6 1f 7b bb e2 76 59 3d
       0.0771712 -0.008000678 -0.00383185 0.05309189
000080 93 55 35 3d 5f 97 04 3e 78 e9 97 bd a8 fc 23 3d
       0.044271063 0.12948368 -0.074175775 0.040035874
000090 3a df 43 bd 33 59 47 3d 05 7c 01 3e cc 71 c3 bd
       -0.047820307 0.04866905 0.12644966 -0.095431894
0000a0 d3 43 e9 3b 16 17 b2 bd ea 93 a3 3d a7 61 09 be
       0.007118681 -0.086958095 0.07987197 -0.13416158
0000b0 69 9f d2 3d 1b 57 65 bd a5 f5 ed bd b4 47 ba 3d
       0.10284311 -0.055991273 -0.116191186 0.090957075
0000c0 4a 8c b5 3d 90 ea 01 be 8c d9 a5 bd d7 61 e9 bb
       0.08864649 -0.12687135 -0.080981344 -0.007122259
0000d0 b0 e1 e6 3d 71 f1 d0 bd c0 8d 05 3d c3 7b e5 3c
       0.11273515 -0.10202301 0.032605886 0.028013116
0000e0 00 f2 fb 3c c7 af d0 3d 6f 52 e6 3d cc 7e fc bd
       0.030755043 0.10189777 0.11246192 -0.12328872
0000f0 0a 3b 04 3d 04 9c fe bd 4c 9a d5 bd 47 49 50 3d
       0.032282867 -0.12432101 -0.104298204 0.050851133
